models/daniel_lstm_angles_model.pth (torch, 16075 bytes, 14 tensors)

lstm.weight_ih_l0 f4 [40, 16]
00000000: 5e13 1abe 5a32 773e 7e38 433e 2bf7 25be
00000010: 3138 873e af9c 33be f5b8 a03e e6aa 87bd
00000020: a6fd 60be 861b 433e afa8 983e 285c 2dbd
00000030: 8069 a53b 0cbb d43d 8874 333d a063 5fbe
00000040: 73d7 49be a8e8 e63d d077 93bc e46d 0c3e
00000050: b838 7abe d4eb bd3d d052 6e3d dd68 993e
00000060: 40ff b63c e5d0 923e 1a7a 1cbe 25f3 833e
00000070: 2f26 a13e 6818 60bd 87ed 813e 334f 833e
00000080: 9b15 9f3e 265f f2bd aacb 3b3e f20c 753e
00000090: 70b5 65bd ae0c 363e 08fa da3d 8095 62bb
000000a0: 1b2b 9cbe cfb5 9a3e 8035 90bd 16c4 8ebe
000000b0: 2076 d23c 98e3 69bd e6a7 783e 0685 403e
000000c0: 2ced 173e 4099 a4bc 11a5 10be 3051 f8bc
000000d0: b090 2a3e 68f2 97bd f434 0bbe a0e8 f43d
000000e0: 186c 063e 0ff0 8ebe ae8a 613e 8aab 7e3e
000000f0: b941 8f3e c8aa 963d 4a33 7abe becb 9abe
00000100: a2a9 2d3e 606f 8cbc 1ea7 243e f07e ca3d
00000110: ecc2 083e 088f 553d 4839 453d bcdb e63d
00000120: c04b 31bc 00bb 43bb 101f b0bd 0a84 98be
00000130: 873b 91be c05c 953b 385a 193d d031 f6bd
00000140: bf02 823e 0a29 9bbe 2ea1 433e aaef cebd
00000150: fee8 593e e6d6 4f3e 9807 0e3e 18fb c63d
00000160: 9c9e d5bd ebaf 8b3e 48fa 483d 0e6e 403e
00000170: 9203 693e c6f6 86be 8ecf 163e 9858 34bd
00000180: 636a 8cbe 3973 3fbe eefa 5f3e 5caa ca3d
00000190: 964f 503e a0a9 38bd 4f30 94be 0040 003a
000001a0: bcda a53d abb0 6cbe 60ae 4ebd 08ee 213e
000001b0: fe1f 0ebe 01dc 853e 4047 89be be1c 753e
000001c0: 8059 6fbe b85e 1cbe a28d 6f3e 623d 5dbe
000001d0: 59f6 993e 5adf 4a3e 80a8 91bc 7c65 cc3d
000001e0: 03c9 1fbe 45b7 843e e226 56be 56b7 bebd
000001f0: ac26 e0bd 2090 a63d 1094 f03c 0860 09bd
00000200: 4bdc 06be 3b32 9b3e 3573 9b3e 2e07 6fbe
00000210: c84a d63d 5f74 17be b6b7 013e 873c 6bbe
00000220: c046 213c 7e2a e8bd b565 81be 4d08 803e
00000230: b3b8 893e b0d0 d4bc 98fc 2cbe 2a72 f3bd
00000240: 98d1 8abe 874c 913e 40ce 1ebe f694 593e
00000250: a043 c23d 6455 96bd c139 2dbe d83e 3f3d
00000260: b5e2 943e 10a8 c1bc ed9e 943e 20e5 043e
00000270: 189f 043d acc9 aa3d 898c 9b3e 6f8f 9a3e
00000280: 08e3 44bd 80d8 493d 5d00 8f3e e032 38bc
00000290: c090 17be 7a58 353e b80f cfbd f4b3 eb3d
000002a0: 041e 863d 542a f93d d833 50bd 43b9 8ebe
000002b0: 506c 0dbe 4000 1b3c 6073 413c 8a31 4cbe
000002c0: 1650 06be fe12 363e fa1e 0c3e 6ecb 74be
000002d0: d030 b13d 8de0 983e bc35 b73d 9040 8ebc
000002e0: 20f8 323e caba 5b3e f277 35be f281 47be
000002f0: 7cdb 46be 64ba e33d bada 91be c2b0 243e
00000300: 01ab 9c3e dcb4 8fbe e83a c9bd 035f 25be
00000310: 00f8 c4b9 10e2 e53d 40ad 52be 3ed6 88be
00000320: 8859 16bd 664c 0e3e f800 e73d 80d4 14bd
00000330: 4a30 173e 8c51 8fbe c7cd 91be b020 113e
00000340: f8ca 093d 34df 2d3e 19d7 77be 70d7 0bbd
00000350: ce97 713e ae4c 033e be62 693e c03d 48bd
00000360: c4e3 26be af94 883e 53eb 8f3e a039 90bc
00000370: bbc4 893e f1dd 963e 002a 9dbe c877 163d
00000380: 2a60 5f3e bc0d d23d be97 763e a429 173e
00000390: 9b98 923e f023 a43c 6a12 773e 6169 9c3e
000003a0: 7d40 953e 451f 89be a637 09be a0ba 66be
000003b0: 40c2 983c a600 4dbe 079b 9c3e b23d 66be
000003c0: 80de c13d 200e bb3c ee34 623e e859 9a3d
000003d0: 4816 bf3d 346e 003e af30 9cbe 805d 1dbe
000003e0: dd1e 82be 10a4 b23c 108c 9a3d 45fb 05be
000003f0: 4d83 a1be a8ad 4bbd 6671 46be ec36 a03d
-0.1504645 0.24140301 0.19064519 -0.16207568 0.26410058 -0.17540239 0.3139111 -0.06624393
-0.21971759 0.19053468 0.29816195 -0.042324215 0.005047977 0.10387239 0.043812305 -0.21815348
-0.19711094 0.112748444 -0.018001467 0.13713795 -0.24435699 0.09273496 0.058184445 0.29962817
0.02233851 0.28675 -0.15280953 0.25771442 0.31474444 -0.054710776 0.2537653 0.25646362
0.3107117 -0.118345544 0.1833941 0.2393072 -0.056081235 0.17778274 0.10692221 -0.0034573972
-0.30501637 0.30216834 -0.07041454 -0.27883977 0.025691092 -0.057101816 0.24282798 0.18800744
0.14836568 -0.020092607 -0.14125468 -0.03031215 0.16656756 -0.07419282 -0.13594419 0.11958432
0.13127172 -0.27917525 0.22025558 0.24870124 0.2797983 0.07356793 -0.24433628 -0.30233568
0.16959241 -0.017142951 0.16079375 0.09887493 0.13355607 0.05213836 0.04815033 0.1127238
-0.010821283 -0.00298661 -0.08599675 -0.29788238 -0.28365728 0.004558176 0.037439555 -0.1202122
0.2539272 -0.30304748 0.19104454 -0.10104306 0.21280286 0.20296821 0.13870084 0.09715861
-0.10430643 0.27282652 0.04906681 0.18791983 0.22755268 -0.26360148 0.14727613 -0.044029802
-0.27424917 -0.18696298 0.21873066 0.09895775 0.2034286 -0.045083642 -0.28943107 0.0004892349
0.08098361 -0.23114268 -0.050459266 0.15813458 -0.13879392 0.26144412 -0.26812172 0.23936746
-0.23373985 -0.15270507 0.23393872 -0.21605447 0.3007076 0.19811764 -0.017780542 0.09980294
-0.15604024 0.25921074 -0.2091327 -0.09312312 -0.10944876 0.081329584 0.029367477 -0.03353885
-0.13169973 0.3031176 0.30361333 -0.23342583 0.10463482 -0.14790486 0.12667736 -0.22972308
0.009843528 -0.1133623 -0.2527291 0.25006333 0.26898727 -0.025978416 -0.16893232 -0.118870094
-0.27113032 0.28378698 -0.15508366 0.2124823 0.09485555 -0.07340506 -0.16916563 0.04669079
0.29079214 -0.023639709 0.290275 0.12978029 0.032378286 0.08339247 0.30380657 0.30187556
-0.048068076 0.049278736 0.27929965 -0.011242598 -0.14801311 0.17709532 -0.1011042 0.11508933
0.06548694 0.121662766 -0.050830692 -0.27875718 -0.13810849 0.009460509 0.011807293 -0.19940773
-0.13116488 0.17780682 0.13683692 -0.23905727 0.08651888 0.2985882 0.08945796 -0.01736477
0.17477465 0.21457973 -0.17721537 -0.19483164 -0.19419664 0.111195356 -0.28487188 0.16083053
0.30599216 -0.28067672 -0.098256886 -0.16149525 -0.00037568808 0.112247586 -0.20573902 -0.26725954
-0.036706477 0.13896331 0.11279482 -0.03633547 0.14764515 -0.27991903 -0.28477308 0.14172626
0.03364083 0.16979676 -0.24203147 -0.034141004 0.23593065 0.1282222 0.22791573 -0.048887014
-0.16297823 0.26675937 0.28109226 -0.017605603 0.26907906 0.29466203 -0.30696106 0.036735326
0.21814027 0.10256526 0.24081323 0.14761978 0.28632054 0.020036668 0.24128118 0.30549148
0.29150763 -0.2678167 -0.13400134 -0.2253213 0.018647313 -0.20019779 0.30587026 -0.22484472
0.09466267 0.022833884 0.22090504 0.075366795 0.09330422 0.12542039 -0.30505893 -0.15367699
-0.25414172 0.021806747 0.07546246 -0.13084133 -0.31545487 -0.04972616 -0.19379196 0.078229755

lstm.weight_hh_l0 f4 [40, 10]
00000000: 9702 dfbd 9be5 513e 4a85 f4bd fe78 5b3d
00000010: 17cd 633e c7ab d23d 1ff0 6abe d02e c1bd
00000020: 180f 813e 3896 1e3e 15b3 903e 4ded 1dbe
00000030: 98ea ccbd ac60 4ebe 111c 963c 2bd9 52be
00000040: 2eca ed3c 9537 66be 97c9 d73d 0528 72be
00000050: 3dc1 45be 72f7 06be eea1 fbbd fb90 9e3e
00000060: 9e93 18be fd71 91bd ec60 593e 111b 323d
00000070: 3e5f 5ebe ade0 a7bd 0991 5d3e 332f 98be
00000080: 1a51 453e 848a 473e a380 afbd aa02 983e
00000090: d706 e4bd 4d49 a5be b6c3 503e 1d07 4a3e
000000a0: 51a2 063e bac7 6f3e a8bd 5c3d 02c4 a73e
000000b0: f8dc 7dbd ccb7 173d 36c8 673e e776 b73d
000000c0: b950 9f3d 9fc7 ac3e b702 1ebe 303e 303d
000000d0: f428 0dbe d8af 4f3c 1c03 77be 6e29 b93d
000000e0: 4e71 dcbd 2724 afbd 003d 9bbd 1552 3c3e
000000f0: 51f1 b13d 6901 a1be f257 43be 4bf4 f4bd
00000100: d8c1 bdbb 45c2 413c 7150 973d d8c1 90bd
00000110: 1ea4 973e 90b2 943d 9ba9 a73e b670 00bd
00000120: a190 2bbd 8a73 8f3d 453b 3fbe 57b2 2a3e
00000130: d0b3 f7bd 17c7 dbbe 8e45 093e 129b bd3d
00000140: 8e57 c73e da05 6a3d 3002 b13e 0578 cb3e
00000150: 1f4b 3ebe e92e c63e fc11 f83b 839a 00be
00000160: fa27 22bd aabe c63e 3c99 f5bd 781c f9bd
00000170: 384a 8f3e f649 603e c415 ba3d 8301 7d3d
00000180: 5fa3 343e a463 913d 1f01 a63e ba65 a03e
00000190: 5ebb 0dbe 99bf 86be d8b0 a83e afed 46be
000001a0: 8987 6cbe 1091 9d3e b90d 8abe a067 0dbe
000001b0: d720 0bbe 12c1 633e 7836 6cbe 5880 9c3c
000001c0: bdcc 1d3e ae8b b2bd a789 683e 6b54 443e
000001d0: 745b 4cbc 6df9 29be 2c8e b53d 2291 263e
000001e0: 9a8a 2bbe 8e4c 9abe 0e30 21be d364 9e3d
000001f0: a255 3b3e 9149 c9bd 941b 98be 3249 f23d
00000200: dea9 c33c 0e2f 4d3d 8e99 b43e 5f2f 89be
00000210: 73e3 87bd 64db 243e 2841 883d 6798 f9bc
00000220: 7038 55be 60f5 973d 3919 7fbe ba52 8b3e
00000230: 78ee 42be 4c39 653e dcb0 b93e 5de0 a73e
00000240: a9e9 a7be 43fa 633e b0d0 3b3d e7a5 353e
00000250: 6214 2bbc 6e0f 82bd 8276 6e3e 3ee0 963e
00000260: 6c03 223d 8146 6b3d 1991 01bd e2e5 843e
00000270: 198d 1bbe 6462 1bbe 8a21 a13d 361b e5ba
00000280: 9a66 0a3e 9dd3 7dbe 57b4 153e 63ce 74be
00000290: af00 963e 6dc8 593d 0dd8 5ebe 1259 353e
000002a0: 01a8 d13d 198e d0bd d651 ec3e 3e37 8d3c
000002b0: 9abc d1bd a040 c33e 7c59 fbbd baea 0bbe
000002c0: a131 cfbe c20d 8e3d 4158 81be 3ff5 953e
000002d0: aff7 573e 8db2 883e 85c5 603e a69e c33b
000002e0: 2159 a8be c4b7 9b3e 4b9b b9be 1a6c b9be
000002f0: 62ff e2bd 8ddb 83bb 5990 363e acea 99be
00000300: 43ef 953e b506 513d 0b82 81be c9ab e33c
00000310: a36b 5f3d 6e99 c0bd 5343 41be 3270 12be
00000320: f189 06be a339 1e3e 81c9 06be aea4 8f3e
00000330: 7e29 7ebc 66f3 7e3e 9e77 8abe c503 943e
00000340: da31 0a3e cb3b 963d 5a02 a6bb b56f 16be
00000350: 8f4c fbbd a8b8 0abe b541 8bbe 48de 8abe
00000360: 8c57 ec3c 62c7 243e 9c41 0cbe 4e7d 6cbd
00000370: 89ad 1dbe 6e6e 653e 798c 943e 50f6 08be
00000380: 72cf ae3c 952a 0ebe 57c6 68be 3150 b2bc
00000390: f60a c8be 671f a83d 9f0b b83d 9bbe 943c
000003a0: 18e3 793e 2ab5 c2bd 235c 1bbe 950d 7bbe
000003b0: 023b 8d3e f41f c6bd bccc df3c 5c31 823e
000003c0: aa82 a63d a3c5 883d 4fce 1dbe 571f 893e
000003d0: 14aa c4bd 88e5 1a3e 850e 15be d74a 953e
000003e0: 4189 0fbe 63bd c33c b53a 043c cf89 64bd
000003f0: 08f6 363d c4b4 b6bd 9445 843e 84f9 d6bd
-0.10889166 0.20497744 -0.11939485 0.053582184 0.22246204 0.1028667 -0.22943161 -0.09432757
0.25206828 0.15486991 0.2826163 -0.15422554 -0.10005683 -0.20154065 0.01832393 -0.20590656
0.02902707 -0.2248214 0.10536497 -0.23648079 -0.19311996 -0.1318033 -0.12286745 0.30969986
-0.14900061 -0.0710182 0.21228379 0.043482844 -0.2171602 -0.081971504 0.21637358 -0.2972351
0.19269219 0.19486433 -0.085694574 0.29689533 -0.11134117 -0.32282487 0.20387158 0.19729276
0.13147856 0.23416033 0.053891808 0.3276673 -0.06197831 0.037040517 0.22634968 0.08958226
0.077790685 0.3374605 -0.15430723 0.043028057 -0.13785154 0.012676202 -0.2412228 0.09041105
-0.10763799 -0.085518174 -0.07579994 0.18390687 0.086886056 -0.31446388 -0.19076517 -0.11960658
-0.0057909302 0.011826103 0.0738839 -0.07068223 0.296174 0.072606206 0.32746586 -0.03135749
-0.041885976 0.07004459 -0.18674953 0.16669594 -0.120948434 -0.4292533 0.1340544 0.09258093
0.38933986 0.057134487 0.3457198 0.39740005 -0.18583344 0.38707665 0.0075705033 -0.12558942
-0.039588906 0.3881734 -0.11992118 -0.12163633 0.27986312 0.21903214 0.09086183 0.06176902
0.17640446 0.07099083 0.3242273 0.3132761 -0.13841006 -0.26318052 0.3294742 -0.19426607
-0.23098578 0.30774736 -0.26963595 -0.13809061 -0.13586746 0.22241619 -0.23067653 0.019104168
0.15410133 -0.08718048 0.2270876 0.19172828 -0.012472976 -0.16599055 0.08865008 0.16266301
-0.16752091 -0.30136532 -0.15740988 0.077340744 0.18294385 -0.09828485 -0.2970854 0.11830367
0.02388471 0.050093703 0.35273403 -0.26793954 -0.06635179 0.16099316 0.066530526 -0.030468179
-0.2082231 0.074198484 -0.24911965 0.27211553 -0.19036281 0.22385138 0.36267745 0.32788363
-0.32795456 0.22263436 0.045853317 0.17739068 -0.010441871 -0.06350599 0.23287395 0.29467958
0.039554045 0.057440285 -0.031632517 0.25956637 -0.15190543 -0.15174252 0.07867725 -0.0017479423
0.13515702 -0.24787755 0.14619575 -0.23906855 0.29297397 0.053169657 -0.21762104 0.17709759
0.10237122 -0.10183353 0.46156186 0.017238256 -0.10241051 0.38135242 -0.12272927 -0.1366376
-0.4046755 0.06936218 -0.25262645 0.2928867 0.21090578 0.26698723 0.21950348 0.00596984
-0.328805 0.3041364 -0.36251292 -0.36215287 -0.11083867 -0.004023975 0.17828502 -0.30061853
0.29284105 0.051031787 -0.25294527 0.027791874 0.05454601 -0.094042644 -0.18873338 -0.14300612
-0.13138558 0.15451674 -0.13162805 0.28055328 -0.015512822 0.24897537 -0.27044386 0.28909126
0.1349558 0.07335623 -0.0050661983 -0.1469105 -0.12270462 -0.13547003 -0.27198568 -0.27122712
0.02885034 0.16091684 -0.13696903 -0.057736687 -0.1539823 0.22405407 0.29013422 -0.13375211
0.021339152 -0.13883431 -0.2273191 -0.021766754 -0.39070863 0.082091145 0.089865915 0.018157294
0.24403036 -0.095072106 -0.15171866 -0.245169 0.27584082 -0.09674063 0.027319305 0.25428283
0.08130391 0.06678321 -0.15410732 0.26781723 -0.09602752 0.15126622 -0.1455632 0.2915866
-0.14017202 0.023894018 0.0080706375 -0.055795487 0.044668227 -0.08921197 0.25834334 -0.1049681

lstm.bias_ih_l0 f4 [40]
00000000: 9991 043e 2ffc 0dbd 5518 fa3d 2334 293e
00000010: 223c a8be 9435 71be f594 59bd ad72 35bd
00000020: fb15 e53d 2427 9dbe 59fb 69be 359e e9bd
00000030: da00 bdbb 110e 47be 9a2e b1be 560a 9fbd
00000040: 7a99 203c 7455 99be ffeb 8dbe b9c9 203e
00000050: 16de bd3c cb2f 643e a79d 9bbe 9e62 0e3e
00000060: 6011 543e 225e 11be ed8c 133e 793a ab3d
00000070: 13a8 9a3d 4064 71be 1510 223e 5007 ca3d
00000080: a8bf 0dbd 2901 783e 0661 94bc 2f94 c3bc
00000090: 1a20 54be 06ee f1be 37fa b0bb d819 0f3e
0.12946166 -0.03466433 0.12211672 0.16523795 -0.32858378 -0.23555595 -0.053120572 -0.044298816
0.11185833 -0.30693924 -0.22849788 -0.11407129 -0.005767924 -0.1943896 -0.34605867 -0.07765643
0.009802217 -0.29948008 -0.27719113 0.15701951 0.023177188 0.22283857 -0.30393717 0.13904807
0.20709753 -0.14196065 0.14409228 0.08360762 0.07551589 -0.23573399 0.15826447 0.09864676
-0.034606606 0.24219193 -0.01811267 -0.02387437 -0.20715371 -0.4725191 -0.0054009217 0.13974702

lstm.bias_hh_l0 f4 [40]
00000000: c59b 96be 53f8 8ebe d831 cb3d eb6b 823e
00000010: 7eb1 50be cb01 d8bd baf3 693e ac68 ba3d
00000020: a903 cebe 0880 91be 97a7 7a3d 5712 b7be
00000030: ab73 833e 5368 1c3e 9943 52bd c1c7 3fbe
00000040: fa3a 873e 36bd 2dbd bd6e 603d 96b6 8a3c
00000050: a66e 90bd eb04 93be 620e 74be 6f7c 78be
00000060: fe70 a8bd 9d12 c1bc efdf 86bd f1e9 e4bd
00000070: ef80 19bc 54a9 b0bd e4a0 c2be 7062 9b3d
00000080: d6a1 193d 84c9 6dbe c085 80ba c1e6 9c3d
00000090: 8e19 36be a4a5 fabe 5943 313e a621 3b3e
-0.29415718 -0.2792383 0.09921616 0.2547296 -0.20380208 -0.10547217 0.2284688 0.09101996
-0.40237167 -0.28417993 0.061194982 -0.3575618 0.25674185 0.15274172 -0.051333997 -0.18728544
0.26412183 -0.042416774 0.05479311 0.016932767 -0.070523545 -0.2871469 -0.23833612 -0.24266218
-0.082246765 -0.023568446 -0.06585681 -0.11177433 -0.009369119 -0.08626047 -0.38013375 0.07587135
0.037507854 -0.23221403 -0.0009805486 0.076612 -0.17783186 -0.489545 0.17310847 0.18274555

lstm.weight_ih_l1 f4 [40, 10]
00000000: 0268 be3e 40b9 1e3d 72d7 52bd ce63 203e
00000010: f4c7 db3d ff6f 93bd 2264 f6bd 16de cb3d
00000020: dde2 b9be 9307 88bd 673b c63e a528 50be
00000030: c0d8 bb3e 1c1c 0abe d83c 4dbe f2db 083d
00000040: a6b2 69be fab3 593d cddc c4be 3e45 01be
00000050: 0290 563e 44c4 8dbe acc9 69bc d72f 23be
00000060: 35e7 b13d 35b7 823e 73b8 2b3d 8ef3 19bc
00000070: 6fa0 65be ce00 9a3e 8c4f eabd 7233 0fbe
00000080: 676d 46be 9cfe 843d 468b 493e c705 bc3e
00000090: 3d5f e73d 66d7 2ebe 8f68 6c3d 2f08 c13e
000000a0: 6a54 98bd 5d5c 8c3c e1c8 c63e a7da 053e
000000b0: db8d 773e e660 1abe e392 153d 3725 20be
000000c0: 34c5 4fbc 41fe 3f3d b8ea d3bd f771 553c
000000d0: 97d2 8fbd ae45 dbbc 900e 533e 35d4 15bd
000000e0: 124a 7cbe 3446 c3be 03a3 98bd 04ca 12bd
000000f0: bce9 8c3e 88f6 33be fc4b 04be 9c16 f93c
00000100: ce24 48be 7ff2 47be 95f2 093e 3472 14be
00000110: 8866 80be 847c 073e 9b7a c43e e15c 993e
00000120: a951 e63e f24a f73e 2865 c4bd a6a7 cf3d
00000130: 167f d9be deba 193e c8d1 89bd ba4b 813e
00000140: 1963 a53e 6539 0f3e 1646 07be 1d4e 41be
00000150: b9f0 7cbe 658b 1e3e 63a2 31be a063 d5bd
00000160: c6f2 083e 2a8a 36be a98c dbbc f1e8 ed3d
00000170: e743 96bc 794c 3e3e a5fc c2be 3b09 873e
00000180: cec4 aebe 22a6 16bc 3e9a 90be 6a12 883d
00000190: 8e00 bc3e aad4 3c3e 0582 ab3e 4a22 b33d
000001a0: 2012 1fbd eac4 5c3c 2fa8 b6be 1e82 373e
000001b0: 6044 3f3e 35f8 a23e a596 823e d60f dabc
000001c0: d169 cc3d 1966 f2bc 52f5 3d3c 352a 5a3e
000001d0: 293f 7dbe eda0 d43d 8268 bbbe 68d9 013e
000001e0: 4024 043e ba79 9d3d 08c6 043e 95b7 6b3e
000001f0: 27d1 543d 239c 6d3e 02af 86be c04c 8bbe
00000200: 2470 353d c827 3abe 4f6d 2e3e edd1 5a3e
00000210: ded1 fabd 276e 813d fc85 aa3d 9a26 7e3e
00000220: de42 6e3e 56ef ff3d 9931 5d3e 6caf ac3e
00000230: e3c8 e83d fa7f fa3d 3ce2 c73c cff1 a53e
00000240: 9d85 bbbe 8571 173e 4caa 153e 301a bbbe
00000250: aba2 5bbe 0d2e 9b3e 21e4 683d a252 87bd
00000260: 526a 1e3e 5872 fcbd 7ceb 5cbd 1032 233e
00000270: af70 96be bbc8 493e 4e10 81be b87d be3e
00000280: 72db bb3d da24 913e 0f3a 683e bf84 d5bd
00000290: 610c a23d cf2e b73e ddea 553e 0792 e13d
000002a0: db39 bd3d 3e7d b53d b321 cd3e 8179 ac3d
000002b0: 7de6 2a3e 20e0 953e 2a06 b43d 48cd c03e
000002c0: 199d c2be cf59 79be abc6 a9be 5cbb 9c3e
000002d0: 7707 29be fb95 3dbe c1da 3a3e 8229 813d
000002e0: 9dad 54bd f8ab a93e 0c33 51be 6f6e 2abe
000002f0: dad2 53be 01b6 4ebe baf1 54be c439 9b3e
00000300: 2e7a 953e 899b 17be 89e5 acbe 3070 4bbe
00000310: 23b5 f93d 2592 97be e7b5 80bd e59d a33d
00000320: 8878 363e 0f57 873e 8ac1 be3e 8162 cc3d
00000330: 52b4 9d3b 627e 293e c475 9cbd 997e 483e
00000340: 6e3d 683e f163 f33d cbbd 203e 2867 5dbd
00000350: 838f 453e bb99 b03d f7fd 1a3e dbbf 74bd
00000360: 75a9 103e e00d a5bd 9eed 59be ac57 70be
00000370: 902c bebe 5193 6e3e b3ca 1ebe 34ed 0ebe
00000380: 190e a9bd ccab 943d 8af7 f7bd 3fa9 153c
00000390: 3cee d33b f3be 3a3e f408 87bd 32b4 8abe
000003a0: 47dc bfba 8663 9b3e 047b dcbd 42d7 2ebe
000003b0: 0511 31be 6462 b93d 18ef 60be 2d4b ee3d
000003c0: 8e50 f13d 0c77 383d 4f5e 1abd a50f bcbd
000003d0: 2997 893c 0d89 1b3d 91f2 e43d f4b9 203e
000003e0: a568 fa3d 0fb1 b03c 0127 863e 77f3 f1bd
000003f0: 7a2e 993e 2939 96bd 2db1 27be fe9f bcbc
0.37188727 0.038750887 -0.051474996 0.15663072 0.107314974 -0.07199096 -0.120308176 0.09954469
-0.36305895 -0.0664207 0.38717195 -0.20328005 0.36688805 -0.13487285 -0.20042741 0.03341288
-0.22822055 0.053150155 -0.38449708 -0.1262407 0.20953372 -0.276888 -0.014269274 -0.15936218
0.08686677 0.255304 0.04192395 -0.009396447 -0.22424482 0.3007874 -0.114409536 -0.13984469
-0.19377671 0.064938754 0.19682035 0.36723158 0.11297462 -0.17074355 0.057716902 0.37701556
-0.07437976 0.017133886 0.38825133 0.1307169 0.24175207 -0.15076026 0.036517035 -0.15639196
-0.012681294 0.046873335 -0.103475034 0.01302766 -0.07022589 -0.026766624 0.20611024 -0.03657933
-0.2463763 -0.38139498 -0.07452967 -0.03583719 0.27522075 -0.17574513 -0.1291961 0.030406289
-0.1954529 -0.19526099 0.13471444 -0.1449669 -0.25078225 0.13231093 0.3837479 0.29953673
0.44984177 0.48299366 -0.095896065 0.10139398 -0.4247977 0.1501269 -0.06729466 0.25253087
0.32302168 0.13986738 -0.1321033 -0.18877454 -0.24701203 0.15482862 -0.17347102 -0.104193926
0.1337386 -0.17826143 -0.02680047 0.11616696 -0.018342925 0.1858386 -0.38083377 0.2637423
-0.34134525 -0.009194883 -0.28242677 0.06644137 0.36719173 0.184405 0.33497635 0.087467745
-0.038835645 0.013474682 -0.3567519 0.1792073 0.18678427 0.31829992 0.25505558 -0.02661888
0.099811204 -0.0295897 0.011594133 0.21305163 -0.24731125 0.10382257 -0.3660317 0.1268059
0.12904453 0.07689233 0.12966168 0.2301925 0.051957276 0.23204093 -0.26305395 -0.27206993
0.0442964 -0.18179238 0.17033885 0.21369143 -0.1224706 0.06319838 0.08326337 0.24819413
0.23267695 0.124968216 0.21600951 0.33727586 0.11366441 0.12231441 0.02439987 0.32411048
-0.36625376 0.14789398 0.14615744 -0.36543417 -0.21448772 0.3030857 0.056858186 -0.06607558
0.15470245 -0.12326497 -0.053935513 0.15937066 -0.29382846 0.19705479 -0.25207752 0.3720529
0.09172715 0.28348428 0.22678398 -0.1042571 0.07912517 0.357779 0.20890374 0.11014181
0.09239551 0.08861779 0.40064773 0.084216125 0.16689487 0.29272556 0.08790238 0.37656617
-0.3801048 -0.24350666 -0.33159384 0.30611694 -0.16506754 -0.18514244 0.1824751 0.06306745
-0.051923383 0.33139014 -0.20429629 -0.1664369 -0.20685902 -0.20186616 -0.20795336 0.3031751
0.29194778 -0.14805426 -0.3376887 -0.19867015 0.12192752 -0.29603687 -0.06284695 0.079891
0.17819417 0.26433608 0.37257034 0.09979726 0.0048127556 0.16552117 -0.076396495 0.19579543
0.22679684 0.11884297 0.156974 -0.054053456 0.19293027 0.08623072 0.15135942 -0.05975328
0.14127143 -0.08059287 -0.2128205 -0.23470944 -0.37143373 0.23298384 -0.15507011 -0.13957673
-0.08254642 0.0725933 -0.12107761 0.00913459 0.0064676087 0.18236904 -0.065935045 -0.27090603
-0.0014637791 0.30349368 -0.10765651 -0.17074302 -0.17291649 0.0905197 -0.21966207 0.116354324
0.11782943 0.045035407 -0.037687596 -0.091826715 0.016795712 0.0379725 0.11179078 0.15695935
0.122269906 0.021568803 0.26201633 -0.11814015 0.2991827 -0.07335121 -0.16376181 -0.023025509

lstm.weight_hh_l1 f4 [40, 10]
00000000: d660 35be 14c4 183e dc64 d0bd 79ca 9cbe
00000010: 4650 06be b0e3 b1be 40b1 e5bd 7b74 75be
00000020: b99b 8fbe 2f6b 7ebe 8e7d 12be fa04 96be
00000030: 1d81 54b9 4174 c0be 2b2b 963d 9e20 aebe
00000040: 31e8 563e e02c 4f3e e606 9ebe c1ab 45be
00000050: 23b2 0f3e fa1b fc3d b54b 3d3d de3c babb
00000060: 0cb9 813e 229b b43d 242f f3bb 2b10 a73e
00000070: 05b4 533c 14af 243e 4beb afbe f6ba a9bc
00000080: 8723 983d f724 2dbe 82fc 44bd b828 2abe
00000090: a907 54be 1283 bc3c b5cd 51be c047 47be
000000a0: 99bd 243d 92a0 eeba e723 333d ba7b 413e
000000b0: 8a97 243e caa6 c5be a49f cb3e 5886 163e
000000c0: 3ca0 2cbe b503 5fbd 93ad 613d f936 a23d
000000d0: 9e15 98bd c94b 373e 1e6c 8cbd 83b6 aa3d
000000e0: ae2d 733e 8db1 513e 26a4 083e fd6a e43d
000000f0: d0ad 9ebd fc63 7c3e 6012 ae3d f8e3 aebd
00000100: 1528 f3bd 6f7a a73a c4dc c2bd 9446 073e
00000110: 8685 d3bd 02b9 0ebe 5a91 053e 9afc e3bd
00000120: 480e babc 0ed7 b2be 1b7e a33e b707 c9be
00000130: 7cd1 5d3d 61ee 30be 7f55 353e 7aba 58be
00000140: 4b53 633d 8a3c 6e3e 6246 c1bd 36ab 463e
00000150: d4a1 8dbd e08d 153e 7e26 a73d 063f 79bc
00000160: 7bac c63d 8417 c43d 641f 3bbe 4bd0 a13d
00000170: 5ad6 15be 3c06 bdbe ceb5 883e 9653 53be
00000180: 61a7 513e 8a88 923e e68a e43d fad6 27be
00000190: defa c9be 2950 2cbe 444c 81be 6125 0c3d
000001a0: 8875 babd cd01 33bd 69ea b53e a7a2 29be
000001b0: ddeb bdbc ec2b b93d e0f3 5c3e 9b19 75bd
000001c0: bb7e 5a3e be6b 25be 01c6 033d 1f57 1a3d
000001d0: 1494 683e e506 903e 0117 7bbe 7e6d 21be
000001e0: d53a 8ebe 14bb 223e 16bc 813e 2c06 9fbd
000001f0: ea93 913e 0809 a2be 315d 30be 4956 d4bd
00000200: 31a4 94be 11f0 50be ca45 803d 15a5 883e
00000210: 6651 f03d 9d38 5ebe e13a 9dbc f2d1 7bbe
00000220: f163 b7bc b927 7abe 2b6b 933e ac7c 5abe
00000230: d2d4 583e 8287 e83d 2e01 a63d 3627 59bd
00000240: 6fb0 583e f6ce aebd 9979 f93d 017b 8c3e
00000250: 94fa d53d b808 6c3e 0c12 3a3e c6bb 9b3d
00000260: 6752 183e 0df7 3f3e 482e 84be c2dc 433e
00000270: c8fa 8e3e 7877 293e bbf3 163c 0cc1 39be
00000280: 9b95 793c a79a 74bd 288a a43d 7aa9 ed3d
00000290: f02f 9f3e bea6 df3d 753f 683e 4789 a7bc
000002a0: 9efd 383e e10e 853e 2394 493d ab12 31bd
000002b0: b059 b63e d997 3abe 608c 59be b812 b23c
000002c0: 99b6 903d ba1e a33e 7b3c c5be 3fad 8b3e
000002d0: fee9 683b 5804 b13d dec3 17bc cca2 f9bc
000002e0: 0c41 50be bcfd 03be 7315 0c3e 07aa 873e
000002f0: c963 c6bd 60e6 8abe b575 09be a63a 9ebe
00000300: ea51 183e 2435 483e 5647 af3e d741 eebd
00000310: 71a9 acbd 8d0b 243d e890 ffbc 5d92 ba3e
00000320: ce9b 94be c220 7c3e 78d8 8d3d 5900 15bd
00000330: 0d74 863d f96d ff3d 033b d13e 1aaa 4d3e
00000340: f8a3 1e3e 79d1 34be 35fa 2a3e ff1a b93d
00000350: 6be5 dbbd c220 b6bc 72c0 473e 1f53 8f3e
00000360: e975 043e 830c 8d3e 5a88 863d 1dab 813e
00000370: 8352 633d eb69 8cbd 0958 1d3e 9d4c f6bd
00000380: 8227 b23d 7b1e 15be 6e5c 01bd 5aec 5abe
00000390: 8018 9b3e 90cf c33d 1024 2e3e 406d 733e
000003a0: 6fb2 ba3e 46e0 353d 27bb 343e 6db9 9dbe
000003b0: be93 23be d9cb a8bd 16bf 433e 0d68 bebd
000003c0: b4e5 903e 4b8c 06be 6820 f23c 6342 243d
000003d0: 8b96 6e3e 1d5c 143e 12fe 3c3e 024e 073e
000003e0: 4049 fdbd 53b8 06be 8927 abbd debc df3d
000003f0: f10b 3fbe 425d 4bbe bceb b4be 2e4c efbd
-0.17712721 0.14918548 -0.101754874 -0.30623224 -0.1311656 -0.34744024 -0.112154484 -0.23970215
-0.28048494 -0.24845575 -0.14305708 -0.29300672 -0.00020265994 -0.37588695 0.073324524 -0.3400926
0.20987011 0.20231962 -0.30864638 -0.193038 0.14032798 0.123100236 0.046214778 -0.0056835255
0.25336492 0.08818652 -0.007421391 0.32629523 0.012921338 0.16082412 -0.34359202 -0.020719033
0.07428651 -0.16908632 -0.048092373 -0.16617095 -0.20706047 0.023011718 -0.20488627 -0.19460964
0.040219877 -0.0018205813 0.04373541 0.18894854 0.16073433 -0.38603812 0.39770234 0.14699686
-0.16858 -0.054446895 0.055097174 0.079206415 -0.07425998 0.17900003 -0.06856559 0.083355926
0.23747894 0.20477886 0.13343868 0.11153219 -0.07747996 0.24647516 0.084995985 -0.08539575
-0.118728794 0.0012777577 -0.09514764 0.13210517 -0.10328202 -0.13937762 0.13043728 -0.11132164
-0.022711888 -0.349297 0.31932148 -0.39263698 0.054154858 -0.17278434 0.17708395 -0.21164885
0.055499356 0.23265281 -0.094372526 0.1940125 -0.06915632 0.14604902 0.08161639 -0.01521278
0.09700867 0.09574798 -0.18273693 0.07901057 -0.1463255 -0.3691882 0.26701206 -0.20637354
0.20474006 0.28619796 0.11159305 -0.16390601 -0.3944921 -0.16827454 -0.252535 0.034215335
-0.091044486 -0.04370289 0.35530403 -0.16565953 -0.023183757 0.090415806 0.21577406 -0.059838872
0.21337406 -0.16154382 0.032171253 0.03768074 0.22712737 0.2813026 -0.24520494 -0.15764424
-0.2777926 0.15891677 0.2533881 -0.07764849 0.28433162 -0.31647515 -0.1722305 -0.1036802
-0.29031518 -0.20404078 0.06263311 0.26688448 0.117342755 -0.21701284 -0.019193115 -0.24591807
-0.022386523 -0.24429215 0.287927 -0.21336621 0.21174935 0.11353971 0.08105694 -0.05301591
0.21161054 -0.085355684 0.12181396 0.27437595 0.104481846 0.23050201 0.18170947 0.07604174
0.14875184 0.18746586 -0.2581656 0.19127181 0.27925706 0.1654948 0.009213383 -0.18140048
0.015233423 -0.0597178 0.08034164 0.11604591 0.3109126 0.109204754 0.22680457 -0.020451201
0.18065497 0.25987914 0.04921354 -0.043230694 0.356153 -0.18221988 -0.21244955 0.021737441
0.07066078 0.3185938 -0.38522705 0.27280614 0.003553986 0.08643407 -0.009263007 -0.030473135
-0.20337313 -0.1288976 0.13680057 0.26496908 -0.09687001 -0.27128887 -0.13423808 -0.3090412
0.14874998 0.19551522 0.34234113 -0.11633652 -0.08430756 0.04005008 -0.031197026 0.3643979
-0.2902512 0.24621871 0.06926054 -0.036377285 0.06565104 0.124721475 0.40865335 0.2008442
0.15492237 -0.17658032 0.16697009 0.09038352 -0.107371174 -0.022232417 0.19507006 0.27993104
0.12935604 0.27548608 0.06568976 0.25325862 0.05549861 -0.0685614 0.15365614 -0.120263316
0.08698942 -0.14562409 -0.03158229 -0.21379223 0.3029213 0.09561074 0.17005944 0.23772144
0.3646426 0.044403337 0.17649518 -0.3080553 -0.15974328 -0.08242006 0.19115862 -0.0929719
0.2830025 -0.13139455 0.029556468 0.040102374 0.23299615 0.14488263 0.18456295 0.13213351
-0.12367487 -0.13156252 -0.0835715 0.109246954 -0.18656899 -0.19859794 -0.353361 -0.11684452

lstm.bias_ih_l1 f4 [40]
00000000: 0e12 c0be 6baa 94be fc8d 63be ea80 bebe
00000010: c614 2abe 3b69 dcbc b17c 42be fb32 b3be
00000020: b520 4e3e 457a 17be e4e6 273d 8840 d6be
00000030: 7142 f83d 77f9 afbe 755d 0e3e b45c 43be
00000040: b89f 283e e28f 23bd bf5f 96bc b33e babd
00000050: f7ab 303e c4ac e5bd c8c5 6c3b 54b6 823d
00000060: 8135 383e 33f4 923e 721b 51be d2a6 b3bd
00000070: 01a7 5dbe cdc7 703c 5690 28be 3f3a f7be
00000080: 3e3d 90be a1d7 483e 391a 843b 67bf 083e
00000090: bba3 5e3b 30bf d1be e905 72be 3028 b9bb
-0.37513775 -0.2903627 -0.22222131 -0.3720773 -0.16609487 -0.026905647 -0.18992878 -0.34999833
0.20129664 -0.14792736 0.04099168 -0.41846108 0.12122048 -0.34370014 0.13902839 -0.19078332
0.16467178 -0.03993214 -0.018356202 -0.0909399 0.172531 -0.11214593 0.003612863 0.063824326
0.1798916 0.28701934 -0.20420626 -0.08772053 -0.21645738 0.014696074 -0.1646131 -0.48286626
-0.28171724 0.19613506 0.0040314463 0.13354264 0.0033972103 -0.40966177 -0.23635067 -0.0056505427

lstm.bias_hh_l1 f4 [40]
00000000: 8df7 283d 022a ef3c 01b5 423e 8c44 15be
00000010: 1ec4 a9bc 06be e0bd 8577 d1be d973 cbbd
00000020: 5986 bdbe 22eb f63d 9edc e2be de67 8dbe
00000030: ebb6 c4be c2f5 69bd f486 23be 453b 14be
00000040: aeb2 313e f569 9abe 7dcc 11be 4992 7fbe
00000050: 6532 343e 9a80 e23d 8eed 23bd c232 393d
00000060: 0b33 3dbe b4bd 0bbe ea6a 35bd be80 b7bd
00000070: 5484 873e 7f5f d7bd 68d6 37be 4d3e c8be
00000080: 4179 5d3e 39db 443e 7e06 56be eb9a 6abe
00000090: c13a 6d3d 758d 25be 6064 02be b0b1 8abe
0.041251708 0.029194836 0.1901436 -0.1457693 -0.020723399 -0.10973744 -0.409115 -0.099342056
-0.37016562 0.12056567 -0.44308943 -0.27618307 -0.38420805 -0.05711914 -0.1596945 -0.14475735
0.17353317 -0.30158964 -0.14238162 -0.24958147 0.17597349 0.11059685 -0.04002147 0.045214422
-0.18476503 -0.13646585 -0.044291414 -0.089601025 0.26468146 -0.10516261 -0.17952883 -0.39110032
0.21628286 0.19224252 -0.20900914 -0.22910659 0.05791736 -0.16167243 -0.12733603 -0.2708869

lstm.weight_ih_l2 f4 [40, 10]
00000000: 2275 983e fbe5 2d3d 46c0 0fbe 3844 993e
00000010: df29 b3be b6a7 a1bd 387d ee3d 3824 c3bd
00000020: cf8c 893e 9400 91be 4a38 70be 9052 1abe
00000030: 0112 9abc 0c19 d7bd 9c36 2d3e 1c87 d7bd
00000040: bae1 af3e 25a2 1f3b 7f43 abbe 73dc 21be
00000050: 40d4 61be fe1d 9abe d173 813e 3c33 13bd
00000060: 4592 833e 9ad5 8cbe 67ec bd3e b323 7f3e
00000070: bb68 7d3d f9a8 d7bd 68a4 cdbe 9a87 f13d
00000080: 17a4 74bd 03df a5bc a36e 8ebe e134 78bd
00000090: de92 013f 19e7 343e 9057 2abc c6dd 163b
000000a0: e849 8abe 702d 993e 292b 523d e1f5 abbd
000000b0: 1ed4 a93d 06ef 69be e591 943e 68f9 083e
000000c0: 21c7 4a3c 3809 debe 0bf4 32be 249f 9abd
000000d0: b80e c33e 0a57 c6be cbc3 a63e 1354 c03d
000000e0: e350 df3e 9fec d63e 79dc 76be 3282 9f3e
000000f0: b7eb fb3c 4e21 5f3e 5977 4ebd 404a 44be
00000100: 9014 38be 2d02 17bd 80cb 9e3d 2af3 193d
00000110: 5984 7a3d 1cd8 f2be 68dd 3ebe 96a3 97bd
00000120: 7e21 ac3e a643 e73d bd42 c33d 24d7 f0be
00000130: 3a68 3a3e 0a1e 013d 3319 8ebe 4465 29be
00000140: 4abc 843e 43cd 69be 38fd 84be 9dbf 9cbe
00000150: e7d2 ffbc 3181 04be f9f9 8a3e 9122 a73e
00000160: b75b af3e e288 00be 4b58 d7be 4956 f83c
00000170: f5d9 2d3d 8492 253e 7751 543e 130c 8f3d
00000180: d15f bd3c 00ff 253d d955 26bd 1479 b13d
00000190: 2564 95be 401b 25bd a609 773c d5e0 01bd
000001a0: 67a0 9e3c 68fc b8bc 3b7c 95bd a420 7cbc
000001b0: 136e 0b3b 0497 fcbe d99a dfbe f91c 40be
000001c0: 43c0 8a3e ff96 43be 1d93 90bd 2fdb 5cbe
000001d0: fc1f 10bd b2ea 21be e2db aabd 4d2d 0cbe
000001e0: eab7 c63d 5865 8abe 3bf6 a93e ba97 79be
000001f0: 9867 f3bd c170 9fbe 3e3b dcbd 14e0 0dbe
00000200: 9cff 8fbd b2a3 35bd 208a 7bbe e822 abbd
00000210: 9e42 b53e eab0 eabd 94ca 2fbe 20fe c9be
00000220: 7b1f 003f d4ce 4bbe f8a0 edbd a5e7 9d3e
00000230: 9f42 b8bd a22e 0a3d b7f5 86be a6ec 62be
00000240: 18fd e0be bf23 68be df65 70ba be9d a4bd
00000250: 2ec9 69be 2c1f fabe c9e6 dcbe 2398 65be
00000260: f7e1 203e 72a6 993d 8b26 253e 0b8a 71be
00000270: b591 cabc 5186 dc3d b89d e9bc 9301 cc3e
00000280: 2a0f 393e 0673 9dbd b343 63bb c782 90be
00000290: 49bf 55bd 7034 0bbc eb7d 12be cffb 2ebe
000002a0: 8f2f cf3d 9c4e b7be c8c5 98be d2c8 bbbd
000002b0: 628c c43c 88cf d1bd 2e0a a33e 4f4d 26be
000002c0: 0638 b93d 035b 42be 4c20 223e 44bb 563c
000002d0: 6b2c 64be 237f 78be 3afa 993e 1984 b8be
000002e0: e51f 8dbe 0569 e13d 32cb a8bc deb7 14be
000002f0: 43b8 b9bd 839a 41be d073 803c d136 843e
00000300: 6a0b 533e c148 c2bd 77aa 82be af64 c3be
00000310: 1699 053e 09db 953a aa7a 593e 2444 a4bd
00000320: 909b 55bd 7f4a 3f3e 8371 6c3e 29b2 0cbc
00000330: e2bf 263e 8edd 133e 4e86 b1bd 816d a73c
00000340: 1343 8ebd b050 353e f88f 45be 95a9 b53d
00000350: 45ad 0dbe f195 7f3e 6ab6 e2bd cb3a 86be
00000360: e96c 8dbd e83f 9bbe 352b 87be 63cf 0a3d
00000370: 2065 573e 5ab1 2bbe 0e88 94be e58a 17be
00000380: 484f 1a3e f99a fd3d 2969 d4bd 659c 72be
00000390: 6eb6 76be e582 803e 386c debd 35f9 5d3e
000003a0: f619 833e 2187 883e dcfb 083e f3bf 2d3e
000003b0: 5ee3 763e 6b4d 0a3e a1cc 56be 9656 35be
000003c0: 010f 483d 8498 86be 0a08 44be e1f9 90bd
000003d0: 9142 53be 684c 93be 1858 5e3d 424a 50bd
000003e0: ee64 363e 364f a23d 2d91 bf3e e433 613e
000003f0: 756c 08be c8f6 ac3e 3a38 48be 78e5 823e
0.29776865 0.042455655 -0.1403819 0.2993486 -0.34992883 -0.078933164 0.11644977 -0.095283926
0.2686524 -0.28320754 -0.23458973 -0.15070558 -0.018807413 -0.10502824 0.16915363 -0.10523817
0.34351903 0.002435812 -0.33449933 -0.15806751 -0.22053623 -0.30101007 0.25283673 -0.035937533
0.25697532 -0.27506715 0.37094423 0.24915962 0.061867457 -0.10530276 -0.40164495 0.11793442
-0.0597268 -0.020247942 -0.27818784 -0.060597304 0.50614727 0.17666282 -0.010396853 0.002302037
-0.2700951 0.2991748 0.051310692 -0.08396507 0.08292411 -0.22845086 0.2901756 0.13376391
0.012376578 -0.43366408 -0.17475908 -0.07549885 0.38097167 -0.3873828 0.32571253 0.09391036
0.436164 0.41977403 -0.24107541 0.3115402 0.030752046 0.21790048 -0.050406788 -0.19168949
-0.17976594 -0.03686731 0.07753658 0.037585415 0.061161373 -0.47430503 -0.18639147 -0.074042484
0.33619303 0.112922 0.09534214 -0.4703914 0.18203822 0.031522788 -0.277536 -0.16542536
0.25924903 -0.22832207 -0.2597444 -0.3061494 -0.031228496 -0.12939908 0.2714384 0.3264356
0.3424966 -0.12552217 -0.4205955 0.030314581 0.04244419 0.16169173 0.20734201 0.06984725
0.023116978 0.04052639 -0.040609214 0.08665672 -0.29177967 -0.04030919 0.015077984 -0.031708557
0.019363595 -0.022581294 -0.07299086 -0.0153886415 0.0021275326 -0.49333966 -0.43672827 -0.18761052
0.2709981 -0.19100569 -0.0705931 -0.21567987 -0.035186753 -0.15812185 -0.083427206 -0.13689156
0.097030476 -0.27030444 0.3319567 -0.24374285 -0.11884993 -0.31140712 -0.10753487 -0.1385501
-0.070311755 -0.044345565 -0.2456441 -0.08356267 0.35402387 -0.11459525 -0.17167121 -0.39451694
0.50048035 -0.19903117 -0.11602968 0.30840793 -0.08997082 0.03373588 -0.2635934 -0.22160587
-0.43943095 -0.22669886 -0.00091704534 -0.080378994 -0.2283065 -0.48851907 -0.43144825 -0.22421317
0.15711199 0.0750245 0.16127984 -0.23587815 -0.024727682 0.10767806 -0.028517589 0.3984495
0.18072191 -0.076879546 -0.0034677803 -0.28224775 -0.052184377 -0.008496389 -0.14305846 -0.17088245
0.10116493 -0.35802162 -0.29838395 -0.09169163 0.023992721 -0.102446616 0.31843704 -0.16240428
0.09043889 -0.1898003 0.15832633 0.013106171 -0.22282569 -0.24267249 0.3007372 -0.36038283
-0.27563396 0.11006359 -0.020604704 -0.14523265 -0.09068348 -0.18906598 0.015680224 0.25823072
0.20609823 -0.09486533 -0.2552068 -0.38162753 0.13046679 0.0011433075 0.21238199 -0.08020809
-0.05215031 0.18680762 0.23090176 -0.008587399 0.16284135 0.14439985 -0.08668195 0.020437958
-0.06946387 0.17706561 -0.19293201 0.08870236 -0.13835628 0.24959542 -0.11069949 -0.2621673
-0.069055386 -0.30322194 -0.26400152 0.033889186 0.2103467 -0.16766873 -0.2901005 -0.14799078
0.15069306 0.12383074 -0.1037162 -0.23692472 -0.24093029 0.25099865 -0.10860485 0.21677096
0.25605744 0.26665595 0.13377327 0.16967754 0.24110171 0.13506095 -0.20976497 -0.17708811
0.048842434 -0.26288235 -0.19143692 -0.070789106 -0.20630862 -0.2876923 0.05428323 -0.050852068
0.17811939 0.079252645 0.37415448 0.21992451 -0.13322623 0.3378203 -0.19552699 0.25565696

lstm.weight_hh_l2 f4 [40, 10]
00000000: a5a5 f8bd 3dc2 98bd 6ccf 7abe 1a68 0abf
00000010: 2241 9c3c bdd7 2bbe b321 a2be 9e71 fcbd
00000020: 9d7b bbbd e4d4 47bc e20d 3cbe b196 c8be
00000030: 734b d63b 3d9f 61be 0de7 d9bd bd35 81bd
00000040: a49a 9c3c eaea ccbd 92de c4bb 3be0 bc3b
00000050: 7d25 c13d 3136 453e 0a07 d7bd 158a c0bd
00000060: 1288 9abe 1bbf 253d d9e1 a8be 5c79 f73d
00000070: aaf8 d43d 9323 373e ce92 10bf f367 17be
00000080: 14fa 87bd 6e6d cebe 057c 2ebe 381a a23c
00000090: 45f6 f83c 9ab0 84bd 5d90 b0be d746 5bbd
000000a0: 37a2 cdbe a311 38be 9ba4 34be 966d 92be
000000b0: 1996 0bbf 20e5 c33c 3c18 c03d 2cf5 cbbd
000000c0: c2b1 c0be bdc5 033e 1f81 17be 0ed2 313e
000000d0: 9be7 3d3e 0423 c2bd ba75 3dbe 598e f13d
000000e0: d5f4 f2be 4c57 f43c 52c2 b7be b15a f73e
000000f0: e4bd 6abe 33f8 d33d 1a7a 9b3c efae afbd
00000100: f359 fabe e233 f2be 6368 0fbf 97da c0be
00000110: a0e9 a5bc 3a0d ca3e 1906 d1be 2c2d a9ba
00000120: 96b2 a23e 9de6 24bd d02d d9be 2b86 463d
00000130: e470 22be ea89 6b3e 28c1 a4be 4eab f03e
00000140: bc58 aabd a300 84be 27ca c43d 022e 37bc
00000150: d722 9dbe ca6a 0a3d 1a39 3a3e f33f 5c3e
00000160: e27c 003e 9eb2 6cbe 283c d5be b660 7abd
00000170: a340 bb3e ab25 993e 6bc4 cdbe 6bed 6cbe
00000180: 6a68 cfbe e471 d2be 2a8c aebe 1959 a53e
00000190: 6e3b 19be 92f6 a7be 2026 adbe d6f3 cfbd
000001a0: a46a 923d 6a5b c6be 1dbc 18be c32d 81be
000001b0: 108a 74be c4e4 213e 1cf3 8abe b6c3 b9be
000001c0: 773e 1e3d 624c 4cbe c87d 84be e146 9f3c
000001d0: 915d 383c 59df d23e c0bc c3bc a146 623d
000001e0: 580c babe 6887 95bd 1005 803e a586 75bd
000001f0: 2503 af3d db2f 3f3e 5cb6 c8be cc70 3c3e
00000200: 50b6 6abe b36e 9b3d e600 73bc e677 edbd
00000210: 47fc 84be 37c7 a0bb e095 e0bc 67de af3e
00000220: 7abe b63d 6a4a 77be b6b1 f4be b0e6 ee3e
00000230: 8497 3abe 964b 173e 1ca0 f7be b814 513c
00000240: 5d6b d0be e2c5 99bc 551e bfbe 5116 703e
00000250: c46e b3be 1cdd b03e b8b9 06be 3282 d83d
00000260: 94d0 e63e df5e 8abe 49d9 41be db84 093e
00000270: 1649 7ebe 2556 71be 41fa 09be f115 dbbc
00000280: 445f 7ebe 55cf 5fbe af96 b73d c83d 033e
00000290: 7070 51be 9b35 eb3d 7990 d1be 674f a0bc
000002a0: 1c67 dfbe 8848 a6bd 137e a6bd 3c7e 40be
000002b0: b13d 10be 265d 42be 1271 d5be bd55 b93e
000002c0: 11a6 cebe 1641 80bd e5b1 27be 986e f9bd
000002d0: f416 a1be 6267 58be 4c19 84bc bf43 d0be
000002e0: 8a40 bbbe 4a6f 763e c1bf 9bbc 2674 84bd
000002f0: 99f2 a3be ff38 b73e 4bae a73d a8fc acbe
00000300: e351 d33d ff4e 613d 8511 b3be 4ef7 91bc
00000310: 5202 fbbd b693 3dbc ae17 7dbe f2be c73d
00000320: 7aa5 a4be bb4f d4be 6a89 cabe 5ce0 413d
00000330: 7fa3 203e 5330 2abe f8f6 743d 9626 52be
00000340: bcfa 7bbe ada0 a33d dcb7 d93d a79b 92be
00000350: 9295 fcbd b76b 03be 3646 7f3e 0e4c 2ebe
00000360: 5152 6dbe 6cb4 183e 2eb9 1a3e 5832 24be
00000370: 3e3b 273e f15f aa3e e3e4 0abe b322 233e
00000380: e082 803e 994f 38bd 3ab4 eebd c6a0 c03e
00000390: 2999 933e 8166 18be e8b8 d9be 85ff 8d3e
000003a0: 36d0 64bd 62af 0ebe 1636 d5be 5656 0bbe
000003b0: 3474 66be ee48 213e dc0a 7c3d 88b4 913e
000003c0: a853 c4bd 14a7 583e f0f5 21be c084 f1be
000003d0: 92db 82be cbd7 2dbe e3e9 d0be 3645 42be
000003e0: c38f 9abe 67d0 92be ab97 6fbd edac 75be
000003f0: 6ec2 93be 4506 8bbe be23 923d f2d5 8dbe
-0.12140969 -0.07458923 -0.24493188 -0.54065096 0.019074026 -0.16781516 -0.31666335 -0.12326358
-0.09154437 -0.012196753 -0.18364671 -0.39177468 0.006539756 -0.22033401 -0.106397726 -0.06309078
0.019116707 -0.10005744 -0.0060079778 0.005764035 0.094309784 0.19258954 -0.104993895 -0.09401337
-0.30181938 0.040465456 -0.32984808 0.12083694 0.103989914 0.17884664 -0.56474006 -0.14785747
-0.066394955 -0.40317863 -0.17039497 0.019787893 0.030390868 -0.064789966 -0.3448514 -0.053534355
-0.40162823 -0.17975478 -0.17640917 -0.28599232 -0.54525906 0.023912966 0.09379622 -0.09958872
-0.37635618 0.128684 -0.1479535 0.17365286 0.18545382 -0.09479335 -0.1850194 0.11794729
-0.47452417 0.029826783 -0.35890442 0.4831138 -0.22924 0.103500746 0.018979121 -0.08578288
-0.4889675 -0.47305208 -0.56018656 -0.3766677 -0.020253003 0.39463216 -0.40824965 -0.0012907139
0.31776875 -0.040258992 -0.42417765 0.048467796 -0.15863377 0.23001829 -0.32178617 0.47005695
-0.08317706 -0.25781736 0.0960887 -0.011180403 -0.30690643 0.03379325 0.18185845 0.2150877
0.12547639 -0.23115012 -0.41647458 -0.061127387 0.3657275 0.2991155 -0.40188918 -0.23137443
-0.4050935 -0.41102517 -0.34091312 0.3229454 -0.14964077 -0.32805306 -0.3381815 -0.1015393
0.07149246 -0.38741618 -0.1491551 -0.25230226 -0.23880792 0.15809923 -0.27138603 -0.36282128
0.03863379 -0.19951013 -0.25877213 0.019442977 0.011252777 0.41186026 -0.023893714 0.05524314
-0.36337543 -0.07301217 0.25003862 -0.05994286 0.08545522 0.18670599 -0.3920163 0.18402404
-0.22921109 0.075894736 -0.014831757 -0.115951344 -0.25973722 -0.0049065608 -0.027415216 0.34349367
0.08923049 -0.2414948 -0.47791833 0.46660376 -0.18221861 0.14774927 -0.4836434 0.012761287
-0.40706912 -0.018771116 -0.3732783 0.23446013 -0.35045445 0.34543693 -0.13156784 0.10571708
0.45081007 -0.27025506 -0.18930544 0.13429587 -0.24832568 -0.23568018 -0.1347437 -0.02674386
-0.24841028 -0.21856435 0.089642875 0.12816536 -0.20453048 0.11484834 -0.40930536 -0.019569112
-0.43633354 -0.08119303 -0.081295155 -0.18798155 -0.14086033 -0.18980846 -0.41687828 0.36198226
-0.40361074 -0.06262414 -0.16376455 -0.12179297 -0.31462824 -0.21133187 -0.016125344 -0.40676686
-0.36572677 0.24065891 -0.019012334 -0.06467466 -0.32021025 0.35785672 0.081875406 -0.3378651
0.10318353 0.055006977 -0.34974304 -0.01781812 -0.12256302 -0.011570862 -0.24716064 0.09753217
-0.321575 -0.4146708 -0.39557964 0.047333106 0.15687369 -0.16619997 0.05980584 -0.20522532
-0.24607366 0.07989631 0.106307715 -0.28634378 -0.12333216 -0.12834059 0.24929127 -0.170212
-0.23175932 0.14912575 0.15109703 -0.1603483 0.16331193 0.33276322 -0.13563876 0.15931205
0.2509985 -0.044997785 -0.11655469 0.3762266 0.2882779 -0.14882852 -0.42523885 0.27734008
-0.055862628 -0.1393409 -0.41642827 -0.13607153 -0.22505265 0.15750477 0.061533794 0.28458047
-0.09586269 0.21157485 -0.15816474 -0.47171593 -0.25558144 -0.1697685 -0.4080344 -0.18971714
-0.30187806 -0.28674623 -0.05849425 -0.23991747 -0.28859276 -0.2715322 0.071357235 -0.2770229

lstm.bias_ih_l2 f4 [40]
00000000: 25b0 e2be 7ba1 4d3b 4b92 8fbe f37e 82bd
00000010: d3f8 14bd cc17 c8be 3304 7dbd 347d e5be
00000020: cda2 96bd 6ff6 7bbe 12ad 05be 8e2d d3bd
00000030: ee8c e03b cb88 24bd 2833 0bbe 74ae 01bf
00000040: 56c2 d8be ee0b cbbe f18d 7cbe 72f6 febe
00000050: c7ac 873e 3b30 03be 1252 82bc 9b38 423d
00000060: eb83 4d3e 5d44 81bc bbcd af3d 157f 1abe
00000070: 2c82 e23d 871f 93bd d49b 75be b78d 39be
00000080: a4da eabc 6191 8fbd 1f30 b4be 198f 27bd
00000090: d7b6 aebe d980 f6be d5af 2ebe e597 2ebe
-0.44275013 0.0031376767 -0.280413 -0.0637187 -0.03637011 -0.39080656 -0.061771583 -0.44822085
-0.073552705 -0.24605726 -0.13054302 -0.10311423 0.0068527376 -0.04016952 -0.13593733 -0.5065682
-0.42335767 -0.3965754 -0.24663521 -0.49797398 0.26499006 -0.12811367 -0.015908275 0.047417264
0.20069854 -0.015779668 0.08584162 -0.1508754 0.110599846 -0.07183748 -0.23985225 -0.18120466
-0.02866871 -0.07010151 -0.35192963 -0.040907953 -0.3412387 -0.48145178 -0.17059262 -0.1705013

lstm.bias_hh_l2 f4 [40]
00000000: f7c9 d6be 338d 05be af9a e4bd d26f 53be
00000010: 402d d3be cc09 0cbe 719a d5bd 1d5b 77be
00000020: 6c66 49be 9f8f 87be f961 f5be 8696 92be
00000030: c977 a0be d5e7 80be f389 a53c 94e6 b9be
00000040: 8d42 78be 7ed3 e4be 1ded 0a3e ee73 f9be
00000050: f42b 32bd 2223 f93d 95e3 9abc 0e7a 873c
00000060: 4fd6 dfbd 2e96 74bd 2fff 513d e59a 353e
00000070: fc9c 9cbd 90c2 15be 59be 643d 8d09 3fbe
00000080: baa3 223e 7c98 203d dccc edbd d333 89be
00000090: e6f1 97be ddf8 4cbe 3981 af3d 2642 4bbe
-0.41950962 -0.13042144 -0.11162316 -0.20648125 -0.4124546 -0.13675612 -0.10429848 -0.2415585
-0.19667977 -0.26476762 -0.4792631 -0.28630465 -0.3134139 -0.25176874 0.02020738 -0.3630873
-0.24244137 -0.44692606 0.13567014 -0.4872126 -0.04349895 0.12164904 -0.018907348 0.016537692
-0.10929548 -0.059713535 0.051268753 0.17734869 -0.0764713 -0.14625001 0.055845592 -0.18655987
0.15882769 0.03920792 -0.116113394 -0.2679735 -0.2967674 -0.20016809 0.08569569 -0.19849452

fc.weight f4 [3, 10]
00000000: 99f3 15be 3319 a8bd 50ff ba3d 42c7 7a3c
00000010: 84a8 d8bd 6272 7a3d 7d42 6cbe 7727 fa3d
00000020: a9d5 cbbd 0b40 303e 4747 243d ca21 9dbd
00000030: 1b21 c03d 37c9 373d 1da6 53bd 6969 bb3d
00000040: 539c 01be ffc4 183e 9654 a5bd af7c 69bd
00000050: db03 833e 2a9b 85bd 6c70 f13d 3922 9b3d
00000060: 3079 613d 0eea e33d 6c4f 7dbd d214 273e
00000070: e834 6dbd 1889 c5bc
-0.14643706 -0.08207931 0.09130728 0.015306296 -0.10579017 0.06114424 -0.23072238 0.122145586
-0.09952862 0.1721193 0.040107038 -0.076724604 0.09381314 0.044869628 -0.05167209 0.09150965
-0.12657289 0.14918898 -0.08072774 -0.057003673 0.2558888 -0.06523736 0.11789021 0.07574887
0.055047214 0.11128627 -0.06184332 0.16316536 -0.057911783 -0.024113223

fc.bias f4 [3]
00000000: e2b2 62bd 00b6 873e eeaf ae3b
-0.055346377 0.26506042 0.005331031
