models/UCF101_lstm_joints_model.pth (torch, 318359 bytes, 42 tensors)

weight_ih_l0 f4 [96, 132]
000000 c1 dc b9 bd 44 1d 17 be 29 e8 49 be 24 d0 8d bd
       -0.090753086 -0.14757258 -0.19717468 -0.06924465
000010 83 78 1d be 12 b5 0e 3e 08 07 27 3e 06 b1 2e be
       -0.15378003 0.1393626 0.16311276 -0.17059717
000020 d8 9f dd 3d e0 c9 48 3e 50 49 29 3d 12 67 a9 bd
       0.108215034 0.19608259 0.041329682 -0.08271612
000030 db e8 f6 bd af a1 4e be 40 bc 1a be 8c a7 a5 bd
       -0.120561324 -0.20178865 -0.15110874 -0.08088598
000040 32 7a 3f be 24 31 83 3d 8c 4d 2a 3d ce 69 06 3e
       -0.18698958 0.06405857 0.04157786 0.13126299
000050 d8 50 60 3d c8 9e 26 bd 00 77 3a be de 48 f8 bd
       0.0547646 -0.04067877 -0.18209457 -0.12123273
000060 18 3e b8 bc a4 18 94 bd 58 d7 67 3d 94 ba 28 bd
       -0.022490546 -0.07231262 0.056601852 -0.04119356
000070 3c f4 1c 3d 65 9a 44 be 30 e5 a0 3d d0 bf f0 3c
       0.038318858 -0.19199522 0.07856214 0.029388338
000080 20 a1 37 3e a0 e0 b7 bc 00 36 31 be fa b8 11 3e
       0.17932558 -0.022445977 -0.17305756 0.14230719
000090 9e 8b 00 3e c2 51 3f be 1f 05 b9 bd f4 44 37 be
       0.1255326 -0.18683532 -0.0903418 -0.17897397
0000a0 30 26 d7 3d a4 29 9e 3d 7a 0b 3d be c8 4f ff 3d
       0.105053306 0.07722786 -0.18461409 0.12466389
0000b0 28 12 91 bd c0 fc 41 3e 30 8a 65 3d fc 28 34 bd
       -0.07083541 0.18944073 0.05603999 -0.0439844
0000c0 e0 1d 4f 3d 18 f8 eb 3d ea c7 15 3e 8b 85 eb bd
       0.0505656 0.115219295 0.14627042 -0.11500081
0000d0 90 15 82 3d 4c e0 43 be e0 a2 0b 3e 30 ef d3 bc
       0.06351769 -0.19128531 0.1363635 -0.02587089
0000e0 a0 1e 90 3c c7 88 28 be c4 ff 31 be 58 98 e7 3d
       0.017592728 -0.16458426 -0.17382723 0.11308354
0000f0 e0 0a 92 bc 00 97 5a bb 72 fc b9 bd 2c 65 25 3d
       -0.017827451 -0.0033354163 -0.09081353 0.04037969
000100 54 0c b9 bd a4 38 bc 3d 9a 3c ec bd 4a 87 d9 bd
       -0.090355545 0.09190491 -0.11534996 -0.106215075
000110 c8 f6 22 be 9c d6 01 be 36 7d 38 be 94 d5 b4 3d
       -0.15914452 -0.12679523 -0.18016514 0.08829799
000120 b4 d2 b4 bd 3c c4 2a be 10 55 62 3d b0 6d 3e 3d
       -0.08829251 -0.1667642 0.055256903 0.046491325
000130 e6 f1 b2 bd 6f 25 ac bd 30 59 1c 3e 8c af c4 3d
       -0.08737545 -0.084055774 0.15268397 0.096037954
000140 2c 1d 0e 3e 14 ef b8 3d 68 d5 1b bd 5a 8d 22 3e
       0.13878316 0.090299755 -0.038045317 0.15874234
000150 94 5c c4 3d 80 36 71 bb d0 93 a5 3d da e2 19 be
       0.095879704 -0.0036806166 0.080848336 -0.15027943
000160 0c 9e b3 3d 70 39 72 3d e0 e8 bb 3d f0 5f a0 bc
       0.087703794 0.059136808 0.09175277 -0.019576997
000170 c5 78 d0 bd 34 a3 43 3e 04 28 fd bd 68 5e e5 3c
       -0.10179285 0.19105226 -0.12361148 0.027999118
000180 d0 2f 4b 3e a8 d4 44 3e be 38 33 be bc e0 d8 bd
       0.19842458 0.19221747 -0.17502114 -0.1058974
000190 ca f6 4a 3e 8c c1 3e 3e 28 02 4d be fd fc 4f be
       0.19820705 0.1862852 -0.20020354 -0.20311351
0001a0 9c 51 32 3d 42 a2 3e be f8 3e 12 3e 2a 8b 09 3e
       0.04353486 -0.18616584 0.14281833 0.13431993
0001b0 2c 91 4a bd 68 c7 49 3e 46 d8 25 3e 8c 82 3b 3e
       -0.049454853 0.19704974 0.16195783 0.18311518
0001c0 80 f0 de bc d2 58 13 3e ac 9b 03 be 44 27 12 bd
       -0.027214289 0.14389351 -0.12852353 -0.035681978
0001d0 2c e2 6a bd ba b1 43 3e bc 69 eb 3d b4 a7 a0 3d
       -0.0573446 0.19110766 0.114947766 0.07844487
0001e0 64 f2 a7 bd 00 31 ea 3c 58 04 7d bd 70 07 5d 3d
       -0.08200529 0.028587818 -0.06177172 0.05396217
0001f0 00 b0 89 38 ba 6c 21 be 69 6c e2 bd 48 01 c1 3d
       6.5654516e-05 -0.15764132 -0.11055834 0.094240725
000200 f8 54 07 3e e8 10 6a 3d 2c 19 ec 3d 0e e5 36 be
       0.13216007 0.05714503 0.11528239 -0.17860815
000210 4c c1 53 bd 78 ad 28 bd 50 6b 71 bc 6c a5 18 bd
       -0.051698014 -0.041181058 -0.014735058 -0.037267134
000220 56 29 12 be e0 18 a9 3b 20 2c bc bd c4 05 cc 3d
       -0.14273581 0.005160436 -0.09188104 0.09962037
000230 3d 04 ac bd 70 e1 9d 3c ad 1a 27 be 40 76 24 be
       -0.08399246 0.019272536 -0.1631877 -0.16060734
000240 f9 52 e6 bd ce a7 34 be 98 2d 58 3d 28 78 e8 bd
       -0.112462945 -0.17642137 0.052777857 -0.11351043
000250 f0 64 84 bc 84 d6 00 3e 48 e8 f8 3d a8 ed 1b 3d
       -0.016161412 0.12581831 0.12153679 0.038068444
000260 4c e9 2b 3d 0e ba fd bd 73 02 00 be a0 e2 99 bd
       0.041970536 -0.12389003 -0.12500934 -0.075139284
000270 a8 3d e8 3c 6c b8 0a 3d a4 e7 f9 3d 20 73 b4 bc
       0.028349712 0.033867285 0.12202385 -0.022027552
000280 40 70 18 be 10 80 8d bd 7a 29 30 3e a6 d4 21 3e
       -0.1488657 -0.069091916 0.17203322 0.15803775
000290 38 53 9a 3c e6 55 8c bd 28 dc e6 bc b8 89 9a bc
       0.01883851 -0.06852321 -0.02818115 -0.018864498
0002a0 68 92 de 3d ec d0 35 3e ba f2 4c be 10 0b 49 3e
       0.108677685 0.17755479 -0.20014468 0.19633126
0002b0 9c 83 08 be 5c dd 0b 3d 92 44 25 be d0 a9 2b bd
       -0.13331455 0.03414665 -0.16139439 -0.041909993
0002c0 a0 1c fc 3d ab d2 27 be 90 59 75 3d 17 8d fa bd
       0.12310147 -0.16388957 0.059899867 -0.12233942
0002d0 70 7e 07 3e c4 cd c8 3d 14 99 50 3e 50 a2 3f be
       0.13231826 0.09804872 0.20370895 -0.18714261
0002e0 77 70 50 be 10 81 2b bc 5c c8 79 bd 80 c1 d3 bb
       -0.20355402 -0.010467783 -0.060982093 -0.006462276
0002f0 f6 26 14 be 80 fe 85 3a 58 41 d2 3d 40 0f 4f 3e
       -0.14467987 0.0010222942 0.102663696 0.20220661
000300 08 52 06 3e d1 e0 39 be 99 d0 d8 bd 60 04 43 bc
       0.1311723 -0.18152167 -0.10586662 -0.011902899
000310 8c 44 4b be 1c be 08 3e 70 d8 8c bd 36 7e 27 be
       -0.19850367 0.13353771 -0.0687722 -0.1635674
000320 68 eb 01 be 66 b1 00 be d0 27 1a 3c c4 da 01 3d
       -0.12687457 -0.12567672 0.009408906 0.03170277
000330 31 a0 be bd 48 ce 97 bd 2a 7f 2d 3e 28 37 de bd
       -0.09307898 -0.07412392 0.1694304 -0.10850364
000340 5f 1c 2e be 40 3a 28 3e 90 85 f5 3c 12 4c 41 be
       -0.1700301 0.1642847 0.029970914 -0.18876675
000350 16 d0 b4 bd 30 7a 4a bc 74 0e 98 bd 6a 8a 1c be
       -0.08828752 -0.012358233 -0.07424632 -0.15287176
000360 1a 65 39 3e e0 3b 15 bc 14 45 21 bd 8c 4a 45 bd
       0.18104973 -0.009108514 -0.03937252 -0.048166797
000370 80 8f f1 3c 64 48 eb 3d 68 a6 4d 3e 8c 69 33 bd
       0.029487371 0.11488417 0.2008301 -0.04380183
000380 94 c8 b6 bd e2 e5 e8 bd 84 dc 3d 3e ae 2d 45 3e
       -0.08924976 -0.11371972 0.18541151 0.19255707
000390 f8 ee 38 be 84 a1 09 3e a3 8e 0e be 98 4c a1 3c
       -0.1805991 0.1344052 -0.13921599 0.019689843
0003a0 24 4f b5 bd 90 e9 43 3d 5b 89 f0 bd 98 71 e0 bc
       -0.088529855 0.047830164 -0.117449485 -0.027397916
0003b0 6f cd f8 bd 4c 5d 3a bd f0 42 47 3c 7c 42 68 bd
       -0.12148558 -0.04549913 0.012161955 -0.05670403
0003c0 50 ff c4 3d 0a 07 0e be 97 49 31 be 53 bf af bd
       0.096190095 -0.13869873 -0.17313229 -0.08581414
0003d0 e6 d0 07 be 8c 46 19 3e 3e 77 3f be e2 f3 47 3e
       -0.13263282 0.14968318 -0.18697831 0.19526628
0003e0 6a 56 d9 bd f2 59 25 be f8 bc d1 3c 6a a5 2b 3e
       -0.10612185 -0.16147593 0.025602803 0.16762319
0003f0 8c cd 4a bd 8c 55 a9 3d c4 fb 45 3e 90 e8 fc bc
       -0.04951243 0.0826827 0.19334322 -0.030872613

weight_hh_l0 f4 [96, 24]
000000 5c cc 74 bd cb 33 90 be 3c 0a bd 3b 49 ff aa 3d
       -0.059765205 -0.28164515 0.0057690423 0.08349473
000010 ba 84 18 3e 65 8c d8 bd f4 e3 23 3c 02 5d f2 ba
       0.14894381 -0.10573653 0.010003079 -0.0018490853
000020 3a 94 53 3e 10 2d ea 3c 9b f7 87 be 73 68 5d 3e
       0.20662013 0.02858594 -0.26556095 0.21621875
000030 35 1b 81 3e fb 2f 53 be d0 2f ba 3d 75 de 57 3c
       0.2521607 -0.20623772 0.09091151 0.0131755965
000040 b9 12 35 be 33 9e 67 3e 64 aa 54 bc 20 61 9d bd
       -0.17682923 0.22618942 -0.012980077 -0.07684541
000050 b1 3c e9 3d 60 8c f3 bd 17 0d 7b be 41 0c 96 3c
       0.11388529 -0.11892009 -0.24516712 0.01831639
000060 9f c0 bb bd 64 fe 48 be 58 03 49 bd 57 05 22 3d
       -0.09167599 -0.19628292 -0.049075454 0.039555874
000070 98 52 87 3e bd de c0 3d a9 5c 80 bd 88 31 d9 bd
       0.26430202 0.09417484 -0.062676735 -0.106051505
000080 67 d6 e4 3d 3f 9f f6 bd 47 9c ba be fe f9 18 3e
       0.111737065 -0.120420925 -0.36447355 0.14939114
000090 cb 9c 07 3e 6c 64 00 be 98 73 32 3e c0 30 e4 3c
       0.13243406 -0.12538308 0.17426908 0.027855277
0000a0 46 dd 92 be 74 ea 48 3e ad eb 74 be 9b 06 c3 be
       -0.28684443 0.19620687 -0.23918028 -0.38090977
0000b0 d4 1b fc 3d 95 a2 22 3e cc 67 82 be bc ac 42 3d
       0.12309995 0.15882333 -0.25469816 0.047528014
0000c0 e3 73 88 3e d3 08 d0 bd 11 73 66 be b5 b2 2a 3b
       0.26650915 -0.10157933 -0.22504832 0.002604646
0000d0 85 cc 09 3d d8 5b a5 3c 70 8a c7 bd fd 8f fd bc
       0.03364231 0.020185396 -0.09743202 -0.030952448
0000e0 53 d0 21 be 18 ee 07 bd 9d 6f 10 be 83 06 bc bd
       -0.15802126 -0.03318605 -0.14105077 -0.091809295
0000f0 15 e0 79 be b0 96 03 bd 6e 74 26 bd 95 8c 71 3d
       -0.24401887 -0.03212613 -0.04063838 0.05897196
000100 ba 68 34 be c5 36 8b 3e fc e2 59 bd 3d a5 0b 3d
       -0.17618075 0.27190223 -0.053194985 0.03409313
000110 92 d0 ce 3d f9 51 66 3e 4f d2 4f 3e 96 df 2f be
       0.100983754 0.22492208 0.2029507 -0.17175135
000120 f7 cb 03 3e c2 be 02 be 98 70 1f bd 2d 8d f5 3d
       0.12870775 -0.12768081 -0.038925737 0.11989818
000130 1a 12 9c 3e 25 48 bd bd 8b c1 37 be db d0 2a 3e
       0.3048256 -0.09242276 -0.17944925 0.16681235
000140 78 34 0c 3e 3a 74 f5 bd 3e 38 86 3c cf 3a 3d 3d
       0.1369189 -0.11985059 0.01638424 0.046198662
000150 04 dc 48 3d 09 4a 41 be 78 4b 32 be 67 d1 11 be
       0.04903795 -0.18875898 -0.17411602 -0.14240037
000160 0c 25 9b bd a0 3e 79 3d b2 50 b8 3d a4 b6 b7 3d
       -0.075754255 0.06085074 0.089997664 0.08970383
000170 f0 7d a2 3d 3f d2 f6 3c 8f 50 bd 3d 0d 81 b6 bd
       0.07934177 0.03012955 0.09243881 -0.08911333
000180 dd b6 c1 3d 9c 77 69 3e e9 51 05 bd 9c 93 bf 3d
       0.094587065 0.22799534 -0.03254882 0.09354326
000190 f7 9a ba 3d 9e fa 9e 3e 57 1f 4f bd 6d cb 4e 3e
       0.091115884 0.3105058 -0.050566997 0.20194788
0001a0 5b 44 1c be 44 5e 19 3e f7 dd d1 bd 97 49 91 3d
       -0.1526045 0.14977366 -0.102474146 0.07094114
0001b0 b6 aa f1 3a 63 15 10 3e 4e 00 98 bd da db 97 3d
       0.0018437717 0.14070658 -0.07421933 0.0741498
0001c0 06 bc db bd e4 63 c5 3d 2f 8e b0 3c c7 3b 28 3e
       -0.10729222 0.09638193 0.021552173 0.16429053
0001d0 44 7c 0f 3e c2 46 f2 bd dd a0 82 bc 03 d5 99 3b
       0.14012247 -0.11829902 -0.015945846 0.0046945824
0001e0 0b 7c 00 3c 1d 0b 33 be 08 4c ea 3c 8e c4 90 3e
       0.007842074 -0.17484708 0.028600708 0.2827496
0001f0 61 37 8d 3e 37 6d 5c be aa 04 16 3e dc 22 07 3e
       0.27581313 -0.21526037 0.14650217 0.13196892
000200 85 16 10 3e 9d 9d 0f be eb 53 c5 3c d8 c7 27 3b
       0.1407109 -0.14024968 0.024087867 0.0025601294
000210 c2 77 78 bd 22 94 f6 bd 88 19 8e bd 29 cc bf be
       -0.060661085 -0.12039973 -0.069384634 -0.3746045
000220 43 d7 7f be e8 65 89 3e 5b d4 fe bd f0 f0 8e be
       -0.2498446 0.2683556 -0.12442847 -0.27918196
000230 d8 da 0c 3e 3b 35 76 3d 5a a6 43 bc ef 14 57 3e
       0.13755357 0.06010936 -0.011941517 0.2100408
000240 02 4c 8f 3d 1c 22 81 3d ba 5d d9 bb 02 f1 1d bd
       0.06996919 0.06305334 -0.0066334875 -0.03855992
000250 71 30 d2 3d a1 6b aa bc 02 9e f0 3d 84 89 8b 3e
       0.10263146 -0.020803275 0.117488876 0.27253354
000260 77 6b 68 3e 1c 96 4e be f6 90 96 bd 96 f6 92 3d
       0.22697245 -0.2017445 -0.07351868 0.07175939
000270 77 ad 07 be b6 a0 c6 3c b5 65 55 bd 22 bb 3c be
       -0.13249765 0.024246555 -0.05209895 -0.1843076
000280 c7 38 e8 bd 53 c9 51 3e cb 7e 3b 3d aa aa a5 bd
       -0.113389544 0.20486955 0.045775216 -0.08089192
000290 f1 a9 06 3e cb b2 fe bd b1 fa d8 3d fb 4a ee bd
       0.13150765 -0.12436446 0.105946906 -0.11635395
0002a0 25 ea 31 be ab 40 fb 3d 65 1f b5 bc 82 60 05 3d
       -0.17374475 0.12268194 -0.022109697 0.03256274
0002b0 88 12 19 3e b1 cb ee bd a5 46 c4 3d 29 42 03 3d
       0.14948475 -0.11659945 0.09583787 0.032045517
0002c0 1e 69 12 3e 93 4e 41 3d 64 08 4c 3d 2d fb 06 be
       0.14297912 0.047194075 0.04981269 -0.13181753
0002d0 ca 0f 2b bd a3 94 6c be 21 87 21 3e 92 05 74 be
       -0.041763104 -0.23103575 0.15774204 -0.2383025
0002e0 b1 4d 5b bd 6d 31 9b 3a 26 47 09 be b7 b0 b2 3c
       -0.05354089 0.0011840292 -0.13406047 0.02181278
0002f0 7b fd 13 bd 98 2f 40 3e ec 6c 15 be 3c d1 2e 3d
       -0.03613041 0.18768156 -0.14592332 0.04268001
000300 77 81 98 3d 2f 06 6c be 4e 14 5f bd b4 e1 64 3e
       0.074465685 -0.23049234 -0.054462723 0.22351724
000310 4c 53 2d 3e 96 b3 9f 3d c1 50 54 bd ca 34 87 3d
       0.16926306 0.07797925 -0.051834825 0.066018656
000320 ec 9a 25 3e 28 90 30 be b4 94 45 be f9 d7 e3 3d
       0.1617238 -0.17242491 -0.19295007 0.11125178
000330 7f 28 4e 3e 6d 5a c6 bd a7 1b c1 bd f0 ef fd be
       0.20132636 -0.09685216 -0.094291024 -0.4959712
000340 cc 59 d0 be 5d 8e 01 3e 31 3b 96 3d eb 24 a5 be
       -0.4069351 0.12651964 0.073355086 -0.3225473
000350 12 17 3f 3e 56 5a a1 3e ac 32 8d 3d 81 14 35 3d
       0.18661144 0.31514233 0.068944305 0.044209007
000360 42 ce 1a bb eb 18 51 3e 6f a7 be 3d 2b 81 f6 3d
       -0.0023621474 0.20419662 0.09309279 0.120363556
000370 64 bf 99 3e cd ec 40 3e 54 2c df bd 97 68 ea 3d
       0.30028832 0.18840332 -0.10897127 0.1144573
000380 71 b5 60 be 1b d8 7e bd 8e cd 24 be 76 42 dd 3d
       -0.21944214 -0.062217813 -0.16094038 0.10803692
000390 e5 ad 63 be d7 b1 37 be 8f 5a a3 3d 90 fb 17 be
       -0.22234304 -0.17938934 0.07976257 -0.14842057
0003a0 87 cf 89 3d e3 56 58 3e d1 14 3e bd 90 28 05 be
       0.06729036 0.21126895 -0.04640657 -0.13003755
0003b0 59 34 73 3e a6 9c 83 bd 99 02 c2 bd 59 89 d0 3d
       0.23750438 -0.06426363 -0.09473152 0.10182447
0003c0 77 7d 0f 3e 5b 27 2c 3e 73 d6 68 be 60 64 d8 bd
       0.14012705 0.16811888 -0.22738056 -0.1056602
0003d0 60 fb 93 3e 8d ea 15 be 12 c3 3c be 81 7e 0b 3d
       0.2890272 -0.14640255 -0.18433788 0.03405619
0003e0 fe 55 1a be 37 1e 12 3d a6 05 b6 be 1b c4 8c 3d
       -0.15071866 0.035673346 -0.35551184 0.06873342
0003f0 69 4c 21 be 77 b6 78 be da 52 7d 3d e8 a9 3f 3c
       -0.15751804 -0.24288355 0.06184659 0.011698224

bias_ih_l0 f4 [96]
000000 4e 34 7d be de 88 2d bd 78 b6 1e be 5d 5b c5 bd
       -0.24726984 -0.042366855 -0.15499294 -0.09636567
000010 ae 81 74 be 7a 95 69 be c2 d5 a3 bd f8 03 b4 bc
       -0.23877594 -0.22810927 -0.079997554 -0.021974549
000020 cd be d7 bc c6 b2 1a bd 50 b5 97 bc 85 8c 80 be
       -0.026336098 -0.037768148 -0.018519074 -0.25107208
000030 67 0b b4 be c2 7e 28 be 2c 26 3f 3c 62 21 1e 3c
       -0.3516495 -0.16454604 0.011666816 0.009651514
000040 e8 e7 89 bb c5 e5 76 bc 1b bd 34 be dc 7f 8b be
       -0.0042085536 -0.01506943 -0.17650263 -0.27245986
000050 a0 e8 06 bd ee 87 74 be 52 b1 e7 bd c2 ac 7a be
       -0.032936692 -0.23879978 -0.11313118 -0.24479964
000060 8f a1 76 be 93 f1 b8 bd 76 35 0a be d3 7b 83 bd
       -0.24085067 -0.090304516 -0.13496956 -0.06420102
000070 28 02 85 3d 6a 17 21 be 2a 10 8c be dc 7b a5 3c
       0.06494552 -0.15731588 -0.27356082 0.020200662
000080 b7 6c 99 be be 9b 23 bc 2e ea 83 3b 02 07 23 be
       -0.29965755 -0.009985862 0.004025719 -0.15920642
000090 84 ac 2c be 50 12 13 bd 4a 7b b7 3c d6 cc 4e be
       -0.16862684 -0.035906136 0.022397656 -0.20195326
0000a0 39 d2 35 3d ca c7 83 be 94 a1 63 ba 70 33 0a be
       0.044389937 -0.25738364 -0.000868344 -0.13496184
0000b0 ee 96 7f be 7f e9 be bd a6 7b 88 be 3e df 19 be
       -0.24959919 -0.093218796 -0.26656836 -0.15026566
0000c0 67 e2 bf bd 5c a6 0e bd 1b 9f 78 3d 36 33 2c bd
       -0.09369355 -0.03482662 0.06069861 -0.042041026
0000d0 5c ec ef bd 8a 17 9d bd 3c 4d ac 3d 2a 1a 7c 3c
       -0.11715004 -0.07670505 0.08413169 0.015387097
0000e0 99 43 1c be 90 b9 db 3c fc 73 df 3b d8 bd 4b bd
       -0.15260161 0.026821882 0.0068192463 -0.049741596
0000f0 9e 65 e5 3c 69 37 10 be f4 e1 dc 3d bb d5 fe bd
       0.028002556 -0.14083637 0.10785285 -0.124431096
000100 5c 9c c0 bd 95 6f e9 bd 95 d9 27 be 57 75 18 be
       -0.09404823 -0.11398236 -0.16391595 -0.14888512
000110 ff 87 8b bd 2a e4 0f 3d 18 03 fb 3d 66 4c b1 3d
       -0.068130486 0.035129704 0.122564495 0.0865715
000120 3a 40 7f be cd 0f 4b be 1e 7b ae bd 43 f3 10 be
       -0.24926844 -0.19830246 -0.085195765 -0.14155297
000130 19 cf 1f bc 19 99 30 be 2a 3e 23 be 9c ef d6 bd
       -0.009753966 -0.17245902 -0.15941682 -0.104949206
000140 bb 83 e1 bd e2 cd 12 bd ee b5 18 be 0d 01 a1 be
       -0.11011454 -0.035840876 -0.1491315 -0.31446114
000150 3a 5d 87 bd 08 3c 0f be 4c a3 a6 bd ed a0 6b be
       -0.066095784 -0.13987744 -0.08136615 -0.23010607
000160 ce 49 56 be bf 23 a1 bd 05 fc 55 bd 78 48 78 be
       -0.20926592 -0.07868146 -0.052242298 -0.24246395
000170 80 22 18 be be 7b 77 bd e6 46 89 be ce 1e 7d bd
       -0.1485691 -0.060420744 -0.26811904 -0.061796956

bias_hh_l0 f4 [96]
000000 16 71 84 be 4a 57 87 bc 0f 7b 75 be 6d 58 9c be
       -0.25867528 -0.016521115 -0.23972724 -0.30536214
000010 9e 7f 1c 3e 80 b9 9e be 54 79 22 be 72 7b 75 be
       0.15283057 -0.310009 -0.15866596 -0.23972872
000020 75 1c f9 bc 5e 58 8b be c1 54 1e be 18 33 53 be
       -0.030409077 -0.27215856 -0.15462019 -0.2062496
000030 41 43 24 be 46 ee 37 3d 92 b2 19 3c 52 52 9b 3c
       -0.1604128 0.04490497 0.009380953 0.018960152
000040 6e 44 1b be 86 6a b2 be d5 5e 91 be ee a5 a5 be
       -0.15162823 -0.34846896 -0.28392664 -0.32353157
000050 c0 69 9f be 35 8a 52 be 87 26 75 3b 46 10 22 be
       -0.31135368 -0.20560534 0.0037406997 -0.1582652
000060 15 d1 cc be cd 2e 8e be 18 c1 17 be 43 fd ea bd
       -0.40003267 -0.2777008 -0.14819753 -0.11474087
000070 5d ba 59 3d 5b ab 3d be 83 5c 7e be ad eb 5c be
       0.053156245 -0.18522398 -0.24839978 -0.21574278
000080 7c c4 a6 be 66 1b 09 bc 99 50 d4 bd 59 ff ee bd
       -0.3257178 -0.008368349 -0.10366935 -0.116697975
000090 74 5f de bd 0c 64 86 bc a7 75 a6 be bb ec f3 3d
       -0.1085805 -0.016405128 -0.32511637 0.11910387
0000a0 53 9c 0f 3a 44 0b 06 3c 12 81 4e bd ac e7 cd bd
       0.0005478311 0.008181397 -0.05041606 -0.100539535
0000b0 bb c2 62 bd cc c8 0a be 42 6b 3a be d4 4a a4 be
       -0.05536149 -0.1355316 -0.18204978 -0.3208834
0000c0 92 5f c7 3d a1 ca bb 3d d0 7f fc bb dd 8c 6a bc
       0.097350255 0.09169508 -0.007705666 -0.014315811
0000d0 2d b2 99 bc ab 3e da 3d e2 48 d1 bd 5c 2a 8e bd
       -0.018761719 0.10656484 -0.102189794 -0.06941673
0000e0 2d ed fd 3d d8 97 8d 3c 1b 66 86 3d b4 26 06 bd
       0.12398753 0.017284319 0.06562444 -0.032751754
0000f0 a1 71 3e bd ac 52 47 3e 68 46 e0 bd b6 0c 40 3e
       -0.046495084 0.1946513 -0.10950929 0.18754849
000100 fd a8 1d 3e 44 e0 b2 3d 91 0d 2f 3e 0c a3 5f 3e
       0.15396495 0.087341815 0.17095019 0.21839541
000110 b6 1d 0b bd 56 8b 03 bd f3 03 e4 bd 5d 24 95 bd
       -0.03396388 -0.032115303 -0.11133566 -0.07282326
000120 cd 30 eb bd de 4a e9 bd 7c fc 0c be b4 39 83 be
       -0.114839174 -0.11391233 -0.1376819 -0.25629961
000130 8a b9 11 be 23 b9 66 be cc c5 3c be e0 2f e2 3c
       -0.14230934 -0.22531562 -0.18434829 0.02761072
000140 bd 30 64 be 45 93 83 3c 90 29 46 be 95 52 b6 be
       -0.22284217 0.016061435 -0.19351792 -0.3560988
000150 2d 43 92 be 33 9c c0 3d d7 6f 90 be 9c cf 7c bc
       -0.28566876 0.09404793 -0.28210327 -0.015430357
000160 1e 3a 8c be 95 83 30 3d 18 f7 b4 be b9 7b 6f be
       -0.2738809 0.043094236 -0.35344768 -0.2338704
000170 c2 61 ae bd 9e f5 fe bc 1f 03 0a be de c0 b3 bc
       -0.085147396 -0.031122979 -0.13477753 -0.021942552

weight_ih_l1 f4 [96, 24]
000000 94 27 8f bc 7b 44 0e be 4b 52 9f be a9 41 e7 3d
       -0.017474927 -0.1389331 -0.31117472 0.112918206
000010 dc d1 a4 3e 8f 40 24 3d 6a a7 45 be bc 09 b8 3d
       0.3219136 0.04010063 -0.19302145 0.08986232
000020 4c 3c 24 be 3f c3 1c 3d 6e ba 9e be 4e bf c4 3d
       -0.16038626 0.03827214 -0.3100161 0.09606801
000030 18 91 1e 3d ad 9d 62 be 53 ae 82 3e 64 16 9c bc
       0.03871259 -0.22130461 0.25523624 -0.019053645
000040 bc 73 a8 3d 6c a3 ad 3e 6f f9 cd 3b 24 f4 b8 bb
       0.082251996 0.33913743 0.0062858383 -0.005644338
000050 a7 f2 12 3e 4a 2e 7b 3e 42 85 00 be f5 07 d7 bd
       0.14350377 0.24529377 -0.12550834 -0.104995646
000060 81 65 83 3e 6a 3c 09 be 23 02 99 be 61 c3 a7 bd
       0.2566338 -0.13401952 -0.29884443 -0.081915624
000070 5a 63 89 3e 9f a5 89 be 2b 42 15 be e0 b8 ec 3d
       0.26833612 -0.2688417 -0.14576022 0.115586996
000080 84 f2 73 3d f4 f6 df 3c 33 1b 21 be 6d b4 d5 bd
       0.059557453 0.027339436 -0.15733032 -0.10434804
000090 a3 b8 da bd 71 6d d4 be a5 4a 0d be c5 c6 15 be
       -0.10679748 -0.41489747 -0.13798006 -0.14626606
0000a0 0c c0 ad be 86 be 6f 3e a8 5a 69 3c 5c 41 23 be
       -0.33935583 0.23412523 0.014242806 -0.15942901
0000b0 73 92 c7 3d c6 89 39 3e 15 f8 95 be 76 9d 50 be
       0.0974473 0.18118963 -0.29290834 -0.20372567
0000c0 32 39 4b 3d f8 f0 08 3e bb e2 a9 bd 1f fe 4a 3e
       0.049615093 0.13373172 -0.082951985 0.19823502
0000d0 99 6e c6 bc db cb 4c be 40 2c 58 3c 06 ab f6 ba
       -0.024222659 -0.1999964 0.013194144 -0.001881928
0000e0 70 c0 d3 3d a9 5a a8 bc d4 8b aa be af 27 69 bd
       0.10339439 -0.020551043 -0.33309805 -0.05692261
0000f0 c5 bd 63 bd 85 91 72 be 76 43 9b bd 08 03 75 be
       -0.0556009 -0.23688324 -0.075812265 -0.23926938
000100 89 50 cf be 79 30 7a 3e 60 61 39 be c1 39 a3 be
       -0.4049113 0.24432553 -0.18103552 -0.3188
000110 b2 a3 1c 3e 41 2c 8b 3e 7d 64 4c be 20 2c 90 3e
       0.1529682 0.271822 -0.19960208 0.28158665
000120 9a e3 ca bd 13 82 5d be fb 03 97 3d 38 d7 a5 3c
       -0.09906693 -0.2163165 0.07373806 0.020244226
000130 d8 0d a4 3d fc 78 95 bd 20 6c 30 3e e8 ba 84 3e
       0.08010453 -0.072984666 0.17228746 0.25923848
000140 f0 f9 1e 3d 17 8f 18 be a6 44 e0 ba 6b dd 2f bb
       0.038812578 -0.14898334 -0.0017110303 -0.0026834856
000150 e4 d6 a0 bd eb 71 3e bc 41 d2 b6 3d 80 75 bd be
       -0.07853487 -0.01162384 0.089268215 -0.37003708
000160 c8 60 a8 bd 9b 82 89 3e 12 56 e0 3d 2a ab b9 3d
       -0.082215846 0.26857457 0.109539166 0.0906585
000170 39 10 4c 3e c4 d9 c5 bd 87 a8 6e be f1 1b 48 3e
       0.19928063 -0.09660676 -0.23306476 0.19541909
000180 b5 dd 2c 3e 33 48 dd bc 1a 17 94 be 0b 80 bd 3e
       0.1688145 -0.027011966 -0.28923875 0.37011752
000190 90 99 0f 3f 88 c2 7c 3c da 5c 9f 3c 78 1a 70 3e
       0.5609369 0.015427239 0.019453455 0.23447597
0001a0 9a f4 f2 3d 82 2a 99 be 0e b2 08 bf a2 18 04 bd
       0.1186306 -0.29915243 -0.5339669 -0.032250054
0001b0 cf bd b5 3d b7 e6 8c be 81 c7 89 3e c9 80 22 bf
       0.08874094 -0.2751977 0.26910022 -0.6347776
0001c0 2c 32 27 bf 9d 15 8a 3e 21 31 00 3e 00 98 9e be
       -0.6531093 0.26969615 0.12518741 -0.30975342
0001d0 8f 8a 91 3e b6 b8 78 3e 71 cb b0 be 0d 86 1e bd
       0.28426024 0.24289212 -0.34530213 -0.03870206
0001e0 a2 cc 8d 3e 17 80 28 be e5 f1 25 be 96 9b a3 3e
       0.27695185 -0.16455112 -0.16205557 0.3195464
0001f0 99 e5 b2 3e a1 45 bd bd ad 38 71 be 92 36 81 3d
       0.34940794 -0.09241796 -0.23556776 0.063092366
000200 56 57 0f 3e f5 10 b1 be 63 6d 2e be 41 8e 06 3d
       0.1399816 -0.3458325 -0.17033915 0.032850508
000210 f5 ae b9 3d 09 ef 3a be b7 78 41 3e 65 4a ad bd
       0.090665735 -0.18255247 0.18893705 -0.08461455
000220 7a 4d b2 be a7 88 b3 3d d8 94 0e bd 1d 81 b5 be
       -0.34824735 0.08766299 -0.034809917 -0.35450068
000230 ab 1e ab 3d 26 67 98 3e 42 2d a9 3d eb 78 8b 3e
       0.08355459 0.29766196 0.08260585 0.2724069
000240 72 2d 99 3d 5b bc 75 be 89 ec 7c bd 41 a6 c8 3b
       0.07479371 -0.23997633 -0.061749015 0.0061233346
000250 f3 18 8e 3e 16 70 00 be bd 34 60 3d c3 32 26 3e
       0.2775341 -0.12542757 0.054737795 0.16230302
000260 5f 32 cf bb a1 42 81 be 6f 4a 90 be 78 a8 3e bd
       -0.0063231434 -0.25246146 -0.28181788 -0.046547383
000270 cd f1 d1 bd 4c b7 c4 be e4 26 96 3d 1c a9 0d be
       -0.10251198 -0.38421094 0.073316365 -0.13834041
000280 3c 9a b3 bd e2 28 a5 bd 7c 83 6b bc f5 4d 40 be
       -0.08769652 -0.080644384 -0.01437461 -0.18779738
000290 c2 d2 17 3d 51 82 ee 3d 5d af b2 3c f7 86 97 3e
       0.03706623 0.1164595 0.021812135 0.29595158
0002a0 7e c7 19 3e f7 75 c9 3c bb 12 7f be 82 51 c4 bd
       0.15017506 0.024592383 -0.24909489 -0.09585859
0002b0 1a 33 73 3e 89 1f 55 3d f3 22 d4 bd f3 bb 48 3e
       0.23749962 0.052032027 -0.103582285 0.19602947
0002c0 14 6f 66 3d 33 ba 74 be 10 e4 ba be 65 35 48 3e
       0.056258276 -0.23899154 -0.36502123 0.19551618
0002d0 3c 95 82 3d fa c9 62 be a0 61 85 3e 21 a9 33 be
       0.063761204 -0.2214736 0.26051044 -0.17544986
0002e0 15 43 97 be cc be a1 3e 17 70 3f 3e 3b e1 b9 be
       -0.29543367 0.3159088 0.18695103 -0.3630465
0002f0 68 bd 36 3e 19 bb 3f 3e 13 57 52 be de ae ea 3d
       0.1784569 0.18723716 -0.20541029 0.114591345
000300 f5 89 fe 3c 95 75 db bc 64 93 66 be d1 02 bb 3d
       0.031071642 -0.026789466 -0.22517163 0.091313966
000310 39 46 8d 3e 17 08 6f be c8 7b 90 3b 96 76 3a 3e
       0.27592638 -0.2334293 0.004409287 0.182093
000320 1c e1 b3 3d 61 4f a2 bd 98 ac 44 be 6b d0 53 bd
       0.087831706 -0.079252966 -0.19206464 -0.051712435
000330 ea ac be bd db 9f 27 be e4 84 b6 3e 58 15 24 be
       -0.093103245 -0.16369574 0.35648263 -0.16023767
000340 eb e5 26 be a6 43 1a bd d6 7a 0a be 85 15 3d be
       -0.16298644 -0.03766217 -0.1352342 -0.1846524
000350 e4 bd 4b 3e 34 05 04 be 30 09 a3 3d 4c a6 57 3e
       0.19896656 -0.1289261 0.07960737 0.21059531
000360 96 7b 03 bd e0 67 55 3c 02 83 f0 bd 9a 2d 3a 3c
       -0.032100283 0.013025254 -0.11743738 0.011363411
000370 f2 04 52 3e 02 e5 21 bd b2 49 24 be 3c c0 70 3d
       0.20509699 -0.03952504 -0.16043738 0.05877708
000380 88 21 1d 3e 9d d2 36 be 87 94 97 3d b8 ab 3b 3e
       0.15344822 -0.1785378 0.07401376 0.18327224
000390 f5 6a 5c be 71 a4 09 3d 33 26 11 bd 13 d2 b5 3d
       -0.21525176 0.03360409 -0.03543682 0.08877959
0003a0 29 0f 33 be 8f 52 a8 3d 0e 03 a1 3d 10 03 6d be
       -0.17486252 0.08218872 0.07861911 -0.231457
0003b0 9d 5a 8e 3e 6f e7 a8 bb ef cb 9a 3d 58 9c 37 be
       0.27803507 -0.005154542 0.075584285 -0.17930734
0003c0 56 8b 22 3c 52 ee 84 bd 8c 40 6e 3c f7 f4 7d 3e
       0.009920916 -0.064907685 0.014541756 0.24800478
0003d0 34 60 d1 3d 06 90 68 bc c2 52 90 be 3c 91 44 3e
       0.102234274 -0.014194494 -0.2818814 0.19196028
0003e0 c5 1e 61 3d c7 51 4e 3d 25 a7 69 be c5 25 92 bc
       0.054960985 0.050370958 -0.22817667 -0.017840276
0003f0 dc e6 29 be 5a 96 c9 be 6a 3c 4a 3e 1f 81 9d be
       -0.16591972 -0.39372522 0.19749609 -0.30762574

weight_hh_l1 f4 [96, 24]
000000 eb 95 71 bd 92 a3 5d 3d 72 74 78 be a0 60 30 be
       -0.058980864 0.05411107 -0.2426317 -0.1722436
000010 d8 05 05 be fd 4d a6 be 58 7c 21 be eb 4e 80 3e
       -0.1299051 -0.32481375 -0.1577009 0.2506021
000020 2d 00 68 bd cf f5 89 bd 46 83 42 be b9 51 28 3c
       -0.056640793 -0.067363374 -0.1899539 0.01027339
000030 da e9 57 be e5 90 21 bd fe 91 b4 be e3 cc 67 bd
       -0.21085301 -0.039444823 -0.35267633 -0.05659188
000040 2b 19 b9 3b 6e f7 1d bd 24 20 17 3e 67 e7 b1 3d
       0.005648752 -0.038566045 0.14758354 0.086867146
000050 ab c2 8e 3d 36 ac 0b 3e 36 64 7b 3c 2b 6d 6d 3e
       0.06970724 0.13639912 0.015343716 0.23186176
000060 d0 fd 93 bd 61 1f a8 3d 33 48 56 be ce 6d 78 bd
       -0.07226145 0.0820911 -0.2092598 -0.060651593
000070 14 4b dc 3d 29 5c d6 be 43 6a 44 be 92 b1 34 3e
       0.107565075 -0.41867188 -0.1918116 0.17645863
000080 7b 7e 4f be 3d 0d 4e 3e 57 78 ab 3d b5 45 64 3e
       -0.20263092 0.20122238 0.083725624 0.22292216
000090 c6 4e 3b be fe c4 f1 bc 67 1d b8 bd a4 b3 5b 39
       -0.18291768 -0.029512879 -0.08989983 0.00020952389
0000a0 6a 9a 5b 3e 30 21 be 3d 29 c2 7c 3e df e9 3b 3e
       0.21445623 0.09283674 0.24683441 0.18350933
0000b0 b6 ae ce 3e 79 12 2a 3e af a8 db bc 7e 98 22 3e
       0.4036767 0.1660861 -0.026813833 0.15878484
0000c0 a5 2a 0b bd af 1f 77 be f9 b7 3f be 8d fe e0 bc
       -0.033976216 -0.2413318 -0.18722524 -0.02746513
0000d0 c9 00 9c 3c 32 1f 2b 3e 33 1a 88 be bb 7c 12 be
       0.019043343 0.16711119 -0.26582488 -0.14305393
0000e0 f3 08 eb bd 25 51 98 3e 2a f1 11 be 5b 97 8c 3d
       -0.11476316 0.29749408 -0.14252153 0.06864806
0000f0 34 87 dc 3d 62 13 1e 3e ed 12 1d bd 79 dc 93 3b
       0.107679754 0.15437081 -0.038348127 0.0045123664
000100 b3 d5 46 3e 29 82 4b 3e 6c df ee 3d cc 91 a1 bd
       0.19417457 0.19873871 0.11663708 -0.07889137
000110 bf 2f 0e 3e a3 92 9f 3d 3b b5 3c bd 03 00 fc 3d
       0.13885401 0.077916406 -0.046071272 0.1230469
000120 78 8f 35 be bd a7 41 bd f5 12 31 be 33 e1 91 be
       -0.1773051 -0.04727911 -0.17292388 -0.28492126
000130 04 c0 30 3e 7e 15 e2 bd e7 c6 8f bd ca df 02 be
       0.17260748 -0.110392556 -0.070203595 -0.12780681
000140 20 79 0c be f9 f4 ba 3d 6d 4f 36 be e7 71 94 3d
       -0.1371808 0.09128756 -0.17803736 0.07248288
000150 d5 c5 1d be 7e 5c ea 3d cd 7d 1c be 65 67 d7 3c
       -0.15407498 0.11443423 -0.15282364 0.02629442
000160 21 b8 08 3e 71 7a b7 3c 2e 49 5c be 27 7d fb 3d
       0.1335149 0.022397252 -0.21512291 0.1227973
000170 cd fa 70 bc 61 1b fc bc 9d 55 2d be 92 75 8c 3c
       -0.014708233 -0.030774774 -0.1692719 0.017145906
000180 01 d1 27 be ce d4 88 be 66 f3 56 3d 07 2a 1b be
       -0.16388322 -0.26724857 0.052478217 -0.15152751
000190 24 e7 36 be ef e0 1b be 15 66 1a be 24 5f 94 bd
       -0.1786161 -0.15222524 -0.15078004 -0.07244709
0001a0 35 d8 7c be db b9 63 3e da 95 a0 be c7 73 43 be
       -0.24691851 0.22238867 -0.31364328 -0.19087134
0001b0 d5 f1 9c be 53 9c 6f 3e 99 8e 83 bb 97 43 94 be
       -0.30653253 0.23399477 -0.0040148017 -0.28957817
0001c0 17 c6 30 3e 0c 2f 7d 3d 05 2e ed bd ef 66 7a 3d
       0.17263065 0.061812446 -0.11581043 0.06113332
0001d0 f0 1a 27 3e 38 eb 4c 3e 9f 83 89 3e 21 dc 56 3e
       0.1631887 0.20011604 0.2685823 0.2098241
0001e0 5d 9a 66 be ec 5b f2 bc 9a 1e 0d 3e 47 f2 be be
       -0.22519822 -0.029584847 0.13781205 -0.37294218
0001f0 23 e3 bf 3d 21 f3 a1 be 11 9d ad bc c4 07 fb bb
       0.09369495 -0.31630805 -0.02119306 -0.007660838
000200 e0 92 9e be 48 34 b5 3d f9 7e fe 3d 87 43 28 39
       -0.30971432 0.088478625 0.12426562 0.00016046884
000210 71 18 5a bd 72 24 8c ba 02 ed 22 be 55 ac 72 be
       -0.053245965 -0.0010692014 -0.15910724 -0.23698552
000220 4b 4c 81 3d f5 86 21 3e 3a ed 8c 3b 2d 40 6f 3d
       0.0631338 0.15774138 0.0043007405 0.058410812
000230 ee 42 05 3e 3b c4 81 3d 6b ed 9e bd 05 55 88 3d
       0.13013813 0.06336256 -0.07760128 0.06656841
000240 c1 af 54 3d 2c 71 29 be 99 a2 07 3d 7e 69 8f bd
       0.051925424 -0.16547078 0.03311405 -0.07002543
000250 9d d0 c9 bb 09 83 43 be 41 d6 01 bd 8d e7 9a 3d
       -0.006158902 -0.19092955 -0.03169847 0.07563696
000260 61 f7 d0 bd a0 d0 9a 3e 9d 9d 88 bd f8 16 53 3d
       -0.10203434 0.30237293 -0.06670687 0.051535577
000270 5c a4 c5 3d d8 97 98 3d 79 e3 d0 bd 8c af bd 3c
       0.0965049 0.07450837 -0.10199637 0.023154996
000280 d2 f7 00 3e b9 4f c4 3d e2 32 e0 bc 5a f0 44 be
       0.12594536 0.095855184 -0.027368013 -0.19232312
000290 db 9d ba bd 8f b6 6e 3e e5 7d 11 bd 1b 2d 88 bd
       -0.0911214 0.23311828 -0.035520453 -0.06649228
0002a0 a4 98 58 3a 5c db ab bc 9c 23 fc bd 47 6b 92 be
       0.00082624913 -0.020978622 -0.123114794 -0.2859747
0002b0 51 bf ca 3d 7c 95 69 bc a9 23 bb be 68 57 a8 38
       0.09899772 -0.014256831 -0.36550644 8.027145e-05
0002c0 60 c0 67 be 2b 9d c9 3c c6 2c eb bd c3 72 d9 bd
       -0.22631979 0.024611076 -0.11483149 -0.10617592
0002d0 51 6a d6 ba 6a ee 12 be 5f c3 80 be b8 94 9e bb
       -0.0016358589 -0.1434876 -0.25149056 -0.004839506
0002e0 18 c2 02 3e ca 4a 6d 3d 70 06 88 3c d0 3f a8 3d
       0.12769353 0.057932653 0.016604632 0.08215296
0002f0 a3 98 a7 3e 78 16 b9 3e f7 b5 8b 3e 17 7a d3 3d
       0.3273364 0.36149955 0.27287266 0.10326021
000300 15 03 61 be aa bf 45 be 99 ac 62 be 55 d0 48 be
       -0.21973832 -0.19311395 -0.22136153 -0.19610722
000310 a4 68 79 bd 79 7d 76 3d 92 87 8d 3d 6e 87 47 3e
       -0.06089081 0.060178254 0.069106236 0.19485256
000320 23 04 04 be 5a e5 22 bd 9b a4 d5 be 59 76 2b bd
       -0.12892203 -0.039769508 -0.41727147 -0.041860912
000330 03 21 ab bd 04 1d 01 be 12 5a 36 be e6 05 b1 bd
       -0.08355906 -0.12608725 -0.17807797 -0.08643703
000340 a8 8d b4 bc 3c 3b 67 bd 3c e7 c2 bd 0d c6 0d bd
       -0.022040203 -0.056452975 -0.09516761 -0.034612704
000350 79 1d b9 3e cf 8b c9 3e 60 2b 66 3e 58 43 68 3e
       0.36155298 0.39364478 0.22477484 0.2268194
000360 86 c8 77 be b2 0d 11 be f1 24 e7 bd 94 73 89 be
       -0.24197587 -0.1416538 -0.11286343 -0.26845992
000370 79 03 e7 bd ab 11 c4 be 5c d0 8b bd 51 83 34 3e
       -0.11279959 -0.3829473 -0.06826851 0.17628218
000380 17 91 98 3d 5d fe 22 3e 18 6c 94 3d dc 79 87 3e
       0.07449549 0.15917344 0.0724718 0.2646016
000390 7e 98 da bd 4f b6 fe bd 46 36 86 be 3c 50 7f be
       -0.10673617 -0.12437116 -0.26213282 -0.2493295
0003a0 44 49 43 3e 02 c6 8d ba f7 c7 28 be 6c 78 06 3d
       0.19070917 -0.0010816457 -0.1648253 0.032829687
0003b0 2f ac 93 3e 75 25 8c bd 47 5c b7 bd 3c a0 63 3e
       0.28842303 -0.06843082 -0.089531474 0.22229093
0003c0 ef 8c 94 be c6 37 51 be 63 eb 5f be 64 ef 32 bd
       -0.29013774 -0.20431432 -0.21867137 -0.043685332
0003d0 89 c7 3c 3e e5 43 84 be 3f b7 88 3d ee f0 5b 3e
       0.18435492 -0.2583305 0.066755764 0.21478626
0003e0 54 20 8b be b0 cd 31 3e b7 ba 55 bc 56 8c 9e bd
       -0.27173102 0.1736362 -0.013045005 -0.07741611
0003f0 4c 61 20 3d 4f ea 52 3e e6 e5 64 be b7 af bd bd
       0.03915529 0.20597194 -0.22353324 -0.092620306

bias_ih_l1 f4 [96]
000000 c0 81 3c be 32 c6 94 be 8c 86 b2 3c a0 00 f1 bc
       -0.1840887 -0.2905746 0.021792673 -0.029419243
000010 62 6c 2b bf ca 5b 5b be 7d 86 82 be ae fa 66 be
       -0.66962254 -0.21421733 -0.2549323 -0.22556564
000020 75 a5 2f be 21 bc 7c 3d c9 63 1e be f9 bb 00 be
       -0.1715296 0.06170285 -0.15467753 -0.12571706
000030 46 0e 1a be 30 72 a8 be 66 ef c4 bd f6 a5 8d be
       -0.15044507 -0.32899618 -0.09615974 -0.2766568
000040 ac 84 ef be b6 6c b5 be f5 3e 9a be 14 18 00 bc
       -0.46780908 -0.35434502 -0.30126157 -0.007818241
000050 32 dc 69 be 3f 89 db bc 84 0f a1 be 7c a7 15 be
       -0.22837904 -0.026798842 -0.3145715 -0.14614671
000060 8b 0a aa be 39 49 13 be e3 2d 06 be a0 52 d2 bd
       -0.3321117 -0.14383401 -0.13103442 -0.10269666
000070 ee 54 e9 be 5f a6 d9 be 38 03 88 be c6 c4 da be
       -0.4557261 -0.42509744 -0.26564956 -0.4272825
000080 ef 8d 22 be 02 4c c1 bd 38 8e 0f be 67 aa b6 be
       -0.15874456 -0.094383255 -0.14019096 -0.35676882
000090 fa d2 ca bd 0b b2 6f be ad 1b 40 be f9 98 83 be
       -0.09903522 -0.23407762 -0.18760557 -0.25702646
0000a0 e4 ba 53 be 65 fe 31 be ca e0 41 bd b7 82 84 3d
       -0.20676762 -0.173822 -0.047333516 0.064702444
0000b0 0e 66 08 3d 12 80 54 be 4b 04 31 be b9 52 0e be
       0.033300452 -0.2075198 -0.17286794 -0.13898744
0000c0 76 b6 cf 3d 67 d1 89 3d 65 69 e1 3d a8 e4 40 3e
       0.101422235 0.067293935 0.110064305 0.18837225
0000d0 55 d4 9c 3d f0 36 35 3e bf 17 0f 3e ad f4 01 be
       0.076576866 0.17696738 0.13973902 -0.12690993
0000e0 2b 91 a6 3d 66 e7 64 be 86 a3 a1 bd 9c ad 06 be
       0.08133157 -0.22353896 -0.07892518 -0.13152164
0000f0 4a 58 89 3c cd f6 1a be c1 ef f7 3c 83 e7 82 3d
       0.016765732 -0.1513321 0.03026569 0.063918136
000100 ce 1f 80 bc db 6e 03 be 3d 2a e9 bc 34 9e 99 3d
       -0.015640166 -0.12835257 -0.028462524 0.07500878
000110 08 d0 0a be 69 8b ab bd 83 f6 16 3d 62 08 4a bc
       -0.1355592 -0.083762 0.036856186 -0.0123311
000120 65 f6 bb be 0c e6 61 be 2f 57 fe 3b 20 49 66 be
       -0.36711422 -0.22060412 0.007761858 -0.22488832
000130 27 0e d6 be e3 4e 5c be 81 d2 a6 bd 9e 17 ad be
       -0.41807672 -0.21514468 -0.08145619 -0.3380708
000140 c7 82 44 be c7 69 79 3d 3e 33 9d be e7 de a1 be
       -0.19190513 0.060891893 -0.30703157 -0.31615373
000150 8d 57 91 bd ce 66 7e be 69 00 be be 6d 24 78 be
       -0.07096777 -0.24843904 -0.37109688 -0.24232645
000160 d9 2f de be d2 93 f8 be 84 19 06 be 06 03 87 be
       -0.4339588 -0.48550278 -0.13095671 -0.26369494
000170 ff c3 76 bc 03 0a 7b be 32 33 82 be d2 6a a7 be
       -0.015061378 -0.24515538 -0.25429684 -0.32698685

bias_hh_l1 f4 [96]
000000 da c8 cb be 44 e5 ca be 46 a2 d4 ba f7 26 ac 3a
       -0.39801675 -0.3962804 -0.0016222678 0.0013134171
000010 e2 3c 01 bf 25 2f 86 be ba 81 88 bd da 6a 80 be
       -0.50483525 -0.26207843 -0.066653684 -0.2508152
000020 f8 5e ce be bc f9 83 3d 75 88 f3 be 51 df 83 be
       -0.4030683 0.064441174 -0.47565046 -0.25756314
000030 2c 94 a7 be 1b 45 0e be fe 26 ca be 90 9c a7 be
       -0.32730234 -0.13893549 -0.39482874 -0.32736635
000040 b1 77 a5 be 84 51 cf be 31 d5 08 be 19 4f 4b bd
       -0.3231788 -0.4049188 -0.13362576 -0.04963598
000050 7b 51 d3 bd 6e aa 8e 3d af 16 15 be fe 72 68 be
       -0.103182755 0.06966101 -0.14559434 -0.22700116
000060 71 d8 c1 be e0 f5 c9 be c4 7b 92 bd 31 d0 2b ba
       -0.37860444 -0.394454 -0.07152513 -0.0006554155
000070 0c 26 36 be 5a 3f 38 be 81 24 39 3d dc 30 6f be
       -0.17787951 -0.17992917 0.04520083 -0.23358482
000080 57 2f b4 be e8 c7 83 3c 56 5c cf be 9c a6 41 be
       -0.35192367 0.016086534 -0.40500134 -0.18911213
000090 d2 f0 d7 be a8 eb 61 bd a8 d0 aa be 70 5a 81 bd
       -0.4217592 -0.05515638 -0.33362317 -0.06316078
0000a0 5f 63 ca be e8 3b d9 be 85 84 76 be b1 f4 76 be
       -0.3952894 -0.42428517 -0.2407399 -0.2411678
0000b0 0a c9 f9 bd 8a f0 a2 bb ae ef 7f be 28 f0 af be
       -0.12196548 -0.004972522 -0.24993774 -0.34362912
0000c0 d4 7e 30 3d 1c 90 04 3d 50 cb 11 bd 9d 01 c8 bd
       0.043089703 0.032363996 -0.035594285 -0.09765933
0000d0 a6 6e 20 bd f3 6a ea bd f8 ac 23 3d 1a c7 96 3a
       -0.039168023 -0.1144618 0.039959878 0.0011503429
0000e0 d5 0a d8 3d 41 bf 11 3e 1f d5 cd 3d e1 3c 15 3e
       0.10548941 0.14233114 0.10050415 0.14574005
0000f0 08 7a cd 3d 16 91 a9 3d 32 4a 5f bc b3 f0 d5 3d
       0.10033041 0.08279626 -0.013628529 0.104463
000100 21 48 95 bc 63 8c e7 3c c7 a1 78 ba 1b 21 01 be
       -0.01822287 0.028265184 -0.0009484556 -0.12610285
000110 7f d0 e1 bd e8 3e 21 be c7 b5 00 be e6 e3 a4 bd
       -0.110260956 -0.15746653 -0.12569343 -0.08051281
000120 d3 27 85 bd c7 d0 0f bf 2b a4 23 be 8a a1 73 bd
       -0.065017365 -0.56177944 -0.15980594 -0.059480228
000130 35 2e 39 bf 92 7e c6 bd be ed 35 be 0a d7 df be
       -0.7233613 -0.0969211 -0.17766473 -0.4371875
000140 20 a5 89 be 7b c5 92 be 2f 3b 3e be 40 97 99 be
       -0.26883793 -0.2866629 -0.18577264 -0.29998207
000150 55 e3 bf be b6 6b cb be 7e a3 b6 bd ce e2 c4 bd
       -0.37478128 -0.39730614 -0.089179024 -0.09613572
000160 30 0d 70 be 22 b0 ce be 81 5f 25 be d3 b3 80 be
       -0.2344253 -0.40368754 -0.16149713 -0.25137195
000170 e8 0b 3b be 50 b2 89 bc 3f 49 cd be 44 e1 c7 be
       -0.1826626 -0.016808659 -0.40094945 -0.39039052

weight_ih_l2 f4 [96, 24]
000000 8d f2 e9 be 9a 84 4a be fb a2 b0 bd e1 c4 bc be
       -0.45692864 -0.19777146 -0.08624836 -0.36868957
000010 a2 4b 0b 3e 63 00 ab be d9 54 0e bf c9 02 98 3e
       0.1360307 -0.33398733 -0.5559822 0.29689625
000020 bf 06 88 be 46 00 06 3f b7 29 bf be 45 13 27 3e
       -0.26567647 0.5234417 -0.37336513 0.16315944
000030 4b 78 da be 42 92 91 3e 54 b8 fd bd 57 47 0e bf
       -0.426699 0.28431898 -0.123886734 -0.55577606
000040 e9 a8 14 3d 4c c8 dc 3e bc 22 76 3c c0 22 ee 3d
       0.036293898 0.43121564 0.01502293 0.11627722
000050 22 bb 22 3f ae 95 1b 3f ff 5d f2 3e 6f 1b 99 3e
       0.6356679 0.6077527 0.47337338 0.29903743
000060 b3 38 b1 be 78 70 c4 bc 09 92 1e 3e 4e 72 b7 be
       -0.3461357 -0.02397941 0.15485395 -0.35829395
000070 34 42 26 3d 88 f2 54 be 10 3d 99 be dd 93 93 3e
       0.04059048 -0.20795643 -0.299294 0.28823748
000080 2d 1e bd bd 71 46 3e 3e c6 09 dd 3d f2 15 3d 3e
       -0.09234271 0.18581559 0.1079288 0.18465403
000090 74 7e 96 be f8 c3 e0 3d ac d7 59 be 9e b4 99 be
       -0.2939335 0.10974878 -0.21273679 -0.30020612
0000a0 07 18 83 3d a9 3a 9f 3c f0 e4 5b 3e 05 9d 71 3e
       0.06401067 0.019437151 0.21474051 0.23595054
0000b0 0d e4 cd 3d 4d fb ff 3d 9f 58 67 3c 9c f0 8e 3e
       0.10053263 0.12499104 0.01412025 0.27917945
0000c0 38 29 08 be f9 ae d2 3d 70 e3 95 be 3e 04 d1 bd
       -0.13296974 0.1028728 -0.29275084 -0.10205887
0000d0 de 2a a0 bd bd ee 10 bc c7 35 c6 be 20 a1 8b 3e
       -0.07820676 -0.008845982 -0.38712904 0.27271366
0000e0 51 34 dd 3b 71 37 9a 3e f8 60 a7 be ca d5 ce 3d
       0.0067506214 0.30120423 -0.3269117 0.10099371
0000f0 c3 af f3 bd 40 72 37 bd 15 3a 2a be 9e e7 6b be
       -0.11898758 -0.04478669 -0.16623719 -0.23037574
000100 05 b4 25 3e 5d d1 90 3e ce 98 f8 3d 78 6a 39 3d
       0.16181953 0.28284732 0.1213852 0.045267552
000110 26 23 ca 3e c5 de aa 3e 15 66 9f 3d 44 7d c2 3c
       0.3947994 0.33373085 0.077831425 0.023741372
000120 21 1d 94 be 66 f4 9c 3b 1f b7 8b be b0 78 44 be
       -0.28928474 0.0047898768 -0.27288148 -0.19186664
000130 fd aa cc 3d e9 45 6f be 3b cb fa bd 94 fd ab 3e
       0.09993551 -0.23366512 -0.122457944 0.33591902
000140 30 96 3d be f8 b2 95 3d 8b 91 36 be 0c 23 86 bd
       -0.18514323 0.07309526 -0.17828958 -0.065496534
000150 13 ce 86 be 02 cb b9 3e a0 b4 c8 be 51 50 48 be
       -0.26329097 0.36287695 -0.39200306 -0.19561888
000160 48 28 5e 3e 9b 67 c2 3d c5 e5 cb 3d e2 02 9d 3d
       0.21695054 0.094924174 0.099559344 0.076665655
000170 c5 f5 8a 3e e6 41 cb 3e 3b 16 a2 3c 45 ce 7b 3e
       0.27140632 0.39698714 0.019785991 0.24590404
000180 5f ef d0 be 29 f5 b0 bd 3e cb 84 bd 8e 4e 9e be
       -0.40807626 -0.086405106 -0.06484078 -0.30919307
000190 ef 7f ae 3d a4 f7 b8 be 61 eb 0d be 3e 93 b3 3d
       0.08520495 -0.36126435 -0.13859321 0.087683186
0001a0 24 51 7f bd 19 fa 8e 3e 5e 21 56 bb 3c 61 ee 3d
       -0.06233324 0.27925184 -0.0032673697 0.1163964
0001b0 4b 03 b3 be b5 c0 13 3e c4 48 84 be ac ec a1 be
       -0.3496345 0.1442898 -0.25836766 -0.3162588
0001c0 81 69 a0 bd f5 63 64 3e ef f3 05 bb e2 ca ad bd
       -0.07832623 0.22303756 -0.0020439585 -0.084859625
0001d0 52 67 fa 3d e0 6a 05 3e c2 7d b5 bd 74 47 32 3e
       0.12226738 0.13029051 -0.08861877 0.1741007
0001e0 ee 89 9b be 5e 5c e6 bd a5 27 09 3e 93 4e 68 be
       -0.3037867 -0.112480864 0.1339403 -0.22686224
0001f0 0a e8 cf 3c 55 a8 30 3d d1 a7 da be 0c 16 15 3d
       0.0253792 0.043129284 -0.4270616 0.03639798
000200 04 56 45 3c cf dd 47 3e 08 96 cb 3d 31 ca 59 3e
       0.0120444335 0.19518207 0.099407256 0.21268536
000210 cb 09 2e bd 1e 36 02 3d a1 5c 1b be 14 de 92 be
       -0.042489808 0.03178989 -0.15172054 -0.28685057
000220 33 95 66 3e 1c bc ba 3d f0 6c 0c bd d4 c0 88 bd
       0.22517852 0.0911791 -0.03428358 -0.06677404
000230 23 40 91 3e 9e 7f b2 3e ae 66 d7 3d 7b 12 66 3e
       0.28369245 0.3486299 0.105176315 0.22467987
000240 3e a0 8e 3c f1 cd 81 be 93 79 d6 3d f6 15 b9 bd
       0.017410394 -0.25352433 0.10472407 -0.09037392
000250 a1 43 b6 3c b6 8c c4 bd ae eb 92 be 10 d4 bc bc
       0.022249045 -0.09597151 -0.28695434 -0.023050338
000260 9e c2 9a be 97 09 62 3e 3e 4e 0c 3e ba 83 66 3e
       -0.30226606 0.2207397 0.13701722 0.22511187
000270 6c 5d 87 3b ad 37 80 3e a7 fe 73 be 38 79 94 3b
       0.00413101 0.25042477 -0.23827611 0.004531052
000280 c4 19 79 3e 57 26 48 3d e8 50 38 be 08 e3 d2 3d
       0.24326235 0.04886469 -0.17999613 0.10297209
000290 69 4b f7 3d 6a 78 2c 3d f6 2f f2 3d 8f 3d 8c 3e
       0.1207493 0.042107023 0.11825554 0.27390715
0002a0 8d 1a 59 be 8a 45 99 be 33 90 fa bc 38 de a9 be
       -0.21201535 -0.29935867 -0.030586338 -0.33177352
0002b0 69 03 b3 3d ab 9a c9 bd a2 b7 3c be 71 cc 90 3e
       0.08740885 -0.09843954 -0.18429425 0.28280976
0002c0 3c 6c 5b be 2b b3 d3 3d 35 f6 10 be cc a8 28 be
       -0.21428007 0.10336908 -0.1415642 -0.16470641
0002d0 8a 07 6d be ce e2 00 3e 47 21 a0 bb b3 ac ae bd
       -0.23147407 0.12586519 -0.0048867795 -0.085290335
0002e0 f8 df ac bd b9 34 28 3c b2 9b a8 bd 95 2f 92 3e
       -0.08441156 0.010266476 -0.082328215 0.28551927
0002f0 c1 f4 ba 3e 59 b1 e6 3e 3d 0e 3d 3e a2 68 b4 3e
       0.36514857 0.4505718 0.18462463 0.35236079
000300 69 2a 4a be b4 ac 16 be 40 ec f6 bd f3 fe 36 be
       -0.1974274 -0.14714319 -0.1205678 -0.17870693
000310 22 08 58 3d db 70 a8 be fa a7 b5 be 8b d9 83 3e
       0.05274213 -0.32898602 -0.35479718 0.2575191
000320 73 d4 39 be 73 2b d8 3e f7 72 f8 be b9 7c 96 bd
       -0.18147449 0.4222065 -0.4852521 -0.07348008
000330 2e bc 06 bf 8e 39 84 3d ed d2 87 be 1b 9c 05 bf
       -0.5263089 0.0645629 -0.2652811 -0.52191323
000340 f2 af 49 3e 52 a3 03 3f 26 bb 3a 3d 5d d4 e0 3c
       0.19696024 0.5142108 0.045588635 0.027445013
000350 b5 c8 1d 3f 18 3c d0 3e 2c 07 1f 3e 7d e3 de 3e
       0.6163438 0.40670848 0.1553008 0.43532935
000360 bb 5a ae bd 76 cc e5 3c 22 df cb 3d 03 ae 3d be
       -0.08513399 0.028051596 0.099546686 -0.18523411
000370 0e e7 28 3e 26 c1 cb bc b3 ee 48 be 1c bd 22 3e
       0.1649439 -0.024872374 -0.19622307 0.15892452
000380 f0 0e 7f be 91 75 ea bc 72 79 44 3e 0c d7 8c 3d
       -0.24908042 -0.028620513 0.19186953 0.068769544
000390 7e 9e 94 bd 60 56 2f 3e 49 ef 73 be 95 28 98 be
       -0.072567925 0.17122793 -0.23821749 -0.29718462
0003a0 b8 29 3b 3e ee 49 a5 3c 76 87 31 3e 90 e1 50 3e
       0.18277633 0.020176854 0.1733683 0.20398545
0003b0 c7 7e 23 3e 14 d7 57 3e a2 8b 98 3d 76 80 69 3e
       0.1596633 0.2107814 0.07448508 0.2280291
0003c0 6a 49 81 bd a9 82 e3 3d df fd 39 be f8 23 5c be
       -0.06312831 0.11108906 -0.1816325 -0.21498096
0003d0 67 44 ad 3d 30 6e 5f be 8e 18 23 bd d7 49 d3 3d
       0.08460312 -0.21819377 -0.03981834 0.10316818
0003e0 53 6d b1 be 49 4c 39 3e 0b 50 a6 3d 6a 44 f3 3d
       -0.3465372 0.18095507 0.08120736 0.11878283
0003f0 c8 2a 01 3d f7 c5 1e 3e f9 f2 38 bd f7 a3 ab bd
       0.03153494 0.15505205 -0.04515359 -0.08380883
