models/UCF101_lstm_joints_model.pth (torch, 479447 bytes, 42 tensors)

weight_ih_l0 f4 [128, 132]
00000000: 9c50 dfbd 005d 173c c723 0e3e 568a aa3d
00000010: d081 26bc 2ced 623d 9011 14bd a459 65bd
00000020: 7ea7 28be d6d2 a33d 14b5 46bd bb11 04be
00000030: 207d 173c 64e9 703d 70d0 023d 3de1 2fbe
00000040: 14a5 793d e65a 823d 003e 1e3c a604 e73d
00000050: 52af e53d f911 323e cc6c 58bd de4f 973d
00000060: 315a febd d653 afbd 6428 11bd b8cd f3bd
00000070: 9ac1 a83d fab2 8c3d abc9 0ebe 3639 803d
00000080: dc2c bbbd ca54 9bbd d602 9d3d 96e1 c53d
00000090: 7752 17be a342 143e 527e 7ebd 4273 9c3d
000000a0: 14ec 5f3d 30ed 423d 882f ebbc 9611 de3d
000000b0: 7024 8bbd 3654 873d 6098 0cbe 50c3 0f3d
000000c0: 00a6 14bb 33b3 c3bd 218a b9bd 2225 8b3d
000000d0: c876 c43c 1a65 c63d 68af 9a3c 878b 103e
000000e0: 361c 8f3d 928c 863d ac50 90bd 08c5 053d
000000f0: 73c1 2d3e 644e 99bd 2079 1abd 00e2 ea39
00000100: a682 bb3d f49e 87bd 1ad5 973d 9b66 233e
00000110: 6d9e 133e 46fe 9f3d 9afe f73d 403c 66bb
00000120: 7243 ce3d 5af5 ae3d a5a3 b4bd 5915 043e
00000130: a087 d53c 52c8 d43d 86cc b93d ff97 1b3e
00000140: 6027 c4bc 00a7 a8bc ac67 4cbd f427 243d
00000150: 66f0 c33d f8b4 cdbd 1039 373c 074c e5bd
00000160: c315 fdbd 52ea e7bd ec73 8b3d ea7e dfbd
00000170: cffe 0f3e d509 22be 4420 b0bd 431f a9bd
00000180: a82f 293d 9e99 9ebd b825 e6bc 8072 263d
00000190: 3bea 093e 30f7 15be 1670 c53d 5002 613c
000001a0: 6824 623d ddd0 12be 73f9 173e 688a fabd
000001b0: bde1 a7bd b854 bc3c 5feb 253e 881a fbbc
000001c0: 7e92 59bd e6b8 6abd a22d c1bd 3641 bf3d
000001d0: 49ab 193e 110b 18be a6b5 9e3d a9d1 2b3e
000001e0: fd86 85bd b170 243e e48d 02bd 6fd8 33be
000001f0: 933e 2d3e 3cc8 37bd 61ae 1ebe 073f 12be
00000200: e467 8c3d aa4f ce3d 12a3 b23d 63da 323e
00000210: 3c02 42bd 48a4 0fbe 7848 053d 0e4e b53d
00000220: fa80 df3d 6c1e 6dbd 4c34 1abe 167a 833d
00000230: 42dc c43d de69 d13d 5427 7ebd c838 a2bc
00000240: 819a 083e 4022 6bbb a4b6 19be c1e5 20be
00000250: 29d7 133e 4067 1b3b c030 0a3c 7647 c33d
00000260: 698e cdbd 9601 c9bd 5c2e 1c3d b88a 1ebe
00000270: c04b 9e3b e621 bbbd e219 f13d 513e 213e
00000280: 25e5 013e a7e3 113e b8f8 0dbd 539a ecbd
00000290: b8e6 2fbd e064 e6bc f771 0d3e 32a4 edbd
000002a0: 8088 c53a 807f a43a 5b4d 153e 297c 223e
000002b0: d6c8 a83d 0e1a 1ebe 0a34 c93d 4340 303e
000002c0: 0387 323e f2b6 fb3d d45e 0cbd 1842 a8bd
000002d0: 5258 a03d d825 2bbe 5e17 a03d 00b8 ed39
000002e0: 207f 93bd 7cc4 2e3d 2542 83bd fd9e 0b3e
000002f0: c0ae f3bd 78cd a4bd e5d3 29be e057 353c
00000300: 98f7 03bd 39ff 0e3e 86f7 bc3d 0463 453d
00000310: 40c4 38bc 2cd7 103d 4736 25be bba5 123e
00000320: d2cc 80bd bf86 263e 40d4 ab3b 28ee ab3c
00000330: cb64 06be 886a d53c 8074 89ba 1d97 1c3e
00000340: 5f43 d9bd c7e5 d4bd 3680 9a3d dca7 613d
00000350: d5bb f7bd 4029 13bc 2408 30be d5f9 04be
00000360: 581a 163d 6e18 893d 2ed2 5cbd a0c0 793c
00000370: d30e ffbd 1262 883d 7011 643d 2ece 31be
00000380: d6eb ee3d 807a 8c3d 38a2 17be 4875 4bbd
00000390: 34ed 4f3d 3bf7 9abd 3515 2fbe b0d7 99bc
000003a0: a803 013d 23d7 133e 4869 3fbd 7bab 0f3e
000003b0: b376 0abe 20d1 ed3b 18b7 3d3d 964e 32be
000003c0: 8aff bc3d 50a2 7abc 71ab e5bd 30d5 213c
000003d0: 9c39 783d 04da 2b3d a0fb 7fbd 203c bfbb
000003e0: ecd2 f9bd 456e c9bd d147 acbd ecaa 933d
000003f0: d14c 29be 0085 38bc f591 1b3e a531 17be
-0.10904047 0.0092384815 0.13880835 0.08327167 -0.010162786 0.055401966 -0.03614956 -0.05599369
-0.16470143 0.07999198 -0.048512533 -0.12897389 0.009246141 0.05881633 0.031937063 -0.17175765
0.060948446 0.06364994 0.009658337 0.112801835 0.1121508 0.17389669 -0.05283813 0.0738828
-0.124195464 -0.08560912 -0.03543891 -0.11904472 0.082400516 0.068700746 -0.13944118 0.06260912
-0.091394156 -0.075845316 0.076665565 0.09662168 -0.14777552 0.14478545 -0.062132187 0.07639171
0.0546685 0.04758948 -0.028709188 0.10843198 -0.06794059 0.06607859 -0.13730001 0.035098374
-0.0022681952 -0.09555664 -0.09059549 0.06794192 0.02398242 0.09687252 0.018882468 0.14115725
0.06987803 0.065697804 -0.07046637 0.032658607 0.16968326 -0.07485655 -0.03771317 0.0004480034
0.091557786 -0.06622115 0.07413693 0.1595711 0.14415903 0.07812171 0.12109108 -0.0035131127
0.10071458 0.08542891 -0.08820275 0.12898768 0.026065648 0.103897706 0.09072213 0.151947
-0.023944557 -0.020587444 -0.049903557 0.040077165 0.09567337 -0.10044283 0.011183038 -0.11196142
-0.12357666 -0.1132399 0.0680922 -0.10912879 0.14062046 -0.15824063 -0.08599904 -0.08257916
0.041305214 -0.07744144 -0.028094158 0.04063654 0.13468258 -0.14645076 0.09640519 0.0137334615
0.0552105 -0.14337488 0.14841251 -0.1223343 -0.08197353 0.022989616 0.16203068 -0.0306523
-0.05311822 -0.05730524 -0.09432532 0.0933861 0.15006746 -0.14847971 0.077494904 0.16779198
-0.065198876 0.16058613 -0.0318736 -0.17563032 0.16918401 -0.044868693 -0.15496208 -0.14281856
0.06855753 0.100737885 0.087225094 0.1746612 -0.047365412 -0.14027512 0.032539815 0.088527784
0.10913272 -0.05789034 -0.15059012 0.064197704 0.09612323 0.10225271 -0.062049225 -0.019802466
0.13340189 -0.003587857 -0.15011078 -0.15712644 0.14437546 0.0023712665 0.0084344745 0.095351145
-0.10036928 -0.098147556 0.03813015 -0.15482605 0.0048308074 -0.09137325 0.11772515 0.15746428
0.12685068 0.14246999 -0.034661025 -0.115528725 -0.04294464 -0.028124273 0.13813005 -0.116035834
0.0015070587 0.0012550205 0.1458029 0.15867676 0.082414314 -0.15439627 0.09824379 0.17212014
0.17434315 0.122907534 -0.034270123 -0.082157314 0.07829346 -0.16713655 0.07816957 0.00045341253
-0.072019815 0.04266785 -0.064091004 0.13634868 -0.11898565 -0.080470026 -0.16584738 0.011068314
-0.032218546 0.13964547 0.09226899 0.04819013 -0.011277258 0.035361454 -0.16133986 0.14321034
-0.062890664 0.16262339 0.005243808 0.020987585 -0.13124387 0.026051775 -0.001048699 0.1529202
-0.10608553 -0.10395389 0.075439855 0.055091724 -0.12096373 -0.008982003 -0.17190605 -0.12985928
0.036646217 0.06694113 -0.05391138 0.015243679 -0.12453999 0.066593304 0.055680692 -0.17363808
0.11666076 0.068593025 -0.14807975 -0.049672395 0.050763324 -0.07566687 -0.17097934 -0.018779606
0.031497627 0.14437537 -0.046731263 0.14030258 -0.13521843 0.0072575957 0.04631719 -0.1741279
0.09228428 -0.015297487 -0.112143405 0.009877488 0.060601816 0.041955963 -0.062495828 -0.005836025
-0.12198433 -0.09835485 -0.084121354 0.07210335 -0.1653321 -0.011262178 0.15192397 -0.14765032

weight_hh_l0 f4 [128, 32]
00000000: 6c13 10be 65ae 0dbe 6c9e 443d 5ee5 c9bd
00000010: bc42 113d 1ba6 abbd a20e 88be 2bf7 3bbe
00000020: 395e 8abd 1131 c9bd 63dc cbbd 4ae6 323e
00000030: b345 8bbd 6873 06be 1f3a 41bd 7aeb 2cbd
00000040: d1b4 253e d1f1 9cbd 77bd 6fbc 684d 5f3e
00000050: a2ce b5bd 006c 2d3e 8845 293e 2bda 833d
00000060: e45f 3cbd fd67 93bc 5a0a 8aba f6b9 35be
00000070: e500 eb3d aebd b3bc 1fa8 473e 924e 81bd
00000080: a808 85bd 2991 87bd 4df7 d63d b502 2bbe
00000090: 345e ee3d 5649 bfbd 12fd 2dbd 758a e83d
000000a0: 1af9 2ebe a368 723e c478 b1bc ccb4 193e
000000b0: 0afe afbd 1a4a b7bd 977b e3bd 3849 813c
000000c0: 9e88 8e3d 998a aabc 93b6 50be 1332 ebbc
000000d0: 0019 27bc e9a4 06be 9079 413e a472 db3d
000000e0: 73ad 23bd 0ede 283e 0184 42be 4d95 afbb
000000f0: b7e3 b6bd 1281 a3bd 6542 01bb 9449 083d
00000100: eb6d c43d 43b2 80be 7181 febd ccdd f4bd
00000110: 3828 ecbd e08d 49bd fe78 183e 7b60 c7bd
00000120: f62b 7f3d 270e d5bd 0c96 60be 1d9d e83d
00000130: a35e 15be 16f3 cd3d 87c1 0cbd 4187 843d
00000140: 3309 35bd a583 24be d6a7 e2bd 8488 b13d
00000150: 1343 d9bb bad7 8ebd a447 063e 4979 983d
00000160: d156 873e f327 193d 4535 29be b9ae 3abe
00000170: 4280 fcb8 eee6 f4bd f54d cd3d 6d59 91bd
00000180: 01d5 13be 03a7 0aba a437 fbbd 9a2e 12be
00000190: 6b35 abbc 63b5 c93d 2783 163e 8f96 38bd
000001a0: 4dda 0e3e 7849 68bd a505 85be 85cf c0bc
000001b0: 8e57 473d d8c0 03bc 6e31 babd 58d2 fcbc
000001c0: b2b8 c43d f2d5 0bbc a577 d2bd ef84 523e
000001d0: 7db3 133e 0019 0e3e 0675 0a3e 57a6 fdbd
000001e0: e1f9 5d3e 1c53 543d 9673 213e 76d5 4dbe
000001f0: 9380 a83c 88ab edbb 57ae 5f3d 3c9a d63c
00000200: a71c 89be 6ba9 05be 7d93 483e 33f4 5fbd
00000210: 5c0a acbd 6669 6cbe 8a0a 0f3e 3c8a f7bd
00000220: b208 1d3d 8b61 bd3c 582d 2d3d 0be8 5c3e
00000230: 13c7 0e3e 2e3b e0bd 40af ed3d 8c12 c13d
00000240: 848e 00bc a053 70bc 5001 02be 8ea6 b43d
00000250: 4504 cc3d dca3 083e eb22 5dbc 2e52 013e
00000260: cd2f a0bd bd31 113e cd56 21be 31d1 dd3d
00000270: 8c3b 243e d807 66bc b695 0f3e f3d6 603e
00000280: c284 5bbe efab 98be 18ad dbbd 0a4d a5bd
00000290: ea82 9fbd aabc abbd 2382 83bd f8d4 15bd
000002a0: ffee 87bd 128c a0bd f7a7 0fbd 5a7c b03e
000002b0: 5f0f 41be ff80 57bc 71cc ccbd 100a 673e
000002c0: f1a8 44be dc27 5a3c 9e8c 7bbd 1a0d 7ebd
000002d0: 9534 733c 52e3 1bbd 4b48 1f3e a90e 513d
000002e0: 20bd 883e d9cf 80bd 7c1c 07bd e6af d6bd
000002f0: 07b8 3f3e 8378 c63d ca18 573e daed 7fbd
00000300: 83d6 d3be e424 80bd 945b 64bd e827 dabd
00000310: ed0d 51bd b97c 6dbe 010c 38be 5587 9bbd
00000320: 9ef0 3f3d c03d a7bb 2b22 95bd dc7b 9f3e
00000330: 3117 5a3d 56cf 22be 042a 0cbe 536b 8f3d
00000340: c8ff d9bd c014 a2bb e23d a13d 3726 853d
00000350: 76e5 933d d41f 223d e3a3 1b3e 638a 7b3c
00000360: 3745 723e f882 223e 83ef 8bbc 43e0 5a3d
00000370: 5f4c 1f3d 3f64 6eba 6282 293e 5340 59bc
00000380: 18f0 96be 538d 8ebe 9fdb 46bd d439 31bc
00000390: f8f1 f4ba 719b 31bb 139d 73bd 5b14 803d
000003a0: fedf 6bbe 1e57 c8bd ef10 0cbd 9e36 af3e
000003b0: 0727 47be 46c1 f5bc 74ef 0bbe 6977 893e
000003c0: 35e5 943d 33d6 433e 6180 2f3d 5c60 2b3e
000003d0: 72e8 b9bd 8e9f 8b3d dd50 533e 8275 8abd
000003e0: db32 c63d d5a4 4d3e bb30 20bd e3b7 debd
000003f0: a7d4 af3d 09d5 7f3d 1047 1a3e 672d 5a3d
-0.14069909 -0.13836057 0.048002645 -0.098582014 0.035464033 -0.083812915 -0.26573664 -0.18356006
-0.06756253 -0.09823812 -0.09954145 0.17470661 -0.068004034 -0.13129961 -0.04717457 -0.042216755
0.16182257 -0.0766331 -0.014632574 0.21806872 -0.08877303 0.1693573 0.1653043 0.064380966
-0.045989886 -0.017993921 -0.001053165 -0.1774672 0.1147478 -0.021941032 0.19497727 -0.06313814
-0.06495792 -0.06619484 0.10496388 -0.16700251 0.116390616 -0.093401596 -0.042477675 0.113545336
-0.17087212 0.23672728 -0.02166403 0.15010375 -0.08593376 -0.089496806 -0.11107557 0.015781984
0.069596514 -0.020818042 -0.20382147 -0.0287104 -0.010198832 -0.13148846 0.18894029 0.10715225
-0.039960336 0.16490957 -0.18995668 -0.005358374 -0.08930152 -0.079836026 -0.0019723412 0.033273295
0.09591278 -0.25136003 -0.12427033 -0.11956367 -0.115311086 -0.04920757 0.14889905 -0.09735199
0.062297784 -0.1040309 -0.21932238 0.11358092 -0.14586882 0.100561306 -0.03436425 0.0647111
-0.044198226 -0.16065843 -0.110671684 0.086686164 -0.0066303103 -0.0697474 0.13113266 0.07445008
0.26433423 0.037391614 -0.16524227 -0.18230714 -0.00012040186 -0.11958109 0.10024635 -0.07097135
-0.14436723 -0.0005289169 -0.12266472 -0.1427559 -0.020899495 0.0984905 0.14698468 -0.04506546
0.13950463 -0.05671069 -0.2598087 -0.023536453 0.048667483 -0.008041583 -0.09091459 -0.030862018
0.0960554 -0.008534895 -0.10276727 0.20558523 0.14423938 0.13876724 0.13521203 -0.123852424
0.21677352 0.05183707 0.15766749 -0.2010096 0.020569121 -0.007253114 0.054609623 0.026196592
-0.26779673 -0.13052909 0.19587512 -0.054676246 -0.084004134 -0.23087081 0.13968864 -0.12086913
0.03833837 0.023117801 0.04227957 0.21572892 0.13943128 -0.10948788 0.11605692 0.09427366
-0.007846478 -0.014668375 -0.12695813 0.0882083 0.09961752 0.13343757 -0.013497095 0.12629005
-0.07821617 0.1417913 -0.15755768 0.10830916 0.1603834 -0.014039956 0.14021954 0.21956997
-0.21437362 -0.29818675 -0.107263744 -0.08071335 -0.07788642 -0.08385594 -0.06421306 -0.036580056
-0.06637382 -0.07839216 -0.035072293 0.34469873 -0.1885352 -0.013153314 -0.099999316 0.22562432
-0.19205071 0.013315167 -0.0614134 -0.062024213 0.0148440795 -0.038058586 0.15554921 0.05103937
0.2670679 -0.06289644 -0.03298615 -0.10482769 0.18722545 0.096909545 0.2100555 -0.062482692
-0.41374597 -0.06257036 -0.0557514 -0.10652143 -0.05103867 -0.23192109 -0.17973329 -0.07594172
0.04686033 -0.0051037967 -0.07281908 0.31149185 0.053244773 -0.15899405 -0.13687903 0.07002892
-0.106444895 -0.0049463212 0.07873131 0.065014295 0.072215006 0.039581135 0.15199237 0.015352818
0.23659216 0.15870273 -0.017081982 0.05343653 0.038891193 -0.00090939173 0.16553643 -0.013259965
-0.29480052 -0.27842197 -0.04854929 -0.01081701 -0.0018687835 -0.0027100707 -0.05947597 0.062538825
-0.23034665 -0.09782241 -0.034195837 0.34221357 -0.19448482 -0.029999387 -0.13665563 0.26848915
0.0727028 0.1912468 0.04284704 0.16735977 -0.090775385 0.06817542 0.20636316 -0.06760694
0.09677669 0.2008241 -0.039108973 -0.10874917 0.08585482 0.062459026 0.1506617 0.053265955

bias_ih_l0 f4 [128]
00000000: ba0a 79bd 61a7 1bbe caed 41be 3a9d 94be
00000010: 2806 8ebe ec67 6abe f678 94be 2998 15bd
00000020: baf6 a33b 4bd3 31be 4a75 b6bd de9b d7be
00000030: c00c b4bd b483 60be 080d 43be c5e0 e23d
00000040: 9560 85bc c721 42be 7f2f 50be ca80 87be
00000050: f71f 2bbe 14b7 b6be 5aef cabd ed58 10be
00000060: 3029 c6bd c33e cbbe 4de5 f3bd 4be1 f0bc
00000070: 5b4c 8c3d fdf6 83be 2d4d 80be 6311 a3bd
00000080: 553d 0fbd fc6e 73be e52d b4bd 98ed 38be
00000090: 5f2b 8dbe c8c1 a6be 0fbb 7abd ee0f 8ebd
000000a0: b3ab 88be 1488 16be 48b1 86be 7411 d1be
000000b0: 5cc7 58bd e54e 68be 7304 04be e539 a7bd
000000c0: fc76 2dbe ac3c 00be 44d7 dcbd d20e 143c
000000d0: ba3e 20be 50bc 9fbe 4561 2ebe 2ca2 a1be
000000e0: 43f3 5c3c 5178 99be 53c6 37be ab99 0fbe
000000f0: f877 06be 2e4d b3bd e8e9 cfbd 362d 9bbe
00000100: ed19 b9bd 43be b53c ccd3 a23d 42a2 0f3e
00000110: 3d02 cebd ae36 883d 35f3 edbd 085e 31be
00000120: a253 9ebc 2f81 c13d 17db 6dbc 473b 093d
00000130: 6316 b23d 4ccd e63d a3e7 383b 840b bdbd
00000140: 55b0 cfbc c247 adbd 910f 933d 9e10 59bd
00000150: 3b13 6d3c 77a9 d43b 1538 3ebd 94fa 0c3d
00000160: c730 72bd cc2e c6bd b73b 03bd 69a8 fa3d
00000170: 9b9b c0bd 16d1 3dbd 6b0a 19be 4375 253d
00000180: c1d7 98bd ae1f 83bd fbf4 71be ed07 35be
00000190: 8b91 53be 8059 28be 18aa 00be 0ee1 02bd
000001a0: 525e 90be eb4b 83bd b795 b4be 519d 12be
000001b0: f322 03be 1c2d 94be fa47 68be 5ab8 f1bd
000001c0: 0327 86be 757e 03bc 8b21 32be b670 65be
000001d0: 9b40 7bbe 2e20 9abe 1376 89be 6223 77be
000001e0: 0bc7 36be 8322 2abe b907 a2bd 8554 acbe
000001f0: 0211 c63c 346c 4bbe bfb3 253c 4a47 04bc
-0.060801245 -0.15200569 -0.18938366 -0.29026204 -0.27739072 -0.22891206 -0.28998536 -0.036522064
0.0050037773 -0.17365758 -0.0890909 -0.42111105 -0.08791494 -0.21925241 -0.1904794 0.11078028
-0.016281405 -0.18958198 -0.20330618 -0.26465446 -0.16711412 -0.35686553 -0.09908934 -0.14096422
-0.09675825 -0.3969632 -0.1190897 -0.029404303 0.06850501 -0.25774375 -0.2505888 -0.07962301
-0.0349706 -0.23772806 -0.08797816 -0.18059385 -0.27572152 -0.32569718 -0.06121355 -0.06936632
-0.26693496 -0.14700347 -0.2630713 -0.40833628 -0.0529245 -0.22686346 -0.12892322 -0.081653394
-0.1693992 -0.12523144 -0.10783246 0.009036737 -0.15648928 -0.3119836 -0.17029293 -0.3156904
0.0134857325 -0.29974607 -0.17946748 -0.14023463 -0.13131702 -0.08754955 -0.10152036 -0.3030793
-0.09038148 0.02218545 0.07950553 0.1402674 -0.10059021 0.06651054 -0.11618654 -0.17321026
-0.019326989 0.09448468 -0.014517567 0.033503797 0.08695676 0.11269626 0.0028214238 -0.09230712
-0.025352636 -0.08460952 0.071807034 -0.052994363 0.014469917 0.0064899283 -0.046440203 0.034418657
-0.05912855 -0.096768945 -0.03203937 0.12239153 -0.094046794 -0.046341978 -0.1494538 0.040395033
-0.07463027 -0.06402527 -0.23628609 -0.17678805 -0.20660989 -0.16440392 -0.12564886 -0.03195291
-0.2819696 -0.064109646 -0.35270473 -0.14317824 -0.12806301 -0.28940666 -0.22683707 -0.118027404
-0.2620164 -0.008025755 -0.17395608 -0.22406277 -0.24536364 -0.30102676 -0.26847896 -0.24134591
-0.17849366 -0.16614728 -0.07911629 -0.33658233 0.024178032 -0.19865495 0.010113656 -0.008073637

bias_hh_l0 f4 [128]
00000000: 9030 43bd 86a1 63be 4518 a3be 849d 82be
00000010: 8287 8ebe e7d7 b0be 5409 bfbd 1e10 c0bd
00000020: b402 14bd 51d9 79bd c394 3cbe 4190 5ebe
00000030: ec24 90bd f6b4 8dbe 9def 1fbe f19f a43c
00000040: bfa7 55bd e487 30be 1ae8 5abe ee09 28be
00000050: 3603 f9bc 9060 a1be f4bb 26be e542 15be
00000060: 619c 97be c90d adbe 0dcb 59be 8f27 89bd
00000070: 4366 85be fcb1 3abe dbab e4bd 4d34 87be
00000080: 6695 e4bd 52bb 88bd 1c10 82be 46e2 97be
00000090: 6c0e 8dbe 4e66 09be a609 6dbe f3e2 aabd
000000a0: 561f 0fbe a817 74bd e409 dabd 294e ccbe
000000b0: 9884 45bd 9a9b 98bc 42ff adbe 1b3d 4abe
000000c0: 88f2 43be ac05 6fbe 848c a43a be36 a2be
000000d0: 3629 22be 5256 31be ef9f f93c eb81 61be
000000e0: 363a 90bd 536a 61be 683f a7bc 8d65 57ba
000000f0: 1834 35be ed10 8ebd 18ae 483d 5638 e2bd
00000100: 3515 f23d 4be9 ebbb a15b 35be b539 12be
00000110: 6849 7b3d 21b0 ab3c 99e1 d83d 21d2 073e
00000120: b181 3b3d 183c 62bd c44f 033d affd bbbc
00000130: 0d37 80bd d934 f4bd b863 c43c 0dd0 473d
00000140: f74d e03a 7cb5 ee3d a857 65bd 5efd c0bc
00000150: 869d b6bd 3f2e 4c3d fad4 973c 3c74 1bbd
00000160: e1ae 103d 449b 353d 3181 103d bbc6 f3bd
00000170: 1ca1 323d 8963 0a3e 0472 183e 91c7 1abd
00000180: d184 5dbd dc1b c93c 974a 91be 69bb 91bd
00000190: b8f9 c6bd 811f 82be d9a6 c83c 5e1f 8bbd
000001a0: 20c6 64be 521d 0a3e 0fb0 0dbe 88cb 8fbe
000001b0: 87bf 2cbe 2d4f 36be 1bb0 a7be 45e7 033e
000001c0: 6296 abbe c81e 12be 1778 9ebd 5b29 05bc
000001d0: 3050 abbe 89e2 35be e0b6 78bd ba34 4ebe
000001e0: 5b31 c2bd ebd4 79be 4917 e7bd b363 b6bd
000001f0: 8962 91bd 17fe 5ebc 5b25 573d eae4 c9bd
-0.047653735 -0.22229585 -0.31854454 -0.255108 -0.2783776 -0.3453972 -0.09327951 -0.09378074
-0.03613539 -0.060998265 -0.18416123 -0.21734716 -0.07038292 -0.27677125 -0.15618749 0.020095797
-0.05216193 -0.17239338 -0.21377602 -0.16410038 -0.030397039 -0.31518984 -0.16282636 -0.145763
-0.29611495 -0.3379958 -0.21268864 -0.06696998 -0.26054582 -0.18231958 -0.11165591 -0.2640709
-0.11161308 -0.066763535 -0.25402915 -0.2966482 -0.27550066 -0.13417932 -0.23148212 -0.083440684
-0.13976797 -0.059592873 -0.10646418 -0.3990338 -0.048222154 -0.018628884 -0.3398381 -0.19749872
-0.19135487 -0.23342007 0.0012554084 -0.3168239 -0.15836033 -0.17318085 0.03047177 -0.22022216
-0.07042353 -0.22013216 -0.020415977 -0.00082167314 -0.17695653 -0.06936822 0.048994154 -0.110459015
0.11820451 -0.0071994415 -0.17710735 -0.14279826 0.061349303 0.020958008 0.10589904 0.13263752
0.04577798 -0.05523309 0.032058492 -0.022948114 -0.062605 -0.119241424 0.02397333 0.048782397
0.0017113079 0.11655709 -0.0559918 -0.023558315 -0.08916764 0.04984879 0.018534172 -0.037952647
0.035323028 0.044337526 0.035279457 -0.11903139 0.043610677 0.13514532 0.14887244 -0.037787978
-0.05408174 0.024549417 -0.2837722 -0.07115824 -0.09715599 -0.2541466 0.024493622 -0.06793092
-0.22341204 0.13487747 -0.13836692 -0.2808497 -0.16869937 -0.1780364 -0.32751545 0.12881191
-0.3351317 -0.14269555 -0.07737749 -0.008127536 -0.33459616 -0.17762198 -0.06072128 -0.20137301
-0.0948207 -0.24397628 -0.11283738 -0.08905735 -0.07098872 -0.013610384 0.05252586 -0.09858115

weight_ih_l1 f4 [128, 32]
00000000: 2844 04bd 169e 143d 6a9f 77be 1aa6 88bd
00000010: d20c 8abc 4ebe 86bd ab5f 8fbe 5c59 34be
00000020: 2161 85bd 9c98 0b3e 00cf 8f3e 031a 41bd
00000030: c6e6 88be d016 98be 1f27 5e3e 56bf 0fbe
00000040: 30ee 923d cf35 1ebd 1042 db3d 1ee6 96bd
00000050: 755c 28be 3954 3b3e 0233 7e3d 2166 9d3e
00000060: 4c77 05be e125 88be 8ddf 1a3e 48bc 2b3e
00000070: 0c2e 9fbe 0aed c03e b212 793d 2697 d73c
00000080: 2dcc 10bd 3f24 abbd 6aac 003e 2f15 7dbd
00000090: 5b70 583e 838d 193e 50a3 263e 3da5 36bc
000000a0: 6db0 133e 8fd0 84be ffa6 62be 35c1 b93d
000000b0: 1909 f93d 581f 843e 8bc8 3cbe b1f2 1b3e
000000c0: e6a2 dcbd 681b bebb 383b a1bc 0854 bd3d
000000d0: a6be 3e3d 1463 f8bd e1c6 56bd fe56 cd3a
000000e0: d097 4abd 7658 97bd d2a8 37bd d561 0bbb
000000f0: a943 acbd 8062 8fba 15b3 d4bd 791c 153e
00000100: 6ae1 153e 783d ef3b 5490 79bd f15a 4c3e
00000110: 4924 1c3d d9f4 123e fcba 1c3d f307 f93d
00000120: c323 ab3d 7fff e2be 2f44 20be 3f68 24bd
00000130: 1814 133c 359d 973e d892 853c 6989 213e
00000140: 95d0 b1be 2113 433e 5670 913d 2b89 e23d
00000150: 6919 92be 60df 09be 2ca1 22be 266f 8fbd
00000160: 8cc7 9b3d f32a fc3c 4116 963c a3e1 413e
00000170: 6cf8 e63d 9c68 c2bd 8fef 503e 4d2a 26bd
00000180: 453e e4bd 8623 92be 96dc 10be 3f44 a2bd
00000190: 6709 41bd cf5a 7dbd 46d3 343d c1e5 2abe
000001a0: 9e9b ddbd 660e 83bd 5bb8 29bd 246d a7bc
000001b0: dc4c 10be dba4 e4bc e45c 9e3d 6dfb 7a3e
000001c0: 8075 11be 4594 1dbd ef08 c9bd f768 a3bd
000001d0: 0785 47bd 35a2 68bc c472 06bd ca41 97bd
000001e0: 4226 13bd d2a2 a63d e43d 8a3d 0ae9 61be
000001f0: bcc1 383e faac bebd 3fe4 633e 83ce eebc
00000200: 3750 f8bc ae02 e73c b44e 83be cb18 883d
00000210: 45e9 46bd b788 bc3e b209 7f3e 218f a1be
00000220: e4a0 bd3d 6435 00be fce1 0e3e 231a 15be
00000230: 8c8a b33e aecb 693e b1a5 28be ae41 0dbe
00000240: 4a5f 68be 3d3a b23e 5567 793c 6569 9cbe
00000250: 2a59 86bd b062 a53d d7aa 09bd 0ba6 bebd
00000260: 8584 3e3e ce9c 91bd 9d9c 953e f26c 823e
00000270: 8b56 febd 81b4 913e c1b3 e33d 3225 2dbe
00000280: 6f9c 8d3d cb6e 143b 4171 4c3d bc6f 4fbe
00000290: 6ae2 c6bd 0213 1dbd 5fcf 993d 96d3 8cbd
000002a0: 0526 35be c28f 82bb 54d4 1c3d eac7 1f3e
000002b0: ae73 9a3d 7810 333e cb31 163c 3c54 6c3e
000002c0: 5f74 f23d 6ad8 18be f7bb 43bd 1bc3 a03d
000002d0: 0114 013e 03c3 6fbd 39f4 17be 9a7d 13be
000002e0: a664 9abd 440a 863d e5d0 a6bd 1584 42be
000002f0: 702f 9f3d 30a8 2cbe d26b 083e 470c c4bd
00000300: 111b efbb bc31 98be bfef fa3d de57 fbbd
00000310: 7f0a e2bd 4811 19be 615e cabd f725 81bd
00000320: 24ab 36be d972 d33d 1e83 073d 5f83 e73d
00000330: f33f 89bd 2bcc 333b 15d7 52bd 929f 593c
00000340: 20e9 08bd ecf5 fc3c b481 723d 6ca0 653d
00000350: 6c0d 0fbe 0d51 95bb 3459 01be 7637 b23d
00000360: 951e 4a3d 51a2 033e 2570 033e d15a b33d
00000370: 5f41 aebc 332f 50be 1bbc ea3d 02dc a13c
00000380: f778 f3bb 84a4 42be 3a3e 3a3e 461b 05be
00000390: dca8 493e acaf c2bd be70 b63d 807c af3d
000003a0: c5d1 9dbe ade7 893d d965 3d3e 913c 5abe
000003b0: 758a 3bbd cf53 883d ac77 69bd d281 ab3d
000003c0: 768a b13d 3d16 94bd be22 f43d df45 da3c
000003d0: d40e 36be 23c8 7b3e 7cbe 26bd 3c26 243d
000003e0: 1556 3dbe a839 8ebd 25bf 84b9 ed5f 6e3e
000003f0: cc87 e5bd a892 d23c fc14 493c 809b 00bc
-0.03229156 0.036283575 -0.24181905 -0.06672306 -0.016851816 -0.065792665 -0.28002676 -0.17612213
-0.065126665 0.13632435 0.28087616 -0.047143947 -0.26738566 -0.29704905 0.21694611 -0.14037833
0.07174337 -0.038625535 0.1070596 -0.0736811 -0.1644152 0.18293847 0.062060364 0.3074198
-0.1303379 -0.265914 0.1512434 0.16771042 -0.31089818 0.37680846 0.060808845 0.02631719
-0.035350967 -0.08356523 0.12565771 -0.06178778 0.2113661 0.14995389 0.16273236 -0.011147794
0.1442277 -0.25940368 -0.22134016 0.090700544 0.12159938 0.25805163 -0.18435876 0.15229298
-0.10773258 -0.005801607 -0.019681558 0.09244543 0.046568535 -0.12128273 -0.05243576 0.0015666184
-0.049461186 -0.073899195 -0.044838734 -0.002126803 -0.08411343 -0.001093939 -0.1038572 0.14561643
0.1463677 0.007301029 -0.060928658 0.19956566 0.03812054 0.14351214 0.03826426 0.12159719
0.083564304 -0.44335553 -0.1565101 -0.04013848 0.008976959 0.29612127 0.016305372 0.15775074
-0.34729448 0.19050266 0.071015045 0.11061319 -0.2853501 -0.13464117 -0.15881795 -0.07003622
0.0760642 0.030782199 0.018321158 0.1893373 0.112778515 -0.09492609 0.20403884 -0.040567685
-0.111446895 -0.28542727 -0.14146647 -0.07923173 -0.047128107 -0.06185418 0.0441468 -0.16689207
-0.10820697 -0.06399231 -0.04143558 -0.020437784 -0.1409182 -0.02791064 0.07732561 0.24509974
-0.14204979 -0.03847148 -0.09816157 -0.07979005 -0.04871085 -0.014198829 -0.032824293 -0.07385595
-0.035925157 0.08136524 0.06750086 -0.22061554 0.18042654 -0.093103364 0.22255038 -0.029151207
-0.030311687 0.02819952 -0.25645983 0.06645354 -0.048562307 0.36823055 0.24906042 -0.3155451
0.09259203 -0.12520367 0.13953394 -0.14560752 0.3506664 0.22831604 -0.16469456 -0.13794586
-0.226926 0.34810057 0.01522239 -0.3054916 -0.065599754 0.08075464 -0.03361019 -0.09309014
0.1860524 -0.07109986 0.2922105 0.25473744 -0.124188505 0.28458026 0.1111827 -0.1690872
0.06914603 0.0022649046 0.049912695 -0.20257467 -0.09711154 -0.038348205 0.07510256 -0.06876294
-0.17690285 -0.0039844224 0.03828843 0.15603605 0.075415954 0.17486751 0.009167145 0.23079008
0.11838602 -0.14926305 -0.04778668 0.078497134 0.12605287 -0.058535587 -0.14839257 -0.14403382
-0.075387284 0.06544927 -0.08145312 -0.18995698 0.0777272 -0.16861033 0.1332238 -0.09572654
-0.0072969277 -0.29725444 0.12252759 -0.12272619 -0.11037158 -0.14947999 -0.098812826 -0.06306069
-0.17838722 0.1032464 0.033084027 0.11304354 -0.067016505 0.0027434926 -0.05147465 0.013282673
-0.03342545 0.030878983 0.059205726 0.056061193 -0.13969964 -0.004556781 -0.12631685 0.087019846
0.04934557 0.12854888 0.12835748 0.08757556 -0.021271406 -0.20330505 0.114616595 0.019758228
-0.0074301916 -0.1900807 0.181878 -0.12998685 0.19693321 -0.09506163 0.089082226 0.08568668
-0.30824104 0.06733642 0.18495883 -0.21312167 -0.04578634 0.0665661 -0.056998894 0.08374371
0.086689875 -0.07230804 0.11920689 0.026644645 -0.17779094 0.24588065 -0.040709004 0.040075526
-0.18489869 -0.06944591 -0.00025319416 0.2327878 -0.11207542 0.025704697 0.0122730695 -0.007849574

weight_hh_l1 f4 [128, 32]
00000000: aa8d 03be e190 10be 76dd 15be e3b0 9d3d
00000010: e624 74be 2c09 acbd 3423 8d3d 1d71 f7be
00000020: 15c4 c4bc 2cf7 39be fd88 c33c 874b 193e
00000030: 40e9 5b3e cd39 9dbd 5022 953e c2b5 063e
00000040: e9aa 54bd 7421 03be 20a7 333e a260 27bd
00000050: afb1 113c 6256 963e 55ed e73e 8e95 a6be
00000060: acfb c73e 9d27 d2bd cbde 883e e93c c93c
00000070: d2fc a4be 2489 373e 010c a33c dd38 4abe
00000080: 9537 0b3e 8ef6 493e d477 ebbd b757 b1be
00000090: 2168 413e e002 943d 9694 ddbd f160 1dbe
000000a0: fe49 e1bd cd5f 393e 0fa5 5c3d 955d 93bc
000000b0: 2985 25be 8e39 a43e 8192 4abe 7552 01be
000000c0: d28a 3b3d 407e 2a3e ebc8 923d 82ba 54bd
000000d0: 1673 cabc 12d7 8b3c 0083 d8bd e480 5d3e
000000e0: c630 bd3d a920 01be 9dd5 cd3c 8538 12be
000000f0: 0968 633e 8e22 50be c389 37be b5d4 0ebe
00000100: 249e cf3e 4b87 853d 0a11 14bd b630 b0be
00000110: 202b 353e d483 0b3e 13b3 783d 2cee 2bbe
00000120: d715 a03d e52f 133e af81 883d 43b7 87bd
00000130: 13c9 073e 04d0 f13e 750b 83be 16c6 89ba
00000140: ea5a 1c3e c3b2 f9bd d24c 8c3d 0103 36be
00000150: 9113 ff3d b327 c9bd 7500 e7ba 38a7 ab3d
00000160: 78a3 bdbd c909 ebbd e296 acbc 834c 173e
00000170: 1f8d 963d 9e80 f63d 3360 393c 8688 8c3d
00000180: 1cbf 2dbe 5829 a1bc 036f 1d3c ef6d ce3d
00000190: 3699 2bbe 13f9 c7bc 5512 793d 2e14 20bc
000001a0: 100a 1cbd 65ac eabd 3d3f 893e 03a6 73bd
000001b0: 6739 7a3e 85f7 1cbe 2869 e0bd 870d 273e
000001c0: 131e 803e 56ed 62bd c5aa 86be f6a8 84be
000001d0: e820 57bd 8471 b8bd a733 6abe 5e03 783c
000001e0: 08b0 6cbe f640 cb3c 5715 373e 5351 063e
000001f0: 84ef 6ebc 1a2a 31bd cfd2 d0bc 58cd a6bd
00000200: 50ff 753d 8496 94bc 075f 05be 993b 9fbc
00000210: 1bb5 0c3e 736b 13bd f6f1 423e bc69 11be
00000220: 1b5b 223e 14ef 12be 6c4b 9c3e 8343 fcbb
00000230: 9e8b 613d 8113 423e 6bd4 b4bc 1aa9 583e
00000240: 075b d5bc d37d 6dbd 75d7 223d 34fa f2ba
00000250: c6c2 6fbe 5f0b 933e f3f8 533e 0d97 b63d
00000260: 4e83 823c fde5 8bbe 20e6 9d3d 2771 8b3d
00000270: 5c1e f2bd 7834 853e 994a 473e ddd6 13bd
00000280: 4738 ab3e b3db 9f3d 2ae9 8a3e 9582 96bd
00000290: 8cc5 803e 52dc d4bd 70b6 963d 5e1a d03b
000002a0: a870 ae3d 5e6b 5ebe 0a66 a93d 30d8 9abd
000002b0: fa96 cf3d cc22 62bd 6ebd 24be 315c 9f3d
000002c0: 1719 e23d 6b16 f3bd 4390 4abe 06ea 87be
000002d0: 6d93 d33c d52b 85be 3efe a7bd 76d5 863d
000002e0: a22d afbc 941e 193e 81a3 12bc 25fc df3d
000002f0: 5e32 17be 55ed 3abe cc7b 0fbd c3bf 123e
00000300: 813a 603e 01fb a1bc 3ed2 52bd 912b cfbd
00000310: cbea fe3d c6c4 5dbe f646 01bd 74dd a83e
00000320: d80a 0fbe 9f51 29be 6c1b 64bc d231 743d
00000330: 449f 303e 5efc f83d 9908 13be d466 d53d
00000340: 72ef 5f3e 2fa8 773a d2f5 64be 025a 34be
00000350: 5445 fd3d 4e29 ba3d 8810 2abe 8cf2 d9bd
00000360: 6258 5cbe eb06 363d 3853 5f3e d380 983e
00000370: 24ff 13be 06e6 393e e0af f8bd 5f15 ccbc
00000380: ed10 103f 38ca 253e a9c2 ad3e fc5f 603d
00000390: 25a0 943e 8d55 cbbc 7402 76bd cae7 93b9
000003a0: 17a9 4dbc 2807 083d 7c05 66be 1feb 033b
000003b0: 9089 2a3e 1d4d ba3c 7dd2 5bbe e14d 8ab9
000003c0: 0129 f83d 7d08 fcbd ca16 f23d e908 66bd
000003d0: ec70 203e 5409 de3d e064 573e f4de a33d
000003e0: 2db3 cb3d ff88 e33d 051b 1f3e 0652 eb3a
000003f0: f1ba 053e cff3 2fbe 759b c2bd d152 d93c
-0.1284701 -0.14117767 -0.14635262 0.07699754 -0.238422 -0.08400187 0.0689148 -0.48328486
-0.02401928 -0.18160695 0.023869032 0.14970218 0.21475697 -0.0767704 0.2912774 0.13155273
-0.051920805 -0.1280573 0.17544222 -0.04086364 0.008892461 0.2936278 0.45298257 -0.32535976
0.39059198 -0.10261462 0.26732478 0.024565177 -0.32224137 0.17923409 0.019903185 -0.19748254
0.13595422 0.1972296 -0.11497465 -0.34637234 0.18887378 0.07227111 -0.10819356 -0.15369011
-0.11000441 0.18102951 0.05386835 -0.01798896 -0.16164078 0.3207516 -0.1978245 -0.12629111
0.045786686 0.16649723 0.07167228 -0.05193568 -0.02471308 0.017070327 -0.10571861 0.21631199
0.092378184 -0.12610115 0.025126273 -0.14279373 0.22207655 -0.20325682 -0.17923646 -0.13948329
0.4055034 0.06519946 -0.036149062 -0.34412163 0.17692232 0.13624507 0.060717653 -0.16790074
0.078166656 0.14373739 0.0666536 -0.06626751 0.13260297 0.47229016 -0.2559468 -0.0010511305
0.15269056 -0.12192299 0.0685059 -0.17774583 0.12454904 -0.09822025 -0.0017624038 0.08381504
-0.09259695 -0.11476476 -0.02106804 0.1477528 0.073511355 0.120362505 0.01131444 0.06861977
-0.16967434 -0.019673035 0.009608987 0.10079562 -0.16757664 -0.02441076 0.0608085 -0.009770436
-0.038095534 -0.11458663 0.2680606 -0.059484493 0.2443596 -0.15328796 -0.10957557 0.16313754
0.25022945 -0.055402122 -0.26302162 -0.25910157 -0.052521616 -0.090060264 -0.22871266 0.015137522
-0.23114026 0.02481125 0.17879234 0.1311696 -0.014583472 -0.04325304 -0.025491146 -0.08144635
0.060057938 -0.018138178 -0.13024531 -0.019437598 0.13740961 -0.035991143 0.19037613 -0.1420049
0.15855066 -0.14349014 0.30526292 -0.0076984777 0.05506479 0.18952753 -0.022073945 0.21158257
-0.026044382 -0.057981323 0.039756257 -0.0018537701 -0.23414144 0.28719613 0.20700435 0.089155294
0.015931752 -0.27323905 0.077099085 0.068086915 -0.11822197 0.26016593 0.1946205 -0.03609358
0.33441374 0.07805576 0.27131015 -0.07349125 0.25150716 -0.10393585 0.07359016 0.0063507995
0.08517581 -0.21720645 0.082714155 -0.07560766 0.10136218 -0.055208966 -0.16087887 0.07781256
0.11039942 -0.1186951 -0.19781594 -0.26545733 0.025827134 -0.26010004 -0.0820279 0.06583683
-0.021384064 0.14953071 -0.008950115 0.10936765 -0.14765307 -0.18254597 -0.03503017 0.14330964
0.21897317 -0.019773008 -0.051470034 -0.101157315 0.12447127 -0.21657094 -0.031561814 0.32981455
-0.1396898 -0.16535042 -0.0139225535 0.059617825 0.17248255 0.1215751 -0.14358748 0.104200035
0.21868685 0.00094473636 -0.22359398 -0.1761246 0.12366739 0.090899095 -0.16607869 -0.10641965
-0.2151809 0.04444019 0.21809089 0.29785785 -0.14452797 0.18154153 -0.121429205 -0.024912534
0.56275827 0.16190422 0.33937576 0.054779038 0.2902843 -0.024821067 -0.060060933 -0.0002821072
-0.012552521 0.03320995 -0.2246303 0.0020129157 0.16654038 0.022741849 -0.21467014 -0.00026379435
0.12117196 -0.123063065 0.11820753 -0.05616084 0.15668076 0.10841623 0.21034575 0.08001509
0.099462844 0.11110114 0.15537651 0.0017953522 0.13059594 -0.1718285 -0.09502307 0.026528748

bias_ih_l1 f4 [128]
00000000: 6552 713e d060 013d 2451 9abe d651 0fbe
00000010: 3245 53be 2332 63be c456 12be 5204 53be
00000020: 054c a8be 6985 a5be e9c2 c7be 201f f1bd
00000030: 13ea 09be 48bc 94be 1e82 cbbd 5393 48bd
00000040: 5a4a b5be 502a 98be 15c4 9fbd 895d b9bc
00000050: 5469 90be 4e2f 58be af71 9b3a 2556 00bf
00000060: ea3b ecbd 3a10 cebd 6e30 80be 0add a5bd
00000070: b046 c0be 7292 afbe e779 a8be f0d0 bcbe
00000080: 0758 c3bd 3298 333d 6d4d 3abe 85a2 45be
00000090: 4013 eebc 4822 69bd 5546 80be 1923 9fbe
000000a0: 1979 80be b792 4abe 5e30 dfbe 61c1 56bd
000000b0: c642 33be 8379 d2be 131a 09be cdab adbd
000000c0: c505 89be b925 45be 793f bdbd 08fd c6be
000000d0: c051 c6bc c9ec 8fbd 02e2 653d ce4b a1be
000000e0: 2a09 6e3c e612 4abe 0142 e13a 3440 7f3d
000000f0: eeae b3be e8d3 83be bfab abbe c7a9 31be
00000100: afe1 33be abac 77be 3965 71be 338b c53b
00000110: 26ce 83be 6571 a03d 83ad cdbd b21f 57bd
00000120: 992f bd3d e9a9 aa3d a84a 03bc e87b 513d
00000130: d794 ad3b 279a 2bbe 6119 5b3e fcb0 5a3d
00000140: a154 90bd b595 91bd 96f4 193e ee40 de3d
00000150: 6d11 dbbd a137 af3c 33cb a93d b829 85bd
00000160: 9247 213e 6290 bdbd 1d65 8c3c d6c1 15be
00000170: 8374 2fbe bb63 903d c295 b0bc 8e5e d83d
00000180: 737c c23b 06ad 3cbe 435a 2cbe 01d1 62be
00000190: 7e83 4f3c 4531 4fbe c4a6 b0be f47e 75be
000001a0: 9d32 c4be 4024 85be 95d0 aabe 29a1 273d
000001b0: d3eb 7abe 1c6e 32be d020 82bd bd7f 8fbe
000001c0: c18f ffbd 02cf a9be f3eb 71bc a7d2 a7be
000001d0: 1ed2 9dbe 2f3b 9cbc dde2 3cbe 6380 78be
000001e0: 098b e5bd ef25 36be 4f0a 93be 2540 2abd
000001f0: 7ee4 0ebe 1c2c 58bd 2cf8 8bbe 66d3 bebe
0.23566587 0.03158647 -0.3014003 -0.13996062 -0.20631865 -0.22187094 -0.14290911 -0.20607117
-0.32870498 -0.32328346 -0.39015892 -0.11773515 -0.13468198 -0.29049897 -0.09936927 -0.048968624
-0.35408288 -0.29719782 -0.078010716 -0.022627609 -0.2820536 -0.21111795 0.0011859442 -0.50131446
-0.11534865 -0.10061689 -0.2503695 -0.080988005 -0.3755393 -0.34291416 -0.32905504 -0.36878157
-0.09538274 0.043846317 -0.18193598 -0.19300278 -0.029061913 -0.05691746 -0.2505366 -0.31081465
-0.2509239 -0.1978253 -0.4359159 -0.052430514 -0.17505941 -0.4110833 -0.13388853 -0.08480034
-0.26762214 -0.19252671 -0.09240622 -0.38864923 -0.024208903 -0.07027585 0.05612374 -0.31503147
0.014528552 -0.19733772 0.0017185808 0.06231709 -0.35094398 -0.2574761 -0.3352947 -0.17349921
-0.1756656 -0.24186961 -0.2357377 0.0060285567 -0.25743216 0.07834128 -0.1004286 -0.05252046
0.09237594 0.08333189 -0.008013405 0.051143557 0.005297284 -0.16758023 0.213964 0.05339144
-0.07047392 -0.071086325 0.15034708 0.10852228 -0.10696683 0.02138883 0.0829071 -0.06502098
0.15749958 -0.092560545 0.017138058 -0.14624724 -0.1713429 0.07050272 -0.021555785 0.1056491
0.0059352457 -0.18425378 -0.16831307 -0.22150041 0.0126656275 -0.20233639 -0.34502232 -0.2397421
-0.38319865 -0.2600422 -0.3336226 0.04092518 -0.24504022 -0.17424816 -0.06353915 -0.28027144
-0.12478591 -0.33165747 -0.014765727 -0.32777902 -0.3082437 -0.01907119 -0.18445916 -0.24267726
-0.112081595 -0.17787908 -0.28718802 -0.04156508 -0.1395435 -0.05277644 -0.27337778 -0.3727066

bias_hh_l1 f4 [128]
00000000: fc39 523e bfd1 31be 2bc6 1e3c 8082 27be
00000010: 79ad 55be a2f1 8cbe 484f 41be 6db9 a3bd
00000020: 4b77 9cbe f785 81be 531d b1be 71a0 c9bd
00000030: 4c17 33be 98d4 3dbe b80f 30be b5a0 81be
00000040: 68c1 29be 1996 c9bd 1628 58be d9e6 b4be
00000050: 8670 6abe fe90 bbbe fbc1 acbd 694c b3be
00000060: 06f7 113d df5a afbe e028 04be 38c3 01be
00000070: f848 bcbe 5c8e 35be 8d60 a6be 18bc c8be
00000080: dd10 b03d 957e 68be ec94 4dbe 0756 bfbb
00000090: 9fd0 5c3d ff56 13bd 5abb 64be d3ad 2ebe
000000a0: d549 e5be edbd c5be 6d6a acbe 0d7f 6ebe
000000b0: 9fd8 a0be 8339 e7be d972 62be 639d 23be
000000c0: 3563 8bbe 1a94 82be 89a9 5fbe 48a6 50bd
000000d0: 1a8f 9ebe a254 63bc 5fd5 10bc ded2 5fbe
000000e0: 85a1 acbc 402a 26be d814 08be c197 8fbd
000000f0: 0a99 55be daf9 adbd 3b75 c7be 5c60 eabd
00000100: 1ff1 79be 421a 4ebe 35c9 a93d 660f 7f39
00000110: f6c0 41be 2af8 cdbd 1a36 3b3e 381a 23be
00000120: 611a 4abe 122d 3ebd 0c07 48bd 6732 e93d
00000130: 9765 20be 99d5 b03a d650 c8bd afb3 543c
00000140: 7f94 38bd 8ace 073e 7e61 57bd 0d56 283e
00000150: 666a f6bd 5668 9d3d 5390 b23d 6861 633d
00000160: 7ef3 293e d682 273d 3643 193d 5a7e 00be
00000170: 857c ca3d 904b 25bd 3542 e639 c664 0fbe
00000180: 1796 203e f3e7 b43c dca1 34be ade5 83be
00000190: 6aa9 f93c 12f6 91be 649a 8ebe f02c 4bbe
000001a0: d6f0 e7be a24c 80be 952b cebe 1e46 6dbe
000001b0: 0a65 bfbe 9d4a f5be a718 2ebe 4ad2 52be
000001c0: cfd7 0dbe bdcb b5be b4a0 9ebe 3cac 7fbe
000001d0: afb7 55be 9865 89be cbb8 ef3c f149 20be
000001e0: ccb2 edbd ebea 81bd 8849 a5bd ea30 1abc
000001f0: 94c4 92be 33c3 01bd 782d 97be f9ee 72be
0.20529932 -0.17365168 0.009690802 -0.16358376 -0.20866956 -0.275281 -0.188779 -0.079943515
-0.30559763 -0.2529752 -0.34592685 -0.09845055 -0.17489356 -0.1853813 -0.17193496 -0.25317922
-0.16577685 -0.09843082 -0.21109042 -0.35332373 -0.22894487 -0.36634058 -0.08435436 -0.35019234
0.03563597 -0.34249017 -0.12906218 -0.12672126 -0.3677442 -0.17730087 -0.32495537 -0.39206004
0.085969664 -0.22704537 -0.2007634 -0.0058391127 0.053909894 -0.035971638 -0.22337094 -0.17058496
-0.44782892 -0.38621464 -0.33674946 -0.23290654 -0.3141527 -0.45161065 -0.22114123 -0.15978007
-0.27224126 -0.25503618 -0.21842016 -0.05093983 -0.30968553 -0.0138751585 -0.008839934 -0.21857783
-0.021073112 -0.16227055 -0.13289201 -0.07011367 -0.20859161 -0.08494921 -0.38956627 -0.1144416
-0.24408387 -0.20127204 0.0829033 0.00024324431 -0.18921265 -0.10057099 0.18282357 -0.1592797
-0.19736625 -0.0464297 -0.048834845 0.113865666 -0.15663753 0.0013491391 -0.09781043 0.012982293
-0.045063492 0.13262382 -0.05258321 0.16439076 -0.12032013 0.07685916 0.08718934 0.055512816
0.16596791 0.04089626 0.037417613 -0.125482 0.098870315 -0.040355265 0.00043918347 -0.14003286
0.15682255 0.022083258 -0.1763987 -0.25761166 0.03047629 -0.2850805 -0.27852166 -0.19841361
-0.4530093 -0.25058466 -0.40267625 -0.23171279 -0.37381774 -0.47908488 -0.17001592 -0.20588031
-0.13851856 -0.35507002 -0.30981982 -0.24968046 -0.20870851 -0.26835322 0.02926292 -0.15653206
-0.116063684 -0.06343635 -0.080706656 -0.009411076 -0.28665602 -0.031680297 -0.29526877 -0.23723973

weight_ih_l2 f4 [128, 32]
00000000: bf62 3a3f 683b 863e 7d5b 2f3e 2d62 1dbe
00000010: c6ff 203e 7442 033e 5f68 3c3d f53a 173e
00000020: 6ecd c63d d0f8 95bd 1507 8b3c e2e7 67be
00000030: 68be fc3d 18ef cf3e 1d69 e6be 1ae9 c33d
00000040: d535 773e e06e 42be 8d17 0d3d b657 c6bd
00000050: 4d42 023e 5994 513d 1091 72be 071b b5bd
00000060: 5178 77be 09fc b23c 0705 57bd 31d6 283e
00000070: efc7 743d 991a f4bd 876c ee3d 2565 893d
00000080: b074 323f d410 d73e da7d 263e d8fd dcbe
00000090: 8c56 083f 219b b03d 2ad4 1ebc 827c d43d
000000a0: 007f 353e 54e6 fdbd dbc8 ccbd 62f6 95be
000000b0: 7c69 b13e 8172 063f d66b c3be 91f0 9d3d
000000c0: 5780 38bd 148d 8d3d 16c6 6ebe 05e2 6ebe
000000d0: ed51 893e 98e7 8abe 89c5 2dbe 4339 01be
000000e0: 1704 7bbe 8c8f f63b 5849 92bc 9591 3d3e
000000f0: 9fa7 433e 6839 37bc 0c65 5ebe 1b4b e03c
00000100: 465f eb3e 017c d23e de8f 043e 25eb 5cbe
00000110: 0762 e33e 69b6 4f3c 4f12 893e 9f78 903e
00000120: 0586 173e 6bc3 bfbe 6dc8 893d a698 a9be
00000130: 4299 033f 627a 2e3e caf6 15be 9371 a4bc
00000140: 716b 3b3e 6521 e4be e247 eebd de4e cebe
00000150: 32dc 8e3e d559 eebd 455d bfbc 9887 c0bc
00000160: 6b7d 6bbe 9037 953e 1d64 5abb 1da7 f13e
00000170: a18d 1a3e 6e89 f33d e6e5 163e f77a 23be
00000180: 5758 863f 180d c73e 6db8 453e ef72 a8be
00000190: ae56 dd3e d5ea dc3d 5daa 643c 2cc2 d33e
000001a0: 85ab bf3e 355d 08bd d2e9 5a3d da21 a0be
000001b0: bc83 543f c3db 003f af33 20bf 66ec 9ebd
000001c0: 2d68 a63e 7edf 9dbd 533f 4bbe 32a3 c2be
000001d0: b866 b53e eb98 8bbe cb4e c4bd 977c 433e
000001e0: ec58 2bbf 0b46 423d 671b 28bc e926 b43e
000001f0: 1e3d 8d3e e7b4 abbd 598a d6bd 2bb3 193e
00000200: 5622 813f 2c0c df3e 719f bd3e 9741 0fbc
00000210: cd27 cd3e 3f0d 94be ae8e a3bd 3803 c53e
00000220: bec0 9b3e 61cd a8be 583b 583e 3a30 e1bd
00000230: 22c1 3a3f 2be1 0b3f d493 30bf 7f78 07be
00000240: a7d5 8f3e 1224 5e3d 3b5d 7cbe fc64 e5be
00000250: 302e 3c3e db08 1dbe dad1 e5be 4eb0 9d3d
00000260: aa28 15bf f3aa 6d3e 3045 d8bd 4831 933e
00000270: 7b48 6b3d 329a d93c 7335 e23d 72af bf3d
00000280: 84fb f03e 71d7 753d 614a 84bd a536 d63c
00000290: f1ff 603e 319b 503d 4f2f 6f3e 70bc e33d
000002a0: 7306 20bd f501 a0be e21c a13e 20c7 3ebe
000002b0: 1d98 c43e 75f0 0f3e bd89 eebd ec4e db3d
000002c0: 52ca c73d 8493 83be a56b 65be 5fa3 b8be
000002d0: 6b5e 333d 4929 893e 9229 2b3c 024e 93be
000002e0: 8a66 b6be 29fb 053d 85ec 3e3e 64d3 a83e
000002f0: ec56 02be ae58 263e 0676 dabc 1ffe bf3c
00000300: ac78 033f 3d4e e23e 15f4 d1bb 76b3 8d3d
00000310: bcf3 b73e 9956 65be e120 7b3d 7108 dc3e
00000320: 5432 173d 3c2e 6ebe d082 12bd d164 27be
00000330: 5dc8 c13e 8f2b a53e 76b5 dabe d395 4e3e
00000340: d945 353e 34db 7abe 1d1b d0be 927f aebe
00000350: 0196 3e3e 4c2d 663e 99dc aebe f534 f73d
00000360: d16f bcbd 6442 bdbd 9b78 39bd 7ca5 a03e
00000370: 2bca b9bc 748a 9b3d e300 843e e2cc dd3d
00000380: bec1 8e3f c6e3 043e 2904 353e ffdd 9abe
00000390: 35c0 c53e acaf a83d a65c be3a b1ec 0c3f
000003a0: 803f b43e c3b5 1d3d d4f4 1cbe 3b56 25bd
000003b0: f26b ff3e 1492 0c3f 5d00 07bf 7a9c 5abe
000003c0: 767c 0e3e 68a4 33be 9531 32be 8b2d d4be
000003d0: ed44 933e cbb4 23be 9b1d be3c 1f9e cabd
000003e0: a863 b9be 8a66 053e 7418 dbbc c7de 8f3e
000003f0: 248d b63d 03fd a4bd 116c 10be a071 1f3d
0.72806925 0.26217198 0.17124744 -0.15369482 0.1572257 0.12818319 0.045997974 0.14768584
0.09707151 -0.07322848 0.01697115 -0.2264705 0.123410046 0.40612102 -0.4500207 0.09565945
0.24141629 -0.18987608 0.034446288 -0.09684698 0.12720604 0.051166866 -0.2368815 -0.08843046
-0.24166991 0.021848695 -0.05249503 0.16487958 0.059760984 -0.119191356 0.11641794 0.06708745
0.697093 0.42005026 0.16258946 -0.43162417 0.5325706 0.086233385 -0.009694139 0.103753105
0.17724228 -0.12397447 -0.09999248 -0.29289538 0.3465079 0.5251847 -0.3816821 0.077119
-0.04504427 0.06911674 -0.23317751 -0.23328407 0.26820317 -0.27129817 -0.16969885 -0.126195
-0.24513279 0.0075244363 -0.017857239 0.18512566 0.19106911 -0.01118312 -0.21718234 0.027379563
0.45971125 0.41110232 0.12945506 -0.21574076 0.44410726 0.012677767 0.2677178 0.28217027
0.14797218 -0.3745378 0.06727681 -0.33124274 0.5140573 0.17038873 -0.14644924 -0.020073688
0.18302704 -0.44556728 -0.11634804 -0.40294546 0.2790237 -0.11638228 -0.023359904 -0.023502156
-0.22997062 0.29143953 -0.0033323832 0.4719781 0.1509309 0.11891447 0.14736137 -0.15964876
1.0495709 0.38877177 0.19308634 -0.32900187 0.43230194 0.10786978 0.013956633 0.4135908
0.37435547 -0.033292014 0.053445645 -0.31275827 0.8301351 0.5033533 -0.6257886 -0.07759933
0.32501355 -0.077086434 -0.19848375 -0.38015133 0.3542993 -0.27265105 -0.09585341 0.19090496
-0.6693256 0.04743008 -0.0102604395 0.35185936 0.2758569 -0.08384114 -0.104756065 0.15009753
1.0088603 0.43563974 0.37035707 -0.008743665 0.40069428 -0.28916356 -0.07986198 0.38479018
0.30420488 -0.32969192 0.21116388 -0.109955266 0.7295095 0.54640454 -0.6897557 -0.1322956
0.2809269 0.054233618 -0.2464494 -0.44803607 0.18376994 -0.1533541 -0.44886667 0.07699643
-0.58265173 0.23209743 -0.105600715 0.28748536 0.05744217 0.026562784 0.11045351 0.093596354
0.4706689 0.060019914 -0.06459499 0.026149103 0.21972634 0.050929252 0.2335789 0.11119926
-0.03906865 -0.31251493 0.31467348 -0.18630648 0.38397303 0.14056571 -0.11647365 0.107084125
0.097553864 -0.25698483 -0.22404344 -0.36062142 0.043791216 0.2678931 0.010446923 -0.28770453
-0.35625106 0.032710228 0.18644913 0.32973778 -0.1272847 0.16244766 -0.026667606 0.023436604
0.51356006 0.44200316 -0.0064072707 0.06918995 0.35928142 -0.22396316 0.061310653 0.4297519
0.03691323 -0.23259825 -0.035769284 -0.16347052 0.37848178 0.32259795 -0.4271657 0.20174341
0.17702426 -0.24497682 -0.40645686 -0.34081703 0.1861191 0.22478217 -0.34152678 0.120706476
-0.09201015 -0.09241179 -0.045281034 0.31376255 -0.022679409 0.07594767 0.25781927 0.10830094
1.1152875 0.12977514 0.17677368 -0.30247495 0.38623205 0.08236632 0.0014523461 0.5504866
0.35204697 0.03850342 -0.1532777 -0.04036544 0.49887043 0.549104 -0.5273493 -0.21348754
0.13914666 -0.17543185 -0.17401727 -0.41440997 0.28763524 -0.15986936 0.023207476 -0.098934405
-0.36208844 0.13027397 -0.026745059 0.28099653 0.08913639 -0.08056071 -0.14103724 0.03892672

weight_hh_l2 f4 [128, 32]
00000000: 41b1 f7bd 0383 12bd f6d9 41be 7d20 15be
00000010: 60f1 93bd ef28 6abe f882 343e e776 a53d
00000020: b338 883d a358 c9bc 3b09 45bd 3354 27be
00000030: ff1b 4ebe 1e35 28be 4cb4 0ebe 5585 b53e
00000040: a750 6f3d ca6f 30bc 7009 2f3d 5ec5 7abe
00000050: 5165 c43d b450 89bb 63af 143d bf95 8cbe
00000060: d9b8 c63d e39a f0bd 1770 4d3d 1ec7 77be
00000070: 021a 183d 7898 47bb b7aa 9d3d da28 693d
00000080: e853 1ebd 32e2 9dbe 7083 693e 76fc 1c3e
00000090: 32d2 afbd 3cf6 a3be 117e babd 4728 34be
000000a0: b9db 383b 5287 ed3c f0e0 363e a33a 2abd
000000b0: d9fb 8cbe a3f5 96bd 1b45 02be abfd 123e
000000c0: 163b 843d ac15 d2bd 5bc6 813e 0135 b2bd
000000d0: 5c00 ba3d b8f1 8bbd 546f 853e b15c 87be
000000e0: a634 e53d 99d5 94be 9a0e 113e 4937 a6be
000000f0: 91b9 a3bd 77c6 7c3d 9c72 d9bd b027 c7bd
00000100: 10e0 99be 4c47 d9bd 38b4 5fbb 6a08 043c
00000110: ebbf 853d da57 1e3e 3ea5 c2bd 2038 9cbe
00000120: 4355 cfbe 47ed b9be 50b8 f8bd 2796 87be
00000130: b58d b6be 825d f0bd fb3d dc3d 25da bb3e
00000140: 3154 0cbe 6a3e 30be a382 4b3e 6ed8 e1bd
00000150: e6f5 c73e 0919 febd 1074 f3bc 7137 fd3d
00000160: ba9f 4a3d bd0e 43be 505f e1bd 9b5c 7ebe
00000170: 8210 213d 4582 5abe 5663 2b3e 7023 a5bc
00000180: 0b00 0dbe 0ca3 d63c ecf0 1fbe cc66 b93c
00000190: 3115 f3bd f120 63bd ae97 99bc 33c1 4abe
000001a0: 315c acbd e3c3 97bd 2f57 2d3e 5e41 cebc
000001b0: 74cb 14be 86a3 cb3c 0f70 97be 2c01 893d
000001c0: 90ed 393d d692 683e f25d 80bd 3808 aebd
000001d0: 3058 433e c1ca d9bd 1969 313e 2e4e f6bd
000001e0: 585f a53d 944e 9cbd 81c4 ae3e 35e6 03be
000001f0: e24d a63d b1ae 743e ac76 24be 65fe d43c
00000200: 007c 00be ba81 3fbe 5643 5c3d 553d 023e
00000210: fb5e 77be 4929 96be 3c22 f9bd c91e 083c
00000220: 297a 6bbe 1c2f 6bbe 83d4 a73c ffeb 98be
00000230: 8be4 46be 03fd 4cbe 8467 91be f22b 8e3c
00000240: 2764 943e fb8e 06be b73e 3e3e 580a 95be
00000250: e220 2b3e ef82 1bbc 64fa 463e 6856 923d
00000260: 8c51 17be fdf7 90bd 572a a73d 8eba 1fbe
00000270: b70b cebd 39fa 153e 4a79 b13d 6354 883d
00000280: bfa7 4dbe d2eb 75be 8f2d 043c c5a1 3d3c
00000290: 5f0a 3bbe ccb7 a5bd 8244 14be c248 a5bc
000002a0: 8ac5 81be 9e94 60be f579 7cbe c55b 603c
000002b0: 016e 12be a3e3 a1bc c634 60be 7bcf ed3e
000002c0: 8e6e cd3d 43aa 17bd e5a9 963b 2dd2 bc3d
000002d0: 7763 853e 954f 75bd b18e 28be 5c5e a2be
000002e0: d26a ea3b 165e f03d e71f b7bd 7b87 38be
000002f0: 9f80 4d3e cf2f 8bbd ac5f 963d a526 8439
00000300: 51ac 52bd 9d10 d43c a234 2a3d 2cb1 343e
00000310: b2a3 1abe 861b f1bd 3b04 b0be 34f3 fcbd
00000320: 89e6 bebe ca4c c7be a863 de3d cfeb 9cbe
00000330: fc88 3cbe 86a3 6fbe fd0d 94be ab56 263e
00000340: 7d82 95bd c351 6ebe fdb9 f03d d9bf c3be
00000350: 6b98 093e 5211 79be 0737 51bd b72a 04be
00000360: 6e14 c93d f2c4 5fbe 10a7 89be 0545 b6be
00000370: ce48 e43d 983b 47be 36f0 b93d 868b bcbc
00000380: 7b4d b2bd 201e 44be ad14 96ba 3a18 0abd
00000390: 506b 443c fe70 73be 9613 6ebb bf05 31be
000003a0: baab 9fbe 63f7 a13d a2c8 f3bd 2a18 75be
000003b0: 7b90 39be 8695 3abe 0dd3 bdbe 6243 9a3e
000003c0: 386c 823d d58e a4bd 5365 603e 6c1f a0be
000003d0: 32c3 903e f6c0 d7bd 3263 1abc c21b 3ebe
000003e0: 830c 163e 7cce 7dbe 1ed6 fcbd 023d 13be
000003f0: 8cfd 0bbe b656 61bd 9555 25bd 6831 cd3d
-0.120943554 -0.035769474 -0.18930802 -0.14563175 -0.07223773 -0.22867177 0.17628086 0.080793194
0.066514395 -0.024578398 -0.048104506 -0.16340713 -0.20127867 -0.16426513 -0.13935965 0.35453287
0.058426525 -0.01076884 0.04273361 -0.24489352 0.09589637 -0.0041905288 0.036300074 -0.27457997
0.09703226 -0.11748292 0.050155725 -0.24197051 0.037134178 -0.0030455869 0.07698577 0.056923725
-0.038654238 -0.30836636 0.22804046 0.15330681 -0.085850134 -0.320238 -0.091060765 -0.1759349
0.0028207137 0.02899519 0.17859244 -0.041559827 -0.27535895 -0.0737107 -0.12721674 0.14354579
0.06456582 -0.1025804 0.25346646 -0.08701516 0.090821 -0.068332136 0.260615 -0.26437905
0.111916825 -0.29069212 0.14165726 -0.32464054 -0.07994378 0.06171271 -0.10617563 -0.09724367
-0.3005376 -0.10609302 -0.0034134518 0.008058647 0.06530746 0.154632 -0.09504174 -0.3051157
-0.40494737 -0.3631384 -0.1214453 -0.26481745 -0.3565499 -0.11736585 0.10754009 0.3668987
-0.13703991 -0.17211309 0.19874053 -0.11027609 0.39054793 -0.12407119 -0.029718429 0.1236409
0.049468733 -0.19048591 -0.110045075 -0.24840014 0.039322384 -0.21338756 0.16737112 -0.0201585
-0.13769548 0.026200794 -0.15619248 0.022632025 -0.11869276 -0.055451337 -0.018749084 -0.19800262
-0.084160216 -0.07410409 0.16927789 -0.025177654 -0.14530736 0.024858247 -0.2957768 0.06689677
0.045392573 0.22712263 -0.06267919 -0.08497661 0.1907661 -0.10634375 0.17325248 -0.1202663
0.08074826 -0.07632175 0.34134296 -0.12880786 0.08120324 0.23894764 -0.16060895 0.026000211
-0.12547302 -0.1870183 0.053775154 0.12718709 -0.24157326 -0.29328373 -0.12164733 0.008308121
-0.22995819 -0.2296719 0.020487076 -0.2986755 -0.1942312 -0.20018391 -0.2839929 0.01735494
0.2898266 -0.1314048 0.18578611 -0.29109454 0.16711763 -0.009491666 0.19431454 0.07145387
-0.14777201 -0.0707855 0.081623726 -0.15598509 -0.10060828 0.14646234 0.08665712 0.066567205
-0.20083521 -0.2401574 0.008067503 0.011574213 -0.18265675 -0.08091697 -0.14479259 -0.020176295
-0.25346023 -0.21931693 -0.24655898 0.013693755 -0.14299776 -0.019761866 -0.21895131 0.46447358
0.10030852 -0.03702761 0.0045978897 0.09219775 0.26052448 -0.05989035 -0.16460682 -0.31712615
0.0071538473 0.117366955 -0.08941632 -0.18020432 0.20068596 -0.06796228 0.07342467 0.00025205794
-0.051433865 0.025886828 0.0415541 0.1764571 -0.15101507 -0.11772828 -0.34378228 -0.12351075
-0.3728526 -0.38925773 0.10858852 -0.30648658 -0.1841163 -0.23402223 -0.28916922 0.16243999
-0.07300279 -0.23273377 0.117542244 -0.38232306 0.13437049 -0.24323013 -0.05107787 -0.1290692
0.0981835 -0.21852472 -0.2688527 -0.35599533 0.11146699 -0.19456327 0.0907902 -0.023015749
-0.087061845 -0.19152117 -0.0011450254 -0.03371451 0.011988476 -0.23773572 -0.0036327592 -0.17287348
-0.31185704 0.079085134 -0.11903502 -0.23934999 -0.18121521 -0.18221101 -0.3707508 0.30129534
0.06368297 -0.080350555 0.21913652 -0.31273973 0.28273922 -0.10534851 -0.009423064 -0.18565276
0.1465321 -0.24785799 -0.12345527 -0.14378741 -0.13670939 -0.055014335 -0.04036482 0.10019189
