models/UCF101_lstm_angles_model.pth (torch, 184727 bytes, 42 tensors)

weight_ih_l0 f4 [96, 16]
0.059283912 0.1954968 0.16828656 -0.15684117 -0.025734425 -0.1646011 -0.10497954 -0.1857765
-0.033398718 0.056052566 -0.1093109 -0.17350286 -0.14746061 -0.1058089 -0.10107664 0.09617925
-0.1672191 -0.17876658 0.09194583 -0.16874267 0.11704433 -0.038625747 -0.13229717 0.055797398
-0.054655075 0.11163318 -0.107682236 0.060798287 0.19849089 0.031532153 -0.04830651 0.15022504
-0.09767421 -0.12996018 0.19954789 -0.032919377 -0.17203367 0.13434196 -0.03048943 0.058515906
-0.061603084 0.17665547 -0.12002158 0.18119052 0.18082267 0.14399442 0.050228357 0.101834506
0.06788716 0.0695667 -0.13447985 -0.09537591 -0.050940394 0.027458355 0.05670309 0.12732103
0.06360665 0.16304731 0.040895164 0.1241259 0.18904528 0.14720878 -0.109443665 -0.06269416
0.060142547 -0.14172818 0.04181315 -0.0420838 -0.07788052 -0.07454637 -0.184427 0.10198957
0.12904459 0.18300617 -0.024538547 -0.0075768977 0.1957339 -0.11944974 0.04477857 0.10388255
-0.17928681 0.010516986 0.1566338 -0.17686397 0.13650936 -0.13560718 -0.067916155 0.14356196
-0.16647738 -0.047962293 0.09607768 0.14511335 -0.17523098 0.1907635 0.08261916 0.028314501
0.12891924 0.05276686 0.10769898 0.06415072 0.06846598 -0.1784612 0.17580771 0.20373994
0.09121132 -0.08217794 0.15453601 0.103940666 0.08177853 -0.0013081133 0.0973286 -0.10371262
-0.008015692 -0.026616737 0.07729602 0.16010186 -0.006708741 -0.030528054 0.044372886 -0.096088864
-0.07182017 0.034928292 0.04540643 -0.18100555 -0.016633376 0.10014507 0.056570858 -0.120076604
-0.046068445 0.044773147 -0.049599692 -0.033699512 0.05259809 0.16398129 0.11179313 0.13635516
-0.0052927583 0.12539166 -0.120398216 -0.00032538176 -0.014772326 -0.18830365 0.13921687 0.14493698
0.10576624 0.025460213 -0.05935441 -0.052057013 0.19322312 0.1992397 -0.17784719 -0.122888215
-0.12406944 0.13979593 0.10747549 -0.19534221 -0.18844986 -0.19849129 -0.15254463 0.09789565
-0.18453416 0.17911103 0.013306066 -0.060868368 -0.1372191 0.14630312 -0.09467832 0.08109841
0.023134023 0.025099128 0.04545015 -0.051425412 0.09357607 -0.14858139 -0.15478617 0.12579376
-0.1998216 0.046936512 -0.15739758 -0.086027496 -0.10989515 -0.03711024 -0.18447351 -0.10423411
0.2025558 0.0140033215 -0.15092048 -0.0749339 -0.19520262 0.061891794 0.051190406 0.07109916
0.11700544 -0.1461049 -0.08849345 0.06332523 0.02359885 0.18320468 0.19106486 0.11711803
-0.10481792 0.037124246 0.0034593046 -0.15153795 0.0108771175 0.15528679 0.072014004 0.13433933
-0.08343316 0.03560452 -0.18880138 0.046677083 0.19307077 -0.1050878 0.1764834 -0.20301668
-0.11621848 0.06407353 -0.031275302 0.08595231 0.011276647 -0.13046822 0.012137309 0.04436566
-0.08386386 -0.07449123 0.19169939 0.076140136 0.13217661 0.19330755 -0.19179097 0.11399755
-0.16442226 -0.043875173 -0.023311809 0.19515058 0.13323209 0.064904004 -0.11048738 -0.020171657
-0.12969565 0.0011566877 0.059189826 0.09193641 -0.10939522 -0.04367824 0.07216415 -0.109143294
0.10779852 0.12422529 0.20376167 -0.15895079 -0.07544218 -0.02087295 0.180008 -0.1167992
00000000: b0d3 723d 5030 483e 5053 2c3e f99a 20be
00000010: 00d1 d2bc 318d 28be 83ff d6bd 323c 3ebe
00000020: 18cd 08bd 6097 653d 65de dfbd bcaa 31be
00000030: eaff 16be 56b2 d8bd 4501 cfbd a0f9 c43d
00000040: 7c3b 2bbe 960e 37be 184e bc3d e1ca 2cbe
00000050: f0b4 ef3d 0836 1ebd e978 07be d08b 643d
00000060: 00de 5fbd f09f e43d 8188 dcbd a007 793d
00000070: 3241 4b3e dc27 013d 0cdd 45bd 98d4 193e
00000080: 6b09 c8bd 4814 05be 4856 4c3e 78d6 06bd
00000090: 9829 30be f090 093e f8c4 f9bc 60ae 6f3d
000000a0: 8453 7cbd 2ce5 343e e0cd f5bd 028a 393e
000000b0: 9429 393e 4673 133e 40bc 4d3d 9c8e d03d
000000c0: 6c08 8b3d fc78 8e3d 16b5 09be 7254 c3bd
000000d0: e0a6 50bd 58f0 e03c 8041 683d 7260 023e
000000e0: 3444 823d e0f5 263e b081 273d b835 fe3d
000000f0: 1695 413e e6bd 163e 0024 e0bd cc65 80bd
00000100: 0858 763d 3121 11be 4444 2b3d 1060 2cbd
00000110: d27f 9fbd c4ab 98bd 6eda 3cbe e8df d03d
00000120: 4424 043e f865 3b3e 1005 c9bc a047 f8bb
00000130: 786e 483e 11a2 f4bd bc69 373d 60c0 d43d
00000140: f696 37be 704f 2c3c 9c64 203e d41b 35be
00000150: 1cc9 0b3e 9cdc 0abe a017 8bbd e801 133e
00000160: 0c79 2abe 1c74 44bd 60c4 c43d 9898 143e
00000170: c06f 33be 8257 433e 3c34 a93d d0f3 e73c
00000180: 6803 043e 1022 583d 4891 dc3d 7461 833d
00000190: e437 8c3d 88be 36be f006 343e 34a1 503e
000001a0: 00cd ba3d e84c a8bd b03e 1e3e d8de d43d
000001b0: 807b a73d 0075 abba 3854 c73d 4867 d4bd
000001c0: 4054 03bc 580b dabc 604d 9e3d bef1 233e
000001d0: 00d5 dbbb f815 fabc 58c0 353d 3dca c4bd
000001e0: 7416 93bd f810 0f3d 18fc 393d 8559 39be
000001f0: b842 88bc dc18 cd3d d8b6 673d b9ea f5bd
00000200: 44b2 3cbd 0c64 373d 0c29 4bbd 8008 0abd
00000210: 1871 573d b6ea 273e ccf3 e43d b0a0 0b3e
00000220: e06e adbb ac66 003e 5793 f6bd 0098 aab9
00000230: a007 72bc acd2 40be de8e 0e3e 5c6a 143e
00000240: f89b d83d f091 d03c 9c1d 73bd bc39 55bd
00000250: 48dc 453e 7e05 4c3e 931d 36be d1ac fbbd
00000260: 1e18 febd aa26 0f3e 1c1c dc3d ca07 48be
00000270: 00f9 40be 4d41 4bbe a934 1cbe 847d c83d
00000280: 86f6 3cbe e268 373e b001 5a3c 1c51 79bd
00000290: 2a83 0cbe 7cd0 153e b5e6 c1bd ec16 a63d
000002a0: 9083 bd3c b09c cd3c f029 3a3d 74a3 52bd
000002b0: d0a4 bf3d b825 18be 4480 1ebe 14d0 003e
000002c0: 099e 4cbe 8040 403d d52c 21be 2f2f b0bd
000002d0: b510 e1bd e800 18bd a0e6 3cbe b178 d5bd
000002e0: ca6a 4f3e 306e 653c e68a 1abe f276 99bd
000002f0: 32e3 47be 4082 7d3d 08ad 513d 709c 913d
00000300: 8ca0 ef3d 869c 15be 0e3c b5bd a8b0 813d
00000310: 6052 c13c 029a 3b3e 82a6 433e 94db ef3d
00000320: c7aa d6bd 980f 183d 80b5 623b c42c 1bbe
00000330: f035 323c 8003 1f3e 147c 933d 4090 093e
00000340: 01df aabd 0cd6 113d 2655 41be 7830 3f3d
00000350: 58b4 453e 4638 d7bd 10b8 343e 9be3 4fbe
00000360: f403 eebd fc38 833d 881a 00bd c407 b03d
00000370: b0c1 383c 7699 05be 90db 463c c4b8 353d
00000380: d1c0 abbd dc8e 98bd d84c 443e 5cef 9b3d
00000390: 4e59 073e 6af2 453e da64 44be 8c77 e93d
000003a0: 4f5e 28be 74b6 33bd 68f8 bebc 8ed5 473e
000003b0: fe6d 083e 64ec 843d 3547 e2bd 083f a5bc
000003c0: f0ce 04be 009c 973a 0871 723d 2849 bc3d
000003d0: 9a0a e0bd f4e7 32bd ccca 933d 8586 dfbd
000003e0: 78c5 dc3d d469 fe3d e6a6 503e ffc3 22be
000003f0: 6e81 9abd c0fd aabc 0454 383e 6b34 efbd

weight_hh_l0 f4 [96, 24]
-0.052047465 -0.10690277 0.15231799 0.12785855 -0.015307243 -0.029425627 0.0019851984 0.27600342
-0.03053576 -0.0678013 0.1454714 0.15153454 -0.13572052 0.1682238 -0.03516615 0.14245212
0.22826667 0.044278454 0.18480116 0.004341764 -0.0019863097 -0.0036032794 -0.008752899 0.15206043
0.0063834176 -0.043656617 -0.07230894 0.15684806 0.16225362 -0.16901809 -0.11633922 0.2079892
0.0047840877 -0.06655599 -0.12163955 0.00441896 0.1174307 0.14183612 -0.14275867 -0.071131885
0.21661067 -0.09823303 0.08778963 -0.032885525 0.12403214 -0.07639301 0.0542003 -0.08226555
0.16252595 0.18149379 -0.060650494 0.060274553 -0.32634875 -0.06913842 -0.052662544 0.27658534
-0.17987774 -0.22488144 0.04413219 -0.3379401 -0.0035051885 0.09353877 0.028496709 -0.11176497
0.04359896 -0.2269028 -0.011368504 0.13077992 0.25774863 -0.23622441 0.044458397 0.109706245
0.21458271 0.3620637 0.15226437 0.13427255 -0.25666532 -0.35363162 -0.44261828 0.040880598
0.037852004 -0.047939736 -0.05162372 -0.15099464 -0.38348177 0.23529923 0.07325127 -0.28647444
-0.052622326 0.1817312 0.2079637 0.2739914 0.17976205 0.004525462 -0.1562271 0.37489438
0.19192521 -0.016034935 0.1465011 -0.13613652 -0.09053267 -0.20792928 -0.1288132 0.07776605
0.15977278 0.03008967 -0.08810302 -0.14587559 0.0037311388 0.035226762 -0.031191552 -0.03872104
0.35211664 -0.016216418 0.18123542 0.27197143 -0.09822219 0.06481982 -0.27465612 0.14357592
0.087859206 0.21124122 0.055430554 0.13730276 -0.059300434 -0.31546485 -0.23142701 0.24226192
-0.04226516 -0.17776483 -0.11148168 -0.19957362 -0.21163645 -0.039055213 -0.16481923 0.16117847
0.0661732 0.078985095 -0.055500295 0.07896801 0.070561446 -0.016756548 -0.0066156485 0.13232678
-0.14180988 -0.058151968 -0.015096996 -0.10774791 0.13703024 0.073012486 -0.17599303 0.1859157
-0.1106882 0.029118422 0.01739515 -0.03329039 -0.10185836 0.068319865 -0.12602998 0.05599615
0.117254354 0.015617821 -0.23397264 -0.07566948 -0.1796451 -0.06839084 -0.016384589 0.09991764
0.07345118 0.12207258 -0.06742085 -0.036655217 0.028322192 -0.11781052 -0.14240019 0.23492241
-0.17731616 0.041678008 0.020538269 0.16903642 -0.12247057 0.010339883 0.026625177 -0.1056569
-0.06415631 -0.06404066 -0.06661412 0.23338693 -0.19628513 -0.013747776 0.019963907 0.07290185
0.21081105 0.23218396 0.22050111 -0.18023378 0.11325735 -0.16917521 -0.10073044 0.02446144
0.087838195 0.11108266 0.021485504 0.08956858 -0.18227662 -0.118333094 0.0017485551 -0.20305915
0.0952558 0.02234309 0.16942102 0.15873693 -0.05364471 0.00069923943 -0.06394314 0.18447348
0.19891791 0.17775431 -0.004442443 -0.15148795 -0.28514832 -0.3753261 -0.045239303 0.38566905
0.059233572 -0.05062795 -0.09286775 -0.1986424 0.018407268 0.07533437 0.119827606 -0.225571
-0.085399516 -0.12713242 0.27688754 0.09019638 0.17576021 -0.0025191212 -0.13178729 0.37350726
0.27357394 0.3354468 0.2397124 -0.105715714 -0.042553872 -0.080198765 -0.006332502 0.20183052
-0.11444852 -0.030717267 -0.064973265 -0.020206178 -0.2578982 0.0727726 -0.14312688 -0.26876417
00000000: b92f 55bd d7ef dabd 3ff9 1b3e 5aed 023e
00000010: 3bcb 7abc 030e f1bc 1a1a 023b 5250 8d3e
00000020: 2126 fabc 68db 8abd 74f6 143e df2b 1b3e
00000030: 52fa 0abe dc42 2c3e 620a 10bd f8de 113e
00000040: bdbe 693e 535d 353d 843c 3d3e 5b45 8e3b
00000050: bf2c 02bb ff24 6cbb 5268 0fbc bbb5 1b3e
00000060: fd2b d13b 48d1 32bd b616 94bd c79c 203e
00000070: d025 263e 1413 2dbe 4243 eebd 1ffb 543e
00000080: d6c3 9c3b 824e 88bd 281e f9bd eccc 903b
00000090: 827f f03d 7d3d 113e 542f 12be 98ad 91bd
000000a0: 30cf 5d3e 662e c9bd 0dcb b33d f9b2 06bd
000000b0: 9004 fe3d f073 9cbd 2201 5e3d d77a a8bd
000000c0: 346d 263e 82d9 393e a76c 78bd 73e2 763d
000000d0: 2f17 a7be 7298 8dbd aeb4 57bd 989c 8d3e
000000e0: df31 38be 5247 66be f5c3 343d 7c06 adbe
000000f0: 4eb7 65bb 4191 bf3d ee71 e93c 08e5 e4bd
00000100: d394 323d 3559 68be f642 3abc 2ceb 053e
00000110: a1f7 833e d0e4 71be 021a 363d abad e03d
00000120: 92bb 5b3e 6a60 b93e 31eb 1b3e be7e 093e
00000130: a369 83be 340f b5be dd9e e2be 6a72 273d
00000140: b40a 1b3d 755c 44bd 6573 53bd 579e 1abe
00000150: b957 c4be 48f2 703e c304 963d c7ac 92be
00000160: 828a 57bd be17 3a3e 70f4 543e 9a48 8c3e
00000170: 8b13 383e 544a 943b fff9 1fbe 28f2 bf3e
00000180: 0b88 443e b25b 83bc 6204 163e 5f67 0bbe
00000190: 3169 b9bd 6aeb 54be 9ce7 03be cf43 9f3d
000001a0: 7a9b 233e 9d7e f63c 5b6f b4bd 6960 15be
000001b0: 1f86 743b f049 103d 6d85 ffbc f499 1ebd
000001c0: a248 b43e 4bd8 84bc c795 393e d73f 8b3e
000001d0: b728 c9bd 41c0 843d ba9f 8cbe 9105 133e
000001e0: 87ef b33d 9e4f 583e 260b 633d 1899 0c3e
000001f0: 03e5 72bd 9c84 a1be 34fb 6cbe 8213 783e
00000200: 3b1e 2dbd fc07 36be 8250 e4bd 075d 4cbe
00000210: 3ab7 58be 5cf8 1fbd 5fc6 28be f80b 253e
00000220: d185 873d f0c2 a13d 4754 63bd fbb9 a13d
00000230: 8582 903d 0745 89bc 15c8 d8bb ac80 073e
00000240: 9c36 11be c230 6ebd 6459 77bc f0aa dcbd
00000250: a851 0c3e 9287 953d 8437 34be af60 3e3e
00000260: 7fb0 e2bd c289 ee3c 4680 8e3c 815b 08bd
00000270: 1e9b d0bd 49eb 8b3d 010e 01be 385c 653d
00000280: 0d23 f03d e4e1 7f3c 8696 6fbe 9af8 9abd
00000290: e3f4 37be 7f10 8cbd f938 86bc 9fa1 cc3d
000002a0: 926d 963d 3001 fa3d f113 8abd c823 16bd
000002b0: f103 e83c a446 f1bd 5bd1 11be 808f 703e
000002c0: 5e92 35be 8fb6 2a3d df3f a83c e217 2d3e
000002d0: dad1 fabd 9d68 293c 0b1d da3c a562 d8bd
000002e0: 6264 83bd c027 83bd fc6c 88bd fcfc 6e3e
000002f0: f8fe 48be 5a3e 61bc 598b a33c 914d 953d
00000300: dade 573e a2c1 6d3e 0bcb 613e 348f 38be
00000310: 78f3 e73d 443c 2dbe c34b cebd 5c63 c83c
00000320: 83e4 b33d 4e7f e33d 5e02 b03c bb6f b73d
00000330: b9a6 3abe 9f58 f2bd c62f e53a bdee 4fbe
00000340: 7915 c33d db08 b73c b47c 2d3e ef8b 223e
00000350: 8eba 5bbd 2a4d 373a 9ff4 82bd 9ee6 3c3e
00000360: 23b1 4b3e 3a05 363e ea91 91bb a81f 1bbe
00000370: f6fe 91be be2a c0be d94c 39bd 6a76 c53e
00000380: e79e 723d 415f 4fbd 7231 bebd ea68 4bbe
00000390: d7ca 963c e848 9a3d 2d68 f53d 16fc 66be
000003a0: f1e5 aebd 002f 02be 34c4 8d3e e1b8 b83d
000003b0: 7cfa 333e d717 25bb 3ff3 06be 583c bf3e
000003c0: e211 8c3e afbf ab3e 2b77 753e 7b81 d8bd
000003d0: f84c 2ebd 403f a4bd e080 cfbb a9ac 4e3e
000003e0: fc63 eabd c7a2 fbbc b410 85bd 6d87 a5bc
000003f0: 3c0b 84be cd09 953d da8f 12be 759b 89be

bias_ih_l0 f4 [96]
-0.015898388 -0.13610318 -0.07897173 -0.43042445 -0.20144439 0.036558505 -0.0399608 0.01567739
-0.12344123 -0.3726862 -0.257799 0.009882373 0.08725654 -0.31283614 -0.37742105 -0.065473855
-0.026259435 0.046699725 -0.35012746 -0.024043946 -0.058482416 -0.078723796 -0.25847772 -0.12187085
-0.06686441 -0.03265139 -0.30657947 -0.23073773 -0.31163067 -0.3008778 0.107099675 -0.042870007
0.0004992895 -0.41306683 -0.030709896 -0.093914784 -0.2580635 -0.013171171 -0.1298555 -0.16336115
-0.14413822 -0.07802448 -0.14379424 -0.12549998 -0.26825118 0.051059242 -0.14146729 -0.09326636
-0.1465912 -0.046909 -0.025094718 -0.15424515 0.021035714 0.10896176 0.0023641342 0.0025688056
0.0054878574 0.057673994 0.037588295 0.07404488 0.17767072 0.022300107 0.07674586 0.12699126
0.10691001 -0.18091616 -0.042810544 -0.13235684 0.19324732 0.06367633 0.1522322 -0.14178854
-0.0040751426 -0.18713763 -0.3675546 -0.19126984 -0.046276007 -0.23479573 -0.092027225 -0.05548981
-0.02164914 -0.2390307 -0.29265526 -0.2755233 0.012819719 -0.09003879 -0.35183778 -0.4164228
-0.037007 -0.047793664 -0.2104514 -0.20074257 -0.22147267 -0.23237818 -0.08942621 -0.3085283
00000000: 563d 82bc a25e 0bbe eebb a1bd 9860 dcbe
00000010: 7047 4ebe 5fbe 153d f0ad 23bd df6d 803c
00000020: c1ce fcbd bad0 bebe 3bfe 83be ade9 213c
00000030: 8fb3 b23d 0f2c a0be 553d c1be 2817 86bd
00000040: 071e d7bc 3648 3f3d e843 b3be cff7 c4bc
00000050: 428b 6fbd f139 a1bd 3157 84be 6d97 f9bd
00000060: 35f0 88bd 77bd 05bd fcf7 9cbe 8346 6cbe
00000070: 0e8e 9fbe a80c 9abe 1357 db3d 7698 2fbd
00000080: c0e2 023a 7f7d d3be 5293 fbbc 6556 c0bd
00000090: e620 84be e5cb 57bc d7f8 04be 2548 27be
000000a0: f898 13be 4ccb 9fbd cc3e 13be 1183 00be
000000b0: 3858 89be 7f23 513d cddc 10be 6f02 bfbd
000000c0: 011c 16be a723 40bd 7093 cdbc 71f2 1dbe
000000d0: 1753 ac3c 5827 df3d 97ef 1a3b 6859 283b
000000e0: 7cd3 b33b 913b 6c3d 2ff6 193d d8a4 973d
000000f0: 50ef 353e b7ae b63c ef2c 9d3d ff09 023e
00000100: a3f3 da3d 1642 39be 1c5a 2fbd 8d88 07be
00000110: a0e2 453e bc68 823d c2e2 1b3e 0431 11be
00000120: c688 85bb 02a1 3fbe 1e30 bcbe 3edc 43be
00000130: e98b 3dbd 4b6e 70be c578 bcbd 4849 63bd
00000140: 8a59 b1bc 77c4 74be e9d6 95be 6411 8dbe
00000150: cc09 523c 4266 b8bd 1524 b4be 5f35 d5be
00000160: a794 17bd 4ac3 43bd 9280 57be 768f 4dbe
00000170: bbc9 62be 8cf4 6dbe 1725 b7bd 6cf7 9dbe

bias_hh_l0 f4 [96]
0.035586506 0.092942 -0.021431388 -0.17442796 0.06327003 -0.30739123 -0.20917061 -0.13777466
-0.016489271 -0.17753205 -0.055729423 -0.1679453 -0.020248517 -0.18511398 -0.26516593 -0.38726404
-0.07196899 -0.31581864 -0.36348656 -0.32120818 -0.31712782 0.08582792 0.090210654 -0.2676899
0.019029045 0.058295127 -0.14253426 -0.32993132 -0.20323999 0.01292407 -0.006462305 -0.21759519
-0.24314988 -0.40399522 0.0029135877 -0.26617944 -0.13267002 -0.003577346 -0.27716076 -0.1724243
-0.01227903 -0.15685004 -0.0763923 0.066537134 0.051015157 -0.10628026 -0.015905423 -0.32680634
0.031220347 0.0025271715 -0.10303802 0.18307288 0.13300723 0.09052901 0.178118 -0.074491955
0.018192988 0.026572952 0.016225986 -0.023103978 -0.15412343 -0.053307425 -0.075522974 -0.10091587
-0.059506435 0.19448446 -0.07795434 -0.1267241 -0.18614732 0.0019102965 -0.047888428 -0.13673909
-0.13767582 -0.1137422 -0.14957291 -0.44247946 -0.30410746 -0.25552228 0.068015516 -0.011863771
-0.11679167 -0.121474795 -0.05508734 -0.30716926 0.12611166 0.028715666 -0.31860006 -0.13168386
-0.20837742 -0.31891915 -0.15021542 -0.009368884 -0.24076863 0.0044440986 0.097196914 -0.026551811
00000000: 28c3 113d 6058 be3d e190 afbc 3e9d 32be
00000010: b893 813d 6262 9dbe d230 56be cd14 0dbe
00000020: 8214 87bc f6ca 35be 8944 64bd daf9 2bbe
00000030: 38e0 a5bc 858e 3dbe d4c3 87be 7947 c6be
00000040: 7a64 93bd fbb2 a1be e91a babe 6675 a4be
00000050: 945e a2be 8cc6 af3d 5dc0 b83d a70e 89be
00000060: cde2 9b3c dfc6 6e3d 80f4 11be c2ec a8be
00000070: 251e 50be 7abf 533c bec1 d3bb 46d1 5ebe
00000080: 48fc 78be 76d8 cebe e4f1 3e3b ac48 88be
00000090: a6da 07be e871 6abb 04e8 8dbe ff8f 30be
000000a0: fc2d 49bc 4c9d 20be 9173 9cbd 9f44 883d
000000b0: 45f5 503d 77a9 d9bd 174c 82bc 2953 a7be
000000c0: d0c1 ff3c e79e 253b 9905 d3bd 7577 3b3e
000000d0: 0c33 083e 4667 b93d 9164 363e 3d8f 98bd
000000e0: 7609 953c 85af d93c 5cec 843c 8e44 bdbc
000000f0: 88d2 1dbe e358 5abd caab 9abd fbac cebd
00000100: 05bd 73bd ef26 473e 86a6 9fbd f6c3 01be
00000110: 679d 3ebe ea62 fa3a a826 44bd 5505 0cbe
00000120: e4fa 0cbe acf1 e8bd a429 19be ab8c e2be
00000130: f9b3 9bbe d1d3 82be b84b 8b3d 4360 42bc
00000140: 7930 efbd c7c7 f8bd 43a3 61bd 4a45 9dbe
00000150: 6a23 013e 1e3d eb3c 8c1f a3be 22d8 06be
00000160: e460 55be 5f49 a3be 12d2 19be f37f 19bc
00000170: 0d8c 76be cd9f 913b 2d0f c73d 2f83 d9bc

weight_ih_l1 f4 [96, 24]
0.26911956 0.18669525 0.17816268 -0.028759236 -0.06737058 -0.4376344 -0.4478246 0.2849987
-0.23528656 -0.09862992 -0.16150345 -0.3428088 0.017749574 -0.074788935 0.048856314 -0.28414863
0.34637862 0.051863734 0.2388278 0.046431497 0.14798401 -0.2963598 -0.06502237 0.1929916
0.1582369 0.25869802 -0.041059114 -0.027870016 -0.026163321 -0.08111834 -0.19492443 0.1703882
-0.26743174 -0.1838376 -0.19120015 -0.2016383 -0.11829736 -0.0054344055 -0.059928644 -0.14449205
-0.040576607 -0.12289842 0.061067756 0.23139302 0.20863216 -0.2128762 -0.09179906 -0.014854418
-0.025232399 0.12925316 0.019242523 -0.2336826 -0.24749072 -0.2008211 -0.275912 0.27630574
-0.10973149 -0.1224405 -0.18971257 0.07373831 -0.2415537 0.11469654 -0.13298212 -0.19801897
-0.077183105 -0.11685113 0.19928786 0.11572728 0.21264985 -0.18701215 0.007555886 0.17111138
-0.010585066 0.07569535 -0.18777698 0.14241831 -0.12798634 -0.10865194 -0.23386036 0.26472494
0.029883051 0.0726014 0.08255546 -0.1538454 0.030582614 -0.05640489 0.08842139 -0.23817176
0.013718444 -0.1322288 0.017283712 0.13918874 -0.13482635 0.08336918 0.05248019 0.04741315
0.124357186 0.1605886 0.08384689 0.15222591 -0.36484918 -0.11659616 -0.11936418 0.2086866
-0.035048857 -0.13480793 -0.05147214 -0.05836428 -0.19515698 -0.018451223 0.13726927 -0.14416061
0.24721327 -0.058194432 0.20540608 0.28083095 0.17393793 -0.21487647 -0.25323752 0.2883461
0.22463763 0.37416318 0.23898153 0.085485935 -0.2341543 -0.23234418 -0.34778598 0.21288535
-0.18687321 -0.21834461 -0.12668696 -0.0023101398 -0.20857126 0.12539192 0.28188553 0.011500946
0.03845555 0.20922412 0.043467082 0.4169025 0.20526987 -0.14923327 -0.4142124 0.5526485
0.17680126 0.27531645 0.04049451 -0.24148346 0.05656294 -0.034618795 -0.1906773 -0.07109315
0.12008281 0.10630261 -0.08325703 -0.16150862 -0.07730038 0.10242154 -0.06653503 -0.05538454
0.15727629 0.031992037 -0.14612916 -0.036388192 -0.061170705 0.11218117 -0.13093111 -0.016020674
-0.047799923 0.33818775 0.07176066 0.05501432 0.08082631 -0.19083524 -0.27360225 0.2401522
-0.070115626 -0.23510687 0.083966285 -0.0052066064 -0.14321664 -0.047918748 -0.0034475112 -0.06416707
0.12877576 -0.1014831 -0.08589579 0.17047164 0.104896314 -0.2933654 -0.1587713 0.2685793
0.31589466 0.049767815 0.15646222 0.13100646 -0.048635084 -0.25934544 -0.18126975 0.39058027
0.08238643 0.02944234 -0.0045547727 0.03490045 -0.043372557 -0.056362823 0.15861124 0.07860752
0.059756167 0.06730772 0.1807278 0.29247025 0.22710697 -0.123511 -0.36611822 0.26804277
-0.13025852 0.2594955 0.109510675 -0.21289425 -0.07405769 -0.2162159 -0.14718571 0.121809624
0.17003614 -0.18864143 -0.18830915 0.034501806 -0.16577633 0.1508802 -0.16604064 0.060610823
0.18522216 0.012089127 0.063179895 0.20892818 -0.033662174 0.11895517 -0.20720446 0.2637886
0.14226243 0.19032091 0.10595981 0.042064138 0.07336507 -0.018642953 -0.13974153 0.27273592
-0.014495189 0.05159707 -0.10886132 0.17519581 -0.033284552 0.07768377 -0.13707568 0.04902989
00000000: 0aca 893e 0a2d 3f3e 4770 363e 7d98 ebbc
00000010: 96f9 89bd 9e11 e0be 4449 e5be 59eb 913e
00000020: f6ee 70be 7cfe c9bd 2961 25be a384 afbe
00000030: 8e67 913c f12a 99bd 8f1d 483d ee7b 91be
00000040: 8a58 b13e 116f 543d 468f 743e f42e 3e3d
00000050: 1f89 173e 79bc 97be 732a 85bd 979f 453e
00000060: db08 223e 1174 843e 9a2d 28bd a94f e4bc
00000070: 7654 d6bc 5f21 a6bd 459a 47be 3f7a 2e3e
00000080: d0ec 88be ec3f 3cbe f9c9 43be 457a 4ebe
00000090: e345 f2bd 1913 b2bb bd77 75bd b9f5 13be
000000a0: a833 26bd 2bb2 fbbd 2f22 7a3d 4bf2 6c3e
000000b0: aba3 553e 38fc 59be 2501 bcbd f25f 73bc
000000c0: 2db4 cebc f15a 043e 7fa2 9d3c 7e4a 6fbe
000000d0: 356e 7dbe 0ca4 4dbe 5644 8dbe f277 8d3e
000000e0: e7ba e0bd 16c2 fabd 0344 42be 1c04 973d
000000f0: da59 77be 05e6 ea3d 772c 08be 7cc5 4abe
00000100: 2d12 9ebd a54f efbd 1e12 4c3e 6d02 ed3d
00000110: e2c0 593e 1d80 3fbe 5e97 f73b d237 2f3e
00000120: fc6c 2dbc 2a06 9b3d 9c48 40be 1bd6 113e
00000130: da0e 03be e984 debd 1779 6fbe 078a 873e
00000140: 4dcd f43c 0bb0 943d d612 a93d a689 1dbe
00000150: 6488 fa3c d008 67bd 4616 b53d 4ce3 73be
00000160: 53c3 603c fd66 07be 9296 8d3c 7e87 0e3e
00000170: eb0f 0abe 76bd aa3d 78f5 563d 4b34 423d
00000180: fbae fe3d 5771 243e ebb7 ab3d 1ce1 1b3e
00000190: 83cd babe f8c9 eebd 3575 f4bd f1b1 553e
000001a0: 648f 0fbd 170b 0abe 73d4 52bd 620f 6fbd
000001b0: 3bd7 47be 0527 97bc 5190 0c3e d79e 13be
000001c0: 7a25 7d3e 495d 6ebd f955 523e 13c9 8f3e
000001d0: c91c 323e 9408 5cbe 59a8 81be 1aa2 933e
000001e0: 6807 663e 5192 bf3e 93b7 743e 4013 af3d
000001f0: 25c6 6fbe a2eb 6dbe 0111 b2be 9efe 593e
00000200: b15b 3fbe bb95 5fbe 3aba 01be b765 17bb
00000210: b493 55be bd66 003e 4d53 903e 776e 3c3c
00000220: 9183 1d3d d93e 563e 8a0a 323d 3f74 d53e
00000230: 4432 523e 9bd0 18be a613 d4be 5f7a 0d3f
00000240: 640b 353e 47f6 8c3e 92dd 253d 7147 77be
00000250: 8bae 673d 70cc 0dbd e940 43be 4999 91bd
00000260: faed f53d 2fb5 d93d a982 aabd 8462 25be
00000270: a94f 9ebd 62c2 d13d 8543 88bd e6da 62bd
00000280: 090d 213e 150a 033d e2a2 15be c90b 15bd
00000290: 228e 7abd 3ebf e53d ce12 06be ca3d 83bc
000002a0: dac9 43bd f226 ad3e 41f7 923d b256 613d
000002b0: 4488 a53d 506a 43be 9815 8cbe 75ea 753e
000002c0: c898 8fbd dbbf 70be 84f6 ab3d 2e9c aabb
000002d0: 62a7 12be 7346 44bd a4ef 61bb 066a 83bd
000002e0: cbdd 033e 5fd6 cfbd 22ea afbd 1e90 2e3e
000002f0: e1d3 d63d fd33 96be f294 22be 3a83 893e
00000300: f2bc a13e 56d9 4b3d a237 203e 8f26 063e
00000310: 9535 47bd edc8 84be c79e 39be 23fa c73e
00000320: 37ba a83d 1031 f13c 3440 95bb c6f3 0e3d
00000330: 6ca7 31bd b4dc 66bd fc6a 223e fbfc a03d
00000340: e2c2 743d a1d8 893d b510 393e a9be 953e
00000350: bb8e 683e 56f3 fcbd d973 bbbe e73c 893e
00000360: 7d62 05be 98dc 843e 2247 e03d f300 5abe
00000370: 8fab 97bd b367 5dbe dab7 16be 5377 f93d
00000380: f41d 2e3e 382b 41be 1dd4 40be c451 0d3d
00000390: 45c1 29be 5780 1a3e 8f06 2abe 0e43 783d
000003a0: e1aa 3d3e 7911 463c 7664 813d 45f1 553e
000003b0: 59e1 09bd c59e f33d 682d 54be 4d0f 873e
000003c0: 3ead 113e 7ce3 423e 7501 d93d 724b 2c3d
000003d0: 6d40 963d 1bb9 98bc 6718 0fbe 0ba4 8b3e
000003e0: 3b7d 6dbc 7357 533d aff2 debd 8866 333e
000003f0: 6255 08bd ab18 9f3d 915d 0cbe 91d3 483d

weight_hh_l1 f4 [96, 24]
-0.05837504 0.051258624 -0.071803205 -0.053454127 0.029190857 -0.036001544 -0.16172068 -0.06660191
0.31085855 0.01969541 -0.09252759 0.10973452 -0.12495071 0.23358276 0.036291506 -0.1885914
0.18355232 0.17253341 0.2984596 0.1052845 -0.10241721 -0.0027019335 0.085328236 0.28103906
-0.06189812 -0.024712108 -0.037851203 -0.14467376 -0.027562631 -0.05438546 -0.05461121 -0.08752535
0.0043240804 0.26726395 -0.2508698 0.02639687 0.057600826 -0.227351 0.08961413 0.099472806
0.1415451 0.09309928 0.021981886 -0.15413354 -0.214823 0.27176046 -0.011950948 -0.028244166
-0.09377288 0.20955242 -0.21553038 -0.050782688 0.113500096 0.0055039064 -0.18595427 0.17832308
-0.22516835 0.1221648 -0.12339636 0.11499385 -0.13419497 -0.028715938 -0.10009526 -0.2608145
0.07552732 -0.019984037 -0.04550293 -0.1952646 0.16123629 0.055834938 0.18366238 0.16000377
-0.19915785 0.016119894 -0.0011969872 -0.025385592 -0.09824701 -0.18545197 -0.019396467 -0.172877
0.09562408 0.104089975 -0.05994077 0.055137023 0.13889681 0.11968212 0.110305555 0.06021846
-0.11270259 0.07045818 -0.13466117 -0.09734237 -0.14155161 0.116853856 0.04115205 0.25753343
-0.31567657 0.29268163 -0.10973078 -0.1518657 -0.2097551 -0.14020579 -0.09709784 -0.010746131
0.060538955 0.27814603 -0.21204236 0.13802414 0.01534343 0.06422902 -0.24707171 -0.23341611
-0.1348093 0.08818621 -0.07988855 -0.012272006 0.091532625 0.2509538 0.4178094 0.1936537
-0.23377754 -0.05780539 -0.26816016 -0.1545711 -0.21289435 -0.14017811 -0.38192338 0.1260444
0.035624128 0.13287245 -0.06653394 -0.1797168 0.14911762 0.134273 0.16866958 -0.09980893
-0.2367994 -0.13753991 -0.006122996 -0.025549212 0.047460712 0.34768084 0.38911885 0.15652257
0.14168723 -0.0145855965 -0.1907247 -0.26873624 0.028148241 0.06802909 -0.09985365 0.15231699
-0.24765126 0.1889113 -0.24263793 0.1615125 0.1647461 -0.0028393073 0.06615195 0.03440086
0.06085186 0.05356846 -0.13233031 -0.09500883 -0.012237886 0.06531842 0.04076202 0.31402642
0.07483273 0.16126236 -0.030166352 -0.14358884 0.09550232 0.06416751 -0.1591968 -0.07060303
0.08984723 0.02132019 -0.24446443 -0.075857416 -0.10299923 -0.17539933 0.059328966 -0.30444688
-0.15964082 -0.18899925 -0.049282115 -0.12970538 0.29312176 0.05525311 -0.060568225 0.22777095
-0.032786608 -0.059508413 -0.16514052 -0.019416481 -0.03295539 -0.0002450108 -0.2581177 0.06015129
0.053038277 -0.0058028465 -0.012734994 0.07821151 -0.12699895 0.084055774 0.14298536 0.0018058425
-0.057716247 0.2126454 0.13301125 -0.1542125 -0.17366861 0.25327933 0.18308845 -0.049466915
0.17449692 0.13146995 -0.041920964 -0.15629317 -0.03945381 -0.2003971 -0.013044278 -0.20272726
-0.094637886 0.23955289 0.15127987 -0.11760135 0.06953577 -0.00081088487 0.10255394 0.07719614
0.16442643 -0.15708724 -0.13254893 -0.04703263 0.14201169 0.09254034 0.056340244 0.014971704
0.12347048 -0.25180656 0.108771905 -0.19716023 -0.053238716 -0.11051226 0.013503411 0.11858894
0.064826846 -0.14129648 0.046819426 0.05012591 0.013399763 0.052158553 0.10990849 0.106670044
00000000: aa1a 6fbd 90f4 513d 8f0d 93bd b7f2 5abd
00000010: aa21 ef3c 5b76 13bd 1b9a 25be 9566 88bd
00000020: da28 9f3e 4558 a13c 1b7f bdbd 7ebc e03d
00000030: 28e6 ffbd 5230 6f3e 67a6 143d 1b1e 41be
00000040: 24f5 3b3e 99ac 303e b2cf 983e 669f d73d
00000050: 1dc0 d1bd ec12 31bb 92c0 ae3d 5ae4 8f3e
00000060: e288 7dbd 0c71 cabc dd09 1bbd 5c25 14be
00000070: 07cb e1bc 4ac3 5ebd 01b0 5fbd 7e40 b3bd
00000080: 04b1 8d3b d2d6 883e 0272 80be 403e d83c
00000090: d8ee 6b3d b3ce 68be 9d87 b73d 66b8 cb3d
000000a0: 33f1 103e d6aa be3d 5b13 b43c 2fd5 1dbe
000000b0: 8ffa 5bbe 3024 8b3e e9cd 43bc 4f60 e7bc
000000c0: ff0b c0bd e994 563e ffb3 5cbe 8201 50bd
000000d0: bd72 e83d 1d5a b43b cc6a 3ebe 539a 363e
000000e0: 8892 66be 8a31 fa3d 3bb7 fcbd e581 eb3d
000000f0: 686a 09be b03d ebbc befe ccbd 7a89 85be
00000100: 11ae 9a3d 90b5 a3bc 4861 3abd 71f3 47be
00000110: 201b 253e 2db3 643d fe11 3c3e 07d8 233e
00000120: 09f0 4bbe de0d 843c 3ae4 9cba 72f5 cfbc
00000130: ba35 c9bd 1fe7 3dbe 57e5 9ebc ab06 31be
00000140: 8fd6 c33d 202d d53d 7484 75bd 5cd7 613d
00000150: f73a 0e3e e61b f53d e1e7 e13d a2a7 763d
00000160: 9ed0 e6bd 614c 903d 9ee4 09be 705b c7bd
00000170: e8f2 10be 1351 ef3d 0d8f 283d 6cdb 833e
00000180: 5ca0 a1be 5eda 953e 88ba e0bd af82 1bbe
00000190: 0aca 56be 1b92 0fbe 3bdb c6bd 8a10 30bc
000001a0: b2f7 773d 2869 8e3e a221 59be 3356 0d3e
000001b0: 0363 7b3c 818a 833d 5e00 7dbe a204 6fbe
000001c0: 730b 0abe f99a b43d 9c9c a3bd 8610 49bc
000001d0: 7575 bb3d 047d 803e 1deb d53e 284d 463e
000001e0: 6163 6fbe 58c5 6cbd 4a4c 89be e347 1ebe
000001f0: fa00 5abe da8a 0fbe 768b c3be c811 013e
00000200: 9bea 113d b70f 083e f242 88bd ae07 38be
00000210: 4ab2 183e dc7e 093e b8b7 2c3e a068 ccbd
00000220: 8b7b 72be 43d7 0cbe 6aa3 c8bb 954c d1bc
00000230: 2a66 423d 3903 b23e 963a c73e 7447 203e
00000240: 7516 113e 6df8 6ebc 564d 43be cc97 89be
00000250: 2497 e63c d652 8b3d 1280 ccbd fcf8 1b3e
00000260: 4b98 7dbe f771 413e 1476 78be 8863 253e
00000270: 34b3 283e ac13 3abb ac7a 873d ebe7 0c3d
00000280: cd3f 793d 9a6a 5b3d 9981 07be fd93 c2bd
00000290: 6a81 48bc aac5 853d 13f6 263d 12c8 a03e
000002a0: e741 993d f621 253e 6d1f f7bc f408 13be
000002b0: b896 c33d 416a 833d 7c04 23be 5298 90bd
000002c0: d301 b83d aea7 ae3c e254 7abe 225b 9bbd
000002d0: 43f1 d2bd e29b 33be ee02 733d 76e0 9bbe
000002e0: e278 23be 0589 41be 0bdc 49bd 7dd1 04be
000002f0: 0e14 963e 1651 623d 6316 78bd ca3c 693e
00000300: 404b 06bd 18bf 73bd 991a 29be 500f 9fbc
00000310: 3bfc 06bd cb74 80b9 0128 84be 3361 763d
00000320: aa3e 593d ce25 bebb 70a6 50bc 5b2d a03d
00000330: 030c 02be 6f25 ac3d c16a 123e 05b2 ec3a
00000340: df67 6cbd b7bf 593e 1a34 083e e2e9 1dbe
00000350: 2fd6 31be d4ad 813e 8a7b 3b3e d29d 4abd
00000360: 52af 323e 0fa0 063e 51b5 2bbd 510b 20be
00000370: 519a 21bd e634 4dbe abb7 55bc bc97 4fbe
00000380: 82d1 c1bd 5a4d 753e 1ce9 1a3e fad8 f0bd
00000390: c568 8e3d 9091 54ba cd07 d23d 0319 9e3d
000003a0: 675f 283e 7adb 20be e8ba 07be 49a5 40bd
000003b0: 836b 113e ca85 bd3d 07c5 663d e14b 753c
000003c0: 17de fc3d caec 80be cec3 de3d 5fe4 49be
000003d0: d710 5abd 4054 e2bd 693d 5d3c c2de f23d
000003e0: f0c3 843d 06b0 10be bac5 3f3d d450 4d3d
000003f0: ae8a 5b3c 35a4 553d b417 e13d d375 da3d

bias_ih_l1 f4 [96]
-0.2130041 -0.3839305 -0.10348146 -0.19611153 -0.130635 -0.35520485 0.031619728 0.008818481
-0.35873213 -0.1105483 -0.28696102 -0.44999722 -0.43562454 -0.2008141 -0.22081186 -0.30778837
-0.17959177 -0.15225668 -0.053325146 -0.3850742 -0.39801034 -0.23647715 -0.1837351 -0.13055412
-0.3273335 -0.11229041 -0.16724221 0.033220567 -0.26274535 -0.4813403 -0.16102026 0.03062906
-0.22965994 -0.08045792 0.08302095 -0.19157307 -0.36249533 -0.25050488 -0.025194705 -0.09792634
-0.21367471 -0.45200515 -0.32375202 -0.2909054 -0.40114614 -0.021399727 -0.31756222 -0.31790984
-0.0067793922 -0.06991336 0.053633165 0.18470795 0.1358242 0.14725237 0.05798566 -0.11456249
0.056893595 0.008772143 0.072997935 -0.09336796 -0.14190991 0.039947633 -0.042197216 0.018909091
-0.17313923 -0.05028568 0.044853076 -0.10022228 -0.08212375 -0.021152409 -0.17416935 0.03689116
-0.44809055 -0.057059195 -0.119188204 -0.094170645 -0.48224583 -0.4472668 -0.2575657 -0.32029992
-0.3560778 -0.27520657 0.0040912475 -0.36346516 -0.2600302 -0.07348192 -0.30049166 -0.023230087
-0.17018975 -0.373232 -0.36777973 -0.27889445 -0.092668824 -0.22046164 -0.34943154 -0.31830847
00000000: bf1d 5abe 8a92 c4be 16ee d3bd 76d1 48be
00000010: 2ec5 05be 69dd b5be b083 013d 647b 103c
00000020: bdab b7be 2667 e2bd 8eec 92be 0966 e6be
00000030: 2e0a dfbe 36a2 4dbe 811c 62be 7096 9dbe
00000040: e8e6 37be 2de9 1bbe 786b 5abd 7228 c5be
00000050: 03c8 cbbe 1127 72be 0e25 3cbe fbaf 05be
00000060: 4298 a7be 84f8 e5bd 8b41 2bbe 4a12 083d
00000070: 8f86 86be 3c72 f6be 7fe2 24be cbe9 fa3c
00000080: fa2b 6bbe 1fc7 a4bd e306 aa3d bb2b 44be
00000090: fd98 b9be 2d42 80be 2065 cebc 9b8d c8bd
000000a0: 8bcd 5abe 386d e7be d3c2 a5be 8df1 94be
000000b0: 0763 cdbe 7b4e afbc 8497 a2be 14c5 a2be
000000c0: aa25 debb bc2e 8fbd 73ae 5b3d 1524 3d3e
000000d0: 8015 0b3e 53c9 163e 5f82 6d3d bd9f eabd
000000e0: 4209 693d 09b9 0f3c f17f 953d b337 bfbd
000000f0: d550 11be 21a0 233d fdd6 2cbd 3de7 9a3c
00000100: 694b 31be 5bf8 4dbd dcb7 373d 5741 cdbd
00000110: 7f30 a8bd d147 adbc 7359 32be 2f1b 173d
00000120: 206c e5be e7b6 69bd f218 f4bd 8adc c0bd
00000130: ede8 f6be 2700 e5be a7df 83be 5afe a3be
00000140: d44f b6be e0e7 8cbe df0f 863b 1b18 babe
00000150: ae22 85be b07d 96bd 0bda 99be 064d bebc
00000160: 3946 2ebe 4418 bfbe a04d bcbe 41cb 8ebe
00000170: 27c9 bdbd b2c0 61be b1e8 b2be 54f9 a2be

bias_hh_l1 f4 [96]
-0.4833591 -0.35499516 0.030476544 -0.026684187 -0.43813655 -0.35770756 -0.09727372 -0.050895788
-0.4037222 -0.028931798 -0.02294657 -0.17713493 -0.3967785 -0.4504179 -0.009726417 -0.06085394
-0.2964132 -0.3087513 -0.06312541 -0.11378145 -0.46381745 -0.31206977 -0.17680882 -0.15438502
-0.43306103 -0.053731665 -0.06880697 0.04888327 -0.08899198 -0.45841974 -0.012264132 -0.3679607
-0.24111968 -0.25141463 -0.18979938 -0.2927549 -0.14305246 -0.38719407 -0.29233235 -0.1762409
-0.33781895 -0.07903182 -0.17053 -0.3060129 -0.17018554 -0.16133153 -0.14766733 -0.04926015
0.07672997 0.01238418 0.08149621 0.17082448 -0.12391781 -0.17646916 0.12737355 0.08282534
-0.08982281 -0.07451645 0.13593034 0.09850619 0.03333487 0.00369978 0.066244714 0.09506975
0.15616806 -0.053076357 -0.14350161 0.18244796 0.07686877 -0.06991115 0.012910191 0.009171726
-0.18748163 -0.28775278 -0.07642416 -0.2475571 -0.4647117 -0.5589467 -0.084160276 -0.36740845
-0.3630392 -0.15842374 0.0017660958 -0.15199669 -0.16424765 -0.19155717 -0.23242311 -0.0012792028
-0.26148427 -0.07124981 -0.37156883 -0.17206375 -0.14179179 -0.03611048 -0.20522436 -0.39516643
00000000: d87a f7be edc1 b5be f2a9 f93c cc98 dabc
00000010: 6f53 e0be 7225 b7be 7237 c7bd 1a78 50bd
00000020: adb4 cebe 6102 edbc 72fa bbbc dc62 35be
00000030: 8d26 cbbe 2d9d e6be 8d5b 1fbc fb41 79bd
00000040: 79c3 97be a714 9ebe e547 81bd 4006 e9bd
00000050: 7b79 edbe 9cc7 9fbe 5f0d 35be 1b17 1ebe
00000060: 2dba ddbe bc15 5cbd abea 8cbd d339 483d
00000070: 6d41 b6bd feb5 eabe 7fef 48bc 5865 bcbe
00000080: 14e8 76be 6bb9 80be c55a 42be f8e3 95be
00000090: 587c 12be 4d3e c6be 96ac 95be 7f78 34be
000000a0: 9bf6 acbe 6fdb a1bd 6b9f 2ebe b9ad 9cbe
000000b0: 1e45 2ebe 1834 25be 1b36 17be 03c5 49bd
000000c0: 9a24 9d3d 04e7 4a3c 7ce7 a63d 9dec 2e3e
000000d0: 9fc8 fdbd 55b4 34be 366e 023e 55a0 a93d
000000e0: 05f5 b7bd 159c 98bd 5331 0b3e 9dbd c93d
000000f0: 258a 083d 0278 723b 4fab 873d eeb3 c23d
00000100: 85ea 1f3e 9866 59bd 16f2 12be a3d3 3a3e
00000110: 606d 9d3d 942d 8fbd 4485 533c 0245 163c
00000120: 2ffb 3fbe 5554 93be 4584 9cbd 9c7f 7dbe
00000130: b1ee edbe 2217 0fbf 395c acbd f61c bcbe
00000140: 46e0 b9be d539 22be 577c e73a 05a5 1bbe
00000150: 8930 28be 9027 44be 5300 6ebe ecaa a7ba
00000160: 44e1 85be 6ceb 91bd 453e bebe 7b31 30be
00000170: de31 11be 95e8 13bd 5626 52be 4153 cabe

weight_ih_l2 f4 [96, 24]
-0.37769547 0.2201063 -0.23489858 -0.5529026 0.01556875 0.2266159 -0.32459754 0.051406357
0.16961408 0.3143483 -0.542235 -0.02781913 0.29113886 0.13825016 0.109643504 -0.26049912
-0.25102547 0.22476365 0.35057372 -0.61455864 0.2268763 0.24389145 0.5225696 0.4913456
-0.1386049 0.25096947 0.029836701 -0.4116411 -0.026566133 0.04833906 -0.25053993 -0.021603372
0.086220615 0.37435883 -0.1959612 0.13353679 0.19085854 0.154024 0.02974676 -0.07966479
0.21768115 0.36815667 0.15603834 -0.072578646 0.23820385 0.036606573 0.0014816475 -0.16992907
-0.15371957 -0.12072704 -0.22262698 -0.20339748 -0.111023754 0.036058113 -0.07978029 -0.27203903
0.065602064 0.14287522 -0.03168383 0.14189646 0.00073947344 0.23152675 -0.08564397 -0.024748165
-0.11660532 0.32201856 0.09518935 -0.08223688 0.16309269 0.16432962 0.21512857 0.06823703
-0.3341934 0.25142413 -0.0033448332 -0.17200148 0.056473635 0.013679205 -0.12288729 0.29805848
0.13479787 0.050161507 -0.095556825 -0.02135243 -0.2191253 0.075775236 -0.10606545 -0.07088841
0.21627788 -0.095944904 0.3333988 -0.05094503 -0.016065348 0.06553983 0.18904328 0.2874056
-0.3479149 0.048640765 -0.26683873 -0.37204567 0.04174955 -0.07531529 -0.44263092 -0.016054802
0.1997246 0.10203421 -0.2770483 0.013571885 0.24045071 -0.15700419 -0.01003481 -0.44366238
-0.2146561 0.14606069 0.3715228 -0.18642284 0.04511478 0.12777945 0.55340743 -0.017925508
-0.18077236 0.067234084 -0.04014703 -0.4803244 -0.13029015 0.039478876 -0.33724827 0.18350917
0.298057 0.37786 -0.19230667 0.18244545 0.036403507 0.10251906 0.0791699 -0.124770135
0.1276707 -0.09830002 0.2810032 -0.103310965 -0.10101317 0.060316496 0.23900144 0.13262203
-0.3156423 0.25148666 -0.026961047 -0.48238593 0.025749637 -0.18195762 -0.2960599 0.26051447
0.012141477 0.2532298 -0.26563057 0.06935851 0.06654083 0.24979745 0.27195442 -0.3827932
0.17421421 0.015175579 0.4055402 -0.21874195 0.002961731 0.23912176 0.5260082 0.29561892
-0.08385408 0.09420974 -0.07896438 -0.22836395 -0.12768239 -0.03851041 -0.029458543 0.15909289
0.19785385 0.16825202 -0.37195715 0.25182414 -0.004500586 0.03083443 0.19005422 0.007368016
-0.13132304 0.16412713 0.15281823 0.0037185196 0.1833805 0.20897175 0.4552167 0.280423
-0.042218618 -0.10623136 0.007082544 -0.07103004 -0.055282142 0.18604067 -0.3038349 -0.1833329
-0.04033757 -0.016954785 -0.18261284 -0.14313155 0.21126966 -0.0019289468 0.026851255 0.05503973
-0.21801758 0.14159316 0.13824715 -0.15387765 0.26715094 -0.17375383 0.2670993 0.22417022
-0.29290894 0.24730359 -0.35182247 -0.32807752 0.08585683 -0.18772298 -0.46768755 -0.016608205
0.17783064 0.32048902 -0.297084 -0.13423002 0.19686566 -0.20940664 -0.08070729 -0.14931948
-0.008309717 0.11166083 0.34754106 -0.06989035 -0.11115756 0.284601 0.17229007 0.13140401
-0.42772108 0.45865205 -0.09852027 -0.25826615 -0.22060023 0.047651093 -0.40057328 -0.051027678
0.18156931 0.26742485 -0.42875552 0.2592514 0.14298092 0.13575798 0.15561445 -0.35943288
00000000: 4d61 c1be 8c63 613e 4189 70be 068b 0dbf
00000010: 1214 7f3c 000e 683e a631 a6be 798f 523d
00000020: 50af 2d3e 43f2 a03e eacf 0abf f2e4 e3bc
00000030: 2710 953e 7391 0d3e c68c e03d 2460 85be
00000040: 6986 80be 7128 663e 667e b33e b753 1dbf
00000050: 4352 683e aebe 793e 1fc7 053f a791 fb3e
00000060: 71ee 0dbe 127f 803e 196c f43c 9fc2 d2be
00000070: 38a1 d9bc 2eff 453d c546 80be 8ef9 b0bc
00000080: 6f94 b03d f6ab bf3e 0eaa 48be debd 083e
00000090: 6c70 433e 78b8 1d3e 7aaf f33c 4b27 a3bd
000000a0: cfe7 5e3e 087f bc3e 84c8 1f3e 1da4 94bd
000000b0: b6eb 733e c6f0 153d d733 c23a e301 2ebe
000000c0: aa68 1dbe bd3f f7bd 54f8 63be 6e47 50be
000000d0: 6c60 e3bd acb1 133d d963 a3bd b348 8bbe
000000e0: 605a 863d e24d 123e e7c6 01bd 4e4d 113e
000000f0: 39d9 413a 5915 6d3e 1b66 afbd aabc cabc
00000100: c5ce eebd 9edf a43e a2f2 c23d cf6b a8bd
00000110: c501 273e 0646 283e aa4a 5c3e dbbf 8b3d
00000120: 661b abbe aaba 803e fd34 5bbb 2821 30be
00000130: e650 673d bf1e 603c 55ac fbbd 1f9b 983e
00000140: 7408 0a3e 2776 4d3d 4cb3 c3bd 4beb aebc
00000150: 6262 60be 0c30 9b3d d838 d9bd f12d 91bd
00000160: f377 5d3e c37e c4bd 3fb3 aa3e bcab 50bd
00000170: 7a9b 83bc bf39 863d 9094 413e d426 933e
00000180: e721 b2be 8a3b 473d 169f 88be c57c bebe
00000190: 9301 2b3d e73e 9abd 85a0 e2be 5c85 83bc
000001a0: 9b84 4c3e 50f7 d03d 46d9 8dbe 9d5c 5e3c
000001b0: b638 763e b5c5 20be 0b69 24bc b727 e3be
000001c0: cfce 5bbe ef90 153e 3d38 be3e a1e5 3ebe
000001d0: 47ca 383d 9ed8 023e 1cac 0d3f 84d8 92bc
000001e0: 641c 39be 06b2 893d 3671 24bd 14ed f5be
000001f0: c86a 05be 9ab4 213d ceab acbe d4e9 3b3e
00000200: ed9a 983e de76 c13e 0aec 44be fbd2 3a3e
00000210: d81b 153d 83f5 d13d d423 a23d 7c87 ffbd
00000220: 1cbc 023e 8551 c9bd a7df 8f3e b394 d3bd
00000230: fedf cebd 6e0e 773d cbbc 743e 12ce 073e
00000240: de9b a1be dcc2 803e 6add dcbc 4afb f6be
00000250: e7f0 d23c 1953 3abe 2a95 97be 2762 853e
00000260: 0ced 463c 56a7 813e bb00 88be d60b 8e3d
00000270: 8f46 883d e7ca 7f3e 9c3d 8b3e 78fd c3be
00000280: 3665 323e fea2 783c f7a2 cf3e e4fd 5fbe
00000290: 9a19 423b 56dc 743e 79a8 063f 5d5b 973e
000002a0: b0bb abbd 09f1 c03d 14b8 a1bd 3dd8 69be
000002b0: 2cbf 02be 17bd 1dbd 0b53 f1bc 3fe9 223e
000002c0: 339a 4a3e 424a 2c3e 2b71 bebe 18ef 803e
000002d0: a779 93bb 7d98 fc3c 939d 423e 666f f13b
000002e0: 8c79 06be f110 283e 627c 1c3e 68b2 733b
000002f0: 19c8 3b3e b1fc 553e 2a12 e93e 9a93 8f3e
00000300: 6eed 2cbd d48f d9bd af14 e83b 3378 91bd
00000310: 876f 62bd 7281 3e3e 3f90 9bbe 9fbb 3bbe
00000320: 0239 25bd c3e4 8abc dcfe 3abe 1491 12be
00000330: 1357 583e b7d4 fcba 2af7 db3c 5771 613d
00000340: 0040 5fbe ccfd 103e a990 0d3e 1a92 1dbe
00000350: 02c8 883e 86ec 31be 3dc1 883e e18c 653e
00000360: 29f8 95be 273d 7d3e 1322 b4be c7f9 a7be
00000370: b5d5 af3d 743a 40be be74 efbe ee0d 88bc
00000380: 3c19 363e 2317 a43e 651b 98be 9873 09be
00000390: 2797 493e b26e 56be dd49 a5bd 35e7 18be
000003a0: 7b25 08bc 6fae e43d e7f0 b13e ac22 8fbd
000003b0: 93a6 e3bd 39b7 913e cf6c 303e c68e 063e
000003c0: 42fe dabe 71d4 ea3e ffc4 c9bd 763b 84be
000003d0: 07e5 61be cb2d 433d f117 cdbe 6602 51bd
000003e0: 4eed 393e e9eb 883e d885 dbbe 99bc 843e
000003f0: 9769 123e 2404 0b3e 6559 1f3e 9607 b8be

weight_hh_l2 f4 [96, 24]
0.3116607 0.42126667 -0.14095008 0.04163807 -0.022037117 0.1443156 -0.16843575 0.1001135
-0.07898134 -0.040745072 -0.18229471 -0.11445417 -0.19471703 -0.17403807 0.052817997 -0.11681514
0.045896254 0.13325803 -0.49925858 0.11620401 -0.05357269 0.027484672 -0.082721695 0.0067113726
0.18535593 0.32912147 -0.3915248 -0.24288312 -0.23807578 0.26128277 0.064523175 0.19047107
-0.14558576 0.059410237 -0.3172424 -0.058635976 -0.18405022 -0.045744065 -0.35343233 -0.1358189
0.114095606 -0.2811202 -0.39630297 0.020178689 -0.1855976 -0.14354454 0.13341127 0.043983314
0.27390957 0.27543193 -0.15065156 -0.02564888 0.07342597 0.14355814 0.22754416 -0.067820385
-0.086106256 0.13812111 -0.03696495 -0.034731433 -0.11250702 -0.15076135 0.014519239 -0.17577422
-0.028245209 0.08458162 -0.21728647 0.118879505 0.061513256 -0.057924617 -0.0549573 0.14994527
0.08301362 0.2722619 -0.11004434 -0.27218425 0.04748506 0.21161222 0.06879267 0.110411
-0.11848024 -0.058678996 0.12142118 0.035389382 0.026755292 0.04918256 -0.07416365 0.04216074
0.08563057 -0.16248657 -0.2516771 0.06736169 0.07453754 -0.07886149 0.019298218 0.07884725
0.18788294 0.19323416 -0.07425758 -0.041446887 -0.14926614 0.10735056 -0.110500365 0.15614451
-0.2717396 0.22663024 -0.18774545 0.035131272 -0.19744824 -0.091155715 -0.17630538 -0.36931574
0.12164533 0.015933814 -0.008956893 -0.15909289 -0.14822015 0.101252414 0.22940356 -0.26878846
0.022253131 0.0435132 -0.03335933 -0.13662556 -0.11294412 -0.027518407 0.07192095 0.12053619
-0.34685332 0.2043002 0.11588827 0.16189785 -0.05514177 -0.13746291 0.15239637 -0.35732344
0.1169837 -0.04545112 -0.056607205 0.08222887 0.19425797 -0.07604739 -0.16497052 0.090275735
0.2591391 0.16700733 -0.07618412 -0.1914804 -0.25088415 0.36623567 -0.0765751 -0.06074081
-0.3495198 -0.12885009 -0.0031194715 0.17417298 -0.22084787 -0.36872855 0.038793057 -0.43389034
-0.050838068 -0.0745349 -0.25414628 -0.15448068 -0.09092098 -0.2101447 -0.31692424 0.036683477
0.20924494 0.24659574 -0.22491309 -0.003283467 -0.07756798 0.27227962 0.21261278 -0.062198736
-0.12835152 -0.060293563 0.09888925 -0.088613585 -0.0301671 -0.2827008 -0.057350893 -0.2579469
-0.0058235116 -0.15270749 -0.3594721 -0.15377522 0.16977784 -0.07291273 0.104419425 -0.14538832
0.23927175 0.07780364 -0.23997988 0.022607699 0.044108212 0.3019883 0.25938863 0.092623465
-0.32497385 0.07303956 -0.090207204 0.056620523 -0.2789426 -0.068762496 0.022188865 -0.13497965
-0.122389644 -0.2574444 -0.27075616 -0.047970515 -0.056757826 0.14714175 -0.24376118 0.07961045
0.03716794 0.3323628 -0.3115886 -0.06257784 -0.011635927 0.21567146 -0.05577479 -0.13170035
-0.101057276 -0.0236658 -0.1068429 0.11097805 -0.15008196 -0.2574496 -0.26461667 -0.42042157
-0.061500374 -0.0067399447 -0.4468831 0.09291685 -0.10724568 -0.14374733 -0.083761714 0.07408956
0.2532962 0.2538273 -0.11440424 -0.08482759 -0.2553571 0.24115178 0.32870087 0.3127931
-0.089414254 -0.03491066 0.13807479 0.19672644 -0.043785468 -0.13059707 -0.27715194 -0.34425408
00000000: fe91 9f3e 44b0 d73e 3855 10be ae8c 2a3d
00000010: 2f87 b4bc 78c7 133e 6c7a 2cbe 4f08 cd3d
00000020: f8c0 a1bd 4ee4 26bd 77ab 3abe f366 eabd
00000030: e763 47be 0937 32be af57 583d c73c efbd
00000040: b6fd 3b3d cb74 083e d29e ffbe 5efc ed3d
00000050: 096f 5bbd 8927 e13c fe69 a9bd 13eb db3b
00000060: f2cd 3d3e 9c82 a83e f075 c8be 5ab6 78be
00000070: 23ca 73be dbc6 853e ba24 843d d90a 433e
00000080: 6f14 15be 2658 733d 996d a2be 472c 70bd
00000090: a977 3cbe 215e 3bbd 15f5 b4be 1c14 0bbe
000000a0: f5aa e93d fdee 8fbe 39e8 cabe c74d a53c
000000b0: 4c0d 3ebe 57fd 12be f79c 083e d927 343d
000000c0: e03d 8c3e 6a05 8d3e 6744 1abe 9a1d d2bc
000000d0: 5b60 963d e800 133e 5601 693e 6ae5 8abd
000000e0: 7a58 b0bd 9f6f 0d3e 8f68 17bd 8c42 0ebd
000000f0: 156a e6bd 2f61 1abe 1ae2 6d3c 28fe 33be
00000100: 7f62 e7bc 2139 ad3d 5880 5ebe 1977 f33d
00000110: 53f5 7b3d 5d42 6dbd e81a 61bd 418b 193e
00000120: 0b03 aa3d e965 8b3e ed5e e1bd bc5b 8bbe
00000130: b27f 423d e0b0 583e 2ce3 8c3d 2a1f e23d
00000140: c5a5 f2bd 6359 70bd abab f83d 75f4 103d
00000150: ea2d db3c a773 493d 1de3 97bd bdb0 2c3d
00000160: 155f af3d e162 26be d2db 80be edf4 893d
00000170: 23a7 983d 2282 a1bd 4c17 9e3c ab7a a13d
00000180: 6364 403e 2ddf 453e 5c14 98bd 36c4 29bd
00000190: 39d9 18be 9cda db3d 044e e2bd 59e4 1f3e
000001a0: 7421 8bbe c211 683e 5840 40be cfe5 0f3d
000001b0: df2f 4abe d9af babd 6689 34be f416 bdbe
000001c0: 3021 f93d a187 823c efbf 12bc 3fe9 22be
000001d0: 06c7 17be 6d5d cf3d c4e8 6a3e a49e 89be
000001e0: 334c b63c e63a 323d cba3 08bd 92e7 0bbe
000001f0: 3f4f e7bd 486e e1bc 4b4b 933d aedb f63d
00000200: c296 b1be 1234 513e d456 ed3d 8dc8 253e
00000210: 56dc 61bd 14c3 0cbe cb0d 1c3e 19f3 b6be
00000220: 2695 ef3d f42a 3abd f5dc 67bd 9c67 a83d
00000230: 90eb 463e bcbe 9bbd 08ee 28be 7ce2 b83d
00000240: e1ad 843e f803 2b3e 6b06 9cbd 7013 44be
00000250: e373 80be 3e83 bb3e 68d3 9cbd 5bcb 78bd
00000260: 42f4 b2be 47f1 03be 0c70 4cbb 675a 323e
00000270: f225 62be fdc9 bcbe 78e5 1e3d e026 debe
00000280: 943b 50bd c1a5 98bd 761f 82be 2f30 1ebe
00000290: c734 babd 2c30 57be e543 a2be 6a41 163d
000002a0: 4e44 563e 9883 7c3e 9e4f 66be 6f2f 57bb
000002b0: f6db 9ebd 3c68 8b3e 2ab7 593e 1ac4 7ebd
000002c0: 956e 03be 62f6 76bd 7286 ca3d 0a7b b5bd
000002d0: fe20 f7bc 29be 90be c5e8 6abd 9e11 84be
000002e0: 28d3 bebb 5a5f 1cbe ba0c b8be 4077 1dbe
000002f0: 3eda 2d3e 4553 95bd dad9 d53d ade0 14be
00000300: a703 753e 8457 9f3d 49bd 75be c833 b93c
00000310: d0aa 343d 369e 9a3e 96ce 843e 5fb1 bd3d
00000320: f962 a6be c495 953d 8ebe b8bd ecea 673d
00000330: 91d1 8ebe 5ad3 8cbd 6cc5 b53c 1b38 0abe
00000340: 6ca7 fabd c1cf 83be 8da0 8abe bb7c 44bd
00000350: e57a 68bd 54ac 163e 889c 79be ce0a a33d
00000360: 693d 183d 752b aa3e 8a88 9fbe d028 80bd
00000370: 9da4 3ebc fbd8 5c3e 1b74 64bd 75dc 06be
00000380: 1ef7 cebd c8de c1bc 73d0 dabd 7648 e33d
00000390: 16af 19be 6fd0 83be d67b 87be 7f41 d7be
000003a0: d1e7 7bbd c1da dcbb ddcd e4be 304b be3d
000003b0: a0a3 dbbd 8032 13be 438b abbd 44bc 973d
000003c0: 0ab0 813e a7f5 813e c54c eabd 16ba adbd
000003d0: 2abe 82be 7ef0 763e 7b4b a83e 6b26 a03e
000003e0: d21e b7bd 7bfe 0ebd 7a63 0d3e a872 493e
000003f0: 6458 33bd 3dbb 05be dce6 8dbe 1242 b0be

bias_ih_l2 f4 [96]
-0.37915134 -0.37685773 -0.3709026 -0.6290386 -0.74329793 -0.49400377 -0.826966 -0.42220715
-0.1097931 -0.6175792 -0.5015019 -0.7054263 -0.17721027 -0.35591754 -0.5272026 -0.23884013
-0.5310086 -0.4392063 -0.45722294 -0.5087651 -0.6339705 -0.43439278 -0.43043208 -0.43761933
-0.40507177 -0.3134289 -0.28254154 -0.5015074 -0.42943478 -0.32688275 -0.41401055 -0.3937003
-0.4351647 -0.5454985 -0.4657655 -0.558106 -0.11632407 -0.17660555 -0.4359297 -0.41384694
-0.25695062 -0.3395062 -0.45482472 -0.35577017 -0.26535666 -0.3453671 -0.29961658 -0.30057946
-0.11825713 -0.006945352 -0.012353914 0.053856086 0.022245904 -0.11509794 -0.008462478 0.021335443
-0.039251726 -0.013599959 -0.18547566 -0.037358094 -0.035283495 0.0034922347 -0.10768947 -0.0070490637
-0.013051179 0.02036455 -0.022948677 -0.076818034 0.015276404 0.044277683 -0.097111225 -0.00789153
-0.6717732 -0.35682058 -0.14476159 -0.4405989 -0.49071464 -0.5756986 -0.7124807 -0.53502095
-0.14828348 -0.38112292 -0.36632556 -0.7468588 -0.3872068 -0.21835932 -0.53351927 -0.16535766
-0.6966162 -0.5841942 -0.18822548 -0.5954432 -0.74980384 -0.7456353 -0.5662249 -0.5753082
00000000: 2020 c2be 7ff3 c0be f2e6 bdbe ac08 21bf
00000010: c648 3ebf 10ee fcbe 0bb4 53bf 892b d8be
00000020: 34db e0bd ac19 1ebf 6e62 00bf d196 34bf
00000030: 9c76 35be d33a b6be c0f6 06bf 8292 74be
00000040: 2ef0 07bf a6df e0be 2019 eabe 6e3e 02bf
00000050: e44b 22bf bb68 debe 9861 dcbe a40f e0be
00000060: 9165 cfbe c179 a0be 49a9 90be ca62 00bf
00000070: e0de dbbe 2d5d a7be 31f9 d3be 1693 c9be
00000080: e8cd debe caa5 0bbf d178 eebe 09e0 0ebf
00000090: 503b eebd 16d8 34be 2d32 dfbe bfe3 d3be
000000a0: 088f 83be c2d3 adbe c9de e8be 8227 b6be
000000b0: d4dc 87be f5d3 b0be 5867 99be 8de5 99be
000000c0: cb30 f2bd d695 e3bb 1268 4abc 3398 5c3d
000000d0: 0b3d b63c 78b8 ebbd 35a6 0abc abc7 ae3c
000000e0: 6bc6 20bd 5dd2 5ebc 55ed 3dbe cd04 19bd
000000f0: 6d85 10bd fadd 643b 4c8c dcbd d5fb e6bb
00000100: 9dd4 55bc 8fd3 a63c ddfe bbbc c652 9dbd
00000110: e249 7a3c 845c 353d 40e2 c6bd 7a4b 01bc
00000120: 54f9 2bbf 30b1 b6be 623c 14be 2e96 e1be
00000130: f33e fbbe fc60 13bf 2365 36bf 22f7 08bf
00000140: a0d7 17be 8b22 c3be 068f bbbe 2332 3fbf
00000150: f83f c6be 9699 5fbe b894 08bf 8553 29be
00000160: 7055 32bf c08d 15bf 2ebe 40be f76e 18bf
00000170: 25f3 3fbf f4e1 3ebf 1df4 10bf 6647 13bf
