models/UCF101_lstm_joints_model.pth (torch, 479447 bytes, 42 tensors)

weight_ih_l0 f4 [128, 132]
000000 d8 e8 0e 3d 20 e6 5e 3c 1e 78 14 be 98 0a 8f bc
       0.034890026 0.013604671 -0.14498946 -0.017461106
000010 40 a4 23 bb 6c 71 42 3d 48 ac 3a bd 80 5f ef ba
       -0.0024969727 0.04747145 -0.045574456 -0.0018262714
000020 24 3f 83 bd 80 dc b6 ba f6 37 a0 3d 1d 37 12 3e
       -0.064085275 -0.0013951212 0.07823174 0.14278837
000030 50 13 12 3c de 33 11 be 24 69 25 bd 08 69 23 be
       0.008915737 -0.14179942 -0.040383473 -0.15958035
000040 b0 cd d3 bd f8 89 8d 3c d8 ee e0 bd 42 b2 12 be
       -0.10341966 0.017277703 -0.10983056 -0.14325812
000050 e0 5a 4c 3d 9d a2 05 3e 0a d4 ad 3d 02 8a c6 bd
       0.049891353 0.13050313 0.08487709 -0.09694292
000060 98 25 1e bd ab 84 06 3e f1 51 0c be 76 fc aa bd
       -0.03861007 0.13136546 -0.13703133 -0.08348934
000070 d7 5a a4 bd db 66 a3 bd e6 13 f0 bd f8 45 66 bd
       -0.08025139 -0.079786025 -0.11722545 -0.05621907
000080 4b 8a 09 be 60 83 9a 3c e6 1b 03 be c1 de 1e be
       -0.13431661 0.018861473 -0.12803611 -0.15514661
000090 93 75 2e 3e 43 97 1f 3e 37 c9 27 3e 21 fe 82 bd
       0.17037039 0.15585046 0.16385351 -0.063961275
0000a0 6a 4b 5c bd ea a1 ed 3d 80 f8 36 3c 48 08 39 bd
       -0.053782858 0.11603148 0.011167645 -0.045173913
0000b0 40 1a 14 bd 00 fe 35 3a a8 5f 5e 3d bb f8 17 3e
       -0.036157846 0.0006942451 0.054290444 0.14840977
0000c0 3a 3a e1 3d 92 75 b3 3d 4b a7 22 3e 2b 10 1b 3e
       0.10997434 0.08762659 0.1588413 0.15142886
0000d0 73 aa 29 be c2 91 de bd b4 77 0b 3d 7c a0 65 bd
       -0.16568927 -0.10867645 0.034049705 -0.056061253
0000e0 77 74 82 bd e0 05 5b bc 39 32 20 3e 29 7d 23 3e
       -0.0636987 -0.0133681 0.15644158 0.15965714
0000f0 d0 b1 03 3d f8 cd 1a be 00 46 5d 3b 00 42 b7 bc
       0.032151997 -0.15117633 0.0033763647 -0.022370338
000100 8f dd 08 3e fb 26 34 3e f9 66 10 be 88 fa 0f bd
       0.13365768 0.17592995 -0.14101781 -0.035151035
000110 a7 4e 8b bd 05 94 13 3e 38 74 f0 bc bf 03 09 3e
       -0.06802111 0.14411934 -0.029352292 0.13380335
000120 ed e8 0b 3e 70 08 90 bd 74 d0 69 bd 38 45 99 bc
       0.13663073 -0.07032859 -0.057083562 -0.018709764
000130 97 79 a2 bd 68 b0 8f bc be c0 10 be a9 b5 e1 bd
       -0.07933348 -0.017540172 -0.14136025 -0.11020977
000140 28 98 80 3c 2b 35 14 3e f2 6c 66 bd 6a e6 6e bd
       0.015697554 0.14473407 -0.056256242 -0.05832521
000150 da 69 ac 3d 7a 8c eb 3d 04 28 81 bd d0 b8 35 3d
       0.08418627 0.11501403 -0.063064605 0.044365704
000160 40 4f 90 3d a0 8f 19 bd a0 69 2e 3c 42 44 82 3d
       0.07046366 -0.037490487 0.0106453 0.063606754
000170 ff b5 24 be 21 cc be bd 40 d5 de bc 4d 6a 33 be
       -0.16085051 -0.09316278 -0.027201295 -0.1752102
000180 fc 2b 49 3d 18 db 2d 3d 40 6d 34 3b cf f1 03 3e
       0.049114212 0.042445272 0.0027530938 0.12885211
000190 69 ee 1b 3e 4b 17 15 be 2c 4f 73 3d 3e fb 01 be
       0.15227665 -0.14559667 0.059401676 -0.12693498
0001a0 c0 18 da bc c8 ad f0 3c 6f ff 99 bd 56 70 b2 3d
       -0.02662313 0.02937974 -0.07519423 0.08712833
0001b0 a9 a2 28 3e 41 fd d9 bd 76 25 06 be 09 cd 0d 3e
       0.164683 -0.106440075 -0.13100228 0.13847746
0001c0 1c fc 1d be fe 41 8f bd 58 bc 88 bc 80 1e bd 3c
       -0.15428203 -0.06995009 -0.016691372 0.023085833
0001d0 29 5b 14 3e e2 a5 23 be 87 12 19 be 39 aa 06 3e
       0.144879 -0.15981248 -0.14948474 0.13150872
0001e0 fa cf 92 3d 9c 5a aa bd 82 d2 87 bd c8 fe 0f 3d
       0.07168575 -0.083180636 -0.06631948 0.035155088
0001f0 41 1e 1f be 15 40 30 3e 30 df 39 3d 3c af 2c be
       -0.15538885 0.17211945 0.045378864 -0.16863722
000200 70 d5 ee bc 20 15 80 3c c2 f0 ca bd b0 ee c2 bc
       -0.02915451 0.015635073 -0.09909202 -0.023795456
000210 0c ff 3d bd d2 11 be 3d 80 f4 61 bb 78 ff c1 bc
       -0.04638581 0.09280743 -0.0034478009 -0.023681387
000220 3c 66 1c 3d b0 99 64 3c 7a 99 9e 3d 32 a7 dd bd
       0.038183436 0.013952658 0.07744117 -0.108229056
000230 40 7a 94 3d a1 47 2f 3e bb df ad bd b8 1f 5a 3d
       0.0724988 0.17117168 -0.08489939 0.053252906
000240 80 af 5a bd 16 b9 d1 3d a0 75 02 bd f5 81 02 3e
       -0.053390026 0.102403805 -0.031850457 0.12744887
000250 e9 79 06 3e 10 e2 8c 3c b4 09 35 bd 64 74 5d 3d
       0.13132443 0.017197639 -0.044198707 0.054066077
000260 60 57 22 3c 72 63 fa 3d aa 15 aa 3d c2 c9 b3 bd
       0.009908527 0.12225999 0.08304913 -0.087787166
000270 7c 86 14 be 80 71 0a bd d1 0a 01 3e 89 76 e8 bd
       -0.14504427 -0.03379965 0.12601782 -0.11350734
000280 10 84 2d be 00 12 c3 bc aa ce 1f be 80 4f ef bb
       -0.16944909 -0.023812294 -0.1560618 -0.0073031783
000290 a0 f9 8f 3c c4 40 b3 bd 51 2e 2a 3e c6 dc ec 3d
       0.017575085 -0.087525874 0.16619231 0.11565547
0002a0 ad f3 80 bd c0 1e 63 3c 6b dd 9f bd 14 61 0d bd
       -0.062964775 0.013862312 -0.07805904 -0.03451641
0002b0 38 74 11 bd 8a 78 ef 3d 49 33 33 be 40 b3 0b 3d
       -0.035511225 0.11692913 -0.17500032 0.034106493
0002c0 a2 2a 11 be 8d 40 08 be 4d 07 0d 3e c3 28 8e bd
       -0.1417642 -0.13305874 0.13772316 -0.069413684
0002d0 7e 03 c9 3d 18 38 fd bc 40 40 36 3d 54 58 0e be
       0.09815119 -0.030910537 0.044494867 -0.13900882
0002e0 9e ad 82 3d 30 38 28 bd c6 9d a5 3d db 4e 82 bd
       0.06380771 -0.04106921 0.080867335 -0.06362697
0002f0 20 f2 03 be 1e d1 e3 bd 39 57 27 be 2b 3b ed bd
       -0.12885332 -0.1112387 -0.16341867 -0.11583551
000300 d0 81 4d bc 0a 50 9d bd 41 d4 aa bd 42 98 a4 3d
       -0.012543157 -0.07681282 -0.083412655 0.080368534
000310 20 7b a3 3b 80 1c 98 ba 3e cb c6 3d a6 d0 bb 3d
       0.004989043 -0.0011605173 0.09706734 0.09170656
000320 06 70 ec 3d d5 69 d5 bd 00 95 eb 3c 64 fb 07 be
       0.11544804 -0.104205765 0.028757572 -0.13279492
000330 c4 7e 28 bd e2 d7 f6 3d 50 de 58 bd 80 34 fb 3c
       -0.041136518 0.12052895 -0.05294639 0.030664682
000340 00 a8 22 bb d8 f9 ef bc ee 08 c1 bd 40 56 49 3c
       -0.0024819374 -0.02929394 -0.09425531 0.01228863
000350 f5 9c 95 bd ae 9b 15 be 3e 0f f5 bd 90 83 bf 3c
       -0.07305328 -0.14610168 -0.11965798 0.023378164
000360 88 b9 19 be 2a 7f 11 be 03 59 e2 bd e0 3e 88 3b
       -0.15012181 -0.14208665 -0.11052134 0.004157886
000370 cf 50 20 3e 31 4d 83 bd cf 1c 14 3e b8 25 98 bd
       0.15655826 -0.064112075 0.14464115 -0.07429069
000380 22 8e e7 3d e0 3d a0 3b 6e 72 ee 3d c8 cd e8 3c
       0.113064066 0.0048901886 0.116429195 0.028418437
000390 e5 22 0b 3e 79 c8 c2 bd a0 77 e9 bb 42 8c 9d 3d
       0.1358753 -0.095108934 -0.007124856 0.07692768
0003a0 9c 5c 14 be 86 6b d1 3d 96 c0 6a bd 80 9c 56 bc
       -0.14488453 0.102255866 -0.05731257 -0.013098836
0003b0 30 a4 b1 3c c7 34 26 3e 8a aa c4 3d 8c 7d da bd
       0.021684736 0.1623107 0.0960284 -0.106684774
0003c0 ae ad f9 3d 72 24 b4 3d 00 6a fd 3b dd 09 30 3e
       0.1219133 0.08796014 0.0077335835 0.17191263
0003d0 d8 42 01 3d 1a 22 1e be 1f 61 d8 bd 54 89 75 bd
       0.031557888 -0.15442696 -0.105653994 -0.05994542
0003e0 9e ce fb 3d be 17 c1 3d e0 e7 5d bd 00 b6 50 bd
       0.122952685 0.094283566 -0.05417621 -0.05095482
0003f0 30 71 3b bd 92 e4 e8 bd c0 df 59 3b 80 d8 80 3d
       -0.04576224 -0.11371721 0.0033244938 0.06291294

weight_hh_l0 f4 [128, 32]
000000 37 e9 ab 3d d5 60 0f be c0 2e 12 3e da ba 63 3e
       0.083940916 -0.14001782 0.14275646 0.22239247
000010 b8 37 ab 3c 70 ab 0f 3d 81 46 03 3e 7e f6 29 3e
       0.020900592 0.035075605 0.12819864 0.16597936
000020 f7 8c 47 be e6 b0 9c bd 97 23 8c bd af 60 a7 bb
       -0.19487368 -0.07650928 -0.06842726 -0.005107961
000030 d2 2f 22 bd 69 ee 2f 3e fc ef 2e 3e 73 16 48 bd
       -0.039596386 0.1718079 0.17083734 -0.048849534
000040 52 0f cc 3d 20 05 63 3e ac 44 17 be da 19 25 3d
       0.099638596 0.22169924 -0.1477229 0.040307857
000050 76 ec 48 3e 65 e6 84 bc 09 f0 62 3c 37 18 07 3e
       0.19621453 -0.016223142 0.013851174 0.13192831
000060 f4 cc 93 bd 68 26 e7 3d f2 c7 ad be f4 28 7a bd
       -0.07216826 0.11286622 -0.3394161 -0.061074212
000070 82 bc 91 ba b7 51 58 bd 6f 17 13 be 2b 9f 87 3c
       -0.0011118802 -0.052812304 -0.14364408 0.01655539
000080 6a 22 5d bd 81 ba 17 be f5 30 2f 3e 94 73 68 3d
       -0.053987898 -0.1481724 0.1710852 0.05675085
000090 ee ba b4 be 28 60 4c 3d 63 4c 9b 3e 93 af 19 be
       -0.35298866 0.04989639 0.30331716 -0.15008382
0000a0 5b 04 4f 3e bb 83 31 3e ac c7 14 3c 74 bd d2 bd
       0.20216505 0.17335407 0.009080809 -0.102900416
0000b0 3e c0 f5 3d 09 db d1 bd 21 06 02 3e 3a 00 a8 bd
       0.11999558 -0.10246856 0.1269765 -0.08203168
0000c0 5e f2 9a be 36 25 10 3d 50 c1 27 3d 18 ae 14 bd
       -0.30263036 0.035191737 0.04095584 -0.03629884
0000d0 64 e0 a1 be 11 3a f4 3b 6b 27 b1 bd 0d 31 c4 bd
       -0.3161651 0.007453211 -0.086500965 -0.09579668
0000e0 7b 8c 9d be c1 c4 91 3d e9 80 08 3e ef 1d db 3e
       -0.3077124 0.07117606 0.13330425 0.42796275
0000f0 1d 40 a7 bc d0 41 91 be c6 f5 1c 3e 6a 2f b1 3d
       -0.020416314 -0.28370523 0.1532813 0.08651622
000100 03 69 83 bd 4b 7e 87 be 7c 93 27 bd 2e 22 4f 3e
       -0.06416514 -0.2646354 -0.040912136 0.20227882
000110 47 35 cb 3d 20 64 80 3d ff 1d 3c bd 9e e7 e2 bc
       0.09922271 0.06269097 -0.045927044 -0.027698334
000120 21 5f fd 3d 2f 8c 36 bd e2 44 1d bc 1d 84 f9 bd
       0.1237166 -0.044567283 -0.0095989425 -0.12183402
000130 4e 5d c5 3d 0c 5a 10 be 9d 42 c1 3d be ec 38 bd
       0.09636937 -0.1409685 0.094365336 -0.04514765
000140 c5 f6 a0 3d 3e 82 78 3c e2 e7 26 be 2d fd 05 3e
       0.078595676 0.015167771 -0.16299394 0.1308486
000150 57 e8 7f bd 32 5c 52 3e 0e 6a a9 bd 1e c7 25 be
       -0.062477436 0.20542982 -0.082721815 -0.16189238
000160 65 a5 db bd 49 b7 fc bd f8 ea ff bd 7f db a9 bd
       -0.10724906 -0.12339646 -0.124959886 -0.08293819
000170 e2 70 ee bc 0f c3 ad bd f6 ad 19 3e 5f 89 7a 3d
       -0.029106561 -0.0848447 0.15007767 0.061166164
000180 4e a7 98 bd cf 11 a1 3d 0b 36 a1 3e 12 49 89 3e
       -0.07453786 0.07864725 0.31486544 0.2681356
000190 d9 71 af bd 17 98 fc 3d 86 20 6f bd cb 4e e5 bd
       -0.085666366 0.12333696 -0.058380626 -0.11196669
0001a0 2c 7a 87 3d 8e a3 ad 3d 56 6f 95 be d2 6a 05 be
       0.06615099 0.08478461 -0.29186505 -0.1302903
0001b0 f5 15 2e bd 25 b8 d5 bd c4 22 c6 3d 0b 3a b9 be
       -0.04250141 -0.104355134 0.096746 -0.36177096
0001c0 aa 18 5a be 6e f5 8c 3d bf fa a1 bc 2e b3 4d 3e
       -0.21298471 0.068827495 -0.019772885 0.20087883
0001d0 d6 6e 35 3c 61 86 b8 3e fe f9 9b bc c6 a4 e8 bd
       0.011073789 0.36040023 -0.019040104 -0.11359553
0001e0 d7 73 13 be ed f1 2a 3e 9b cf 2a bc 0a 46 de 3d
       -0.14399658 0.1669385 -0.010425474 0.10853203
0001f0 07 a9 3d be 19 7d bd be a4 98 64 3e f8 ad 32 3e
       -0.1852151 -0.37009504 0.22323853 0.17449176
000200 20 06 2d 3e d0 80 94 be dc 08 18 3e b3 18 82 3d
       0.16896868 -0.29004526 0.1484713 0.06352367
000210 06 c5 0e be 8d df 95 3d be f6 36 3d 01 07 d8 bc
       -0.13942346 0.073180296 0.044668905 -0.026370527
000220 67 d3 98 3d 63 be 9c bc a0 e6 8e bd 33 dc 2b be
       0.07462197 -0.019133752 -0.06977582 -0.16783218
000230 47 5f 89 bd dc b3 20 bd 80 5e a7 bc dd ce ad be
       -0.06707626 -0.039234027 -0.020430803 -0.33946887
000240 2a da 2c 3e 14 7c f0 3d fa 0a 70 be d5 f7 89 3d
       0.16880098 0.11742416 -0.23441687 0.06736723
000250 bd 26 ae be 8b 08 72 3e 9e 40 51 be 0b 6e 1f be
       -0.3401393 0.23636071 -0.20434806 -0.15569322
000260 9f fe 34 bc 74 8d 47 3d 75 13 07 bb d1 da 66 3e
       -0.0110470345 0.048718885 -0.0020610963 0.2254441
000270 d4 0b 25 be 26 f2 95 be 1a cf 33 3e 70 07 0e 3e
       -0.16117793 -0.29286307 0.17559472 0.13870025
000280 e8 97 80 bd 97 b7 67 bd 02 11 06 3e 12 47 52 3e
       -0.06278974 -0.05657157 0.13092425 0.20534924
000290 24 8c 17 be ca 75 e6 b9 21 81 48 bd 10 b6 b2 3d
       -0.14799553 -0.00043956778 -0.048951272 0.08726132
0002a0 c9 66 bf bd 1a 08 d2 bd 55 3d 82 be f3 55 2d 3e
       -0.093457766 -0.102554515 -0.25437418 0.16927318
0002b0 a9 07 7a bd f3 f5 59 3d 73 0c 0d be 3f 70 39 be
       -0.06104246 0.05321307 -0.1377428 -0.18109225
0002c0 c1 b4 c3 3d 91 cb 1b 3e 0f e5 45 be 18 4e c0 bd
       0.095559604 0.15214373 -0.1932566 -0.09389895
0002d0 83 bd 3b be 4d 71 77 3e e3 78 c2 bc 8a a1 ca 3c
       -0.18334012 0.24164315 -0.023739284 0.024735231
0002e0 2b d6 91 3d 9c 20 6e 3e bd 4d ee bd 84 e3 00 3e
       0.071209274 0.23254627 -0.11635921 0.1258679
0002f0 e4 cf 4d 3d ac 10 41 be ea e7 09 be e6 71 e8 3d
       0.050247088 -0.18854016 -0.13467374 0.113498494
000300 96 9a 8a be 87 e4 53 be 02 f7 37 3d 71 92 87 3d
       -0.27071065 -0.20692645 0.0449133 0.06619728
000310 79 38 c6 bd 04 2d 64 3e 5d 50 18 bc cd e4 c6 3c
       -0.0967874 0.22282797 -0.009296504 0.024279023
000320 7a b4 ae bc 4b 17 9b 3d 08 f2 1d be 34 d4 29 3e
       -0.021326292 0.07572802 -0.15424359 0.16584855
000330 25 1f ae 3d 23 1f 7d bd 83 f0 40 bd f8 0c 22 be
       0.08502034 -0.061797272 -0.04710437 -0.1582526
000340 8e e3 da 3d 53 6f a7 3d 18 ef 41 be 37 40 70 3e
       0.10687934 0.0817553 -0.18938863 0.23461996
000350 dd 34 26 3c 11 b7 0d 3e ae 8a 27 bc de 9f 2a be
       0.0101444395 0.13839366 -0.010225935 -0.16662547
000360 57 ca 0f be fb 05 39 3e d2 f3 01 be 78 3b 00 be
       -0.1404203 0.18068688 -0.12690666 -0.12522686
000370 6a 6e 80 3b ac ad 19 be cf 13 cd 3d 2c d6 99 3e
       0.0039194124 -0.15007657 0.10013544 0.30046213
000380 c9 31 44 3d 76 c5 85 3c 2e a1 b3 bd cc b3 80 3e
       0.04789904 0.016329508 -0.08770977 0.25137174
000390 94 32 5b 3e 28 ba 2a bd 35 c8 06 3e 0c 11 08 be
       0.21406013 -0.04168144 0.1316231 -0.13287753
0003a0 4e fa b4 bd 18 fe 7b bb 3c 5d 2c bd f6 b3 a6 bc
       -0.08836804 -0.0038451012 -0.042081103 -0.020349484
0003b0 75 ed 22 be 6e 57 88 bd df 6f a1 bc 24 cb 4b bd
       -0.15910895 -0.06657301 -0.019706665 -0.049754277
0003c0 bb 0e 1a bb b4 e9 b4 bc d2 7f 2c 3e 2a 6a 41 3e
       -0.0023507315 -0.022084095 0.16845635 0.18888155
0003d0 71 b2 cf 3c 36 d6 dc bb 14 25 ad bd f0 1f 6e 3d
       0.025353642 -0.006739403 -0.08454338 0.058135927
0003e0 5e 36 c4 3d 71 d4 33 3e 94 9f 5a be 13 e2 64 3d
       0.09580682 0.17561509 -0.21349937 0.055879664
0003f0 df 78 0c 3e 42 1a 01 be da 4b 0d 3e 06 a2 0c bd
       0.13717984 -0.12607673 0.13798466 -0.034334205

bias_ih_l0 f4 [128]
000000 9e 3c 54 be 1a e3 a0 be 01 a5 97 be 96 b1 d8 be
       -0.20726249 -0.31423265 -0.29618075 -0.42322987
000010 14 d1 80 be 28 37 3b be 6c 12 fe bd b3 a1 04 be
       -0.25159514 -0.18282759 -0.124058574 -0.12952308
000020 73 20 62 be e7 8b 9d be f4 cd b8 bc dd 7e de be
       -0.22082691 -0.307708 -0.022559144 -0.43456164
000030 3c e2 c2 bd a2 c2 fc bd 4c 26 94 be 92 3a 51 be
       -0.09515807 -0.12341811 -0.28935468 -0.20432499
000040 25 67 74 be a7 6f ab 3c f1 e2 d1 3c bd f6 43 bd
       -0.23867472 0.020927263 0.02562091 -0.04784273
000050 b7 65 da bd d6 86 03 be 8a b0 69 be 04 de c7 be
       -0.10663932 -0.12844405 -0.2282125 -0.39036572
000060 f2 05 9f be 85 0c 90 bd 3d fc 60 be 69 93 ba be
       -0.31059223 -0.07033638 -0.21971221 -0.3644059
000070 eb 51 a4 be c0 5d e4 bd 29 43 83 be c0 de 6c bd
       -0.32093748 -0.11150694 -0.25637177 -0.05782962
000080 17 6f 8c be 9c 5c b2 be 4f 76 40 3d 7a 32 de be
       -0.27428505 -0.3483628 0.046987828 -0.43397886
000090 13 f6 45 be da 34 58 be 42 14 9a be a5 23 d7 bd
       -0.19332151 -0.21113911 -0.3009358 -0.105048455
0000a0 c6 9d b7 bd 7b f9 85 be 6f 52 b3 3c 78 74 c5 be
       -0.0896564 -0.261669 0.021889893 -0.3856542
0000b0 e4 6b a9 be e2 09 c8 bd 14 87 8c be d6 d3 00 be
       -0.33090127 -0.0976751 -0.27446806 -0.12580809
0000c0 90 dc 80 be af 1d 68 bd 0c 21 22 be 68 91 ec bc
       -0.25168276 -0.056668933 -0.15832919 -0.028877929
0000d0 40 7a 13 be 61 1e 0d bd 51 a7 ba be db 66 2b be
       -0.14402103 -0.0344528 -0.36455777 -0.16738455
0000e0 16 80 3f be 2e 9f 63 bd e7 bc 80 bd a0 cb 29 be
       -0.18701205 -0.055571727 -0.0628603 -0.16581583
0000f0 96 f4 8f be 3b a0 82 3d 7d b0 98 be 01 01 3c be
       -0.28116292 0.06378218 -0.2982215 -0.18359758
000100 e4 b5 c7 bd e2 e6 ac 3d 6e 82 9e bd 6e e5 ba bc
       -0.0975149 0.08442475 -0.07739721 -0.022814479
000110 4f 04 56 bd cf cf 13 3e fb 49 46 bc 11 f0 1d be
       -0.052250203 0.14434741 -0.012102599 -0.1542361
000120 04 df 44 3d 73 39 8c bc 2b d5 dd 3d ff 4b 96 bd
       0.048064247 -0.017117238 0.10831674 -0.07338714
000130 b4 f3 38 3e aa da a8 3d 83 7c 3f bd 77 3f ab 3d
       0.18061715 0.08244832 -0.046749603 0.08361714
000140 a0 13 d3 bd 7c f9 56 3d 89 af 08 3d 0e 1a 88 3d
       -0.103064775 0.05248402 0.03337053 0.066455945
000150 a0 fe d2 3c ae 40 1e be c2 9c f6 3d 9b 5e ce bd
       0.02575618 -0.15454361 0.12041618 -0.10076638
000160 f9 3d 15 bb 4f 35 a0 bd 41 c4 21 3e 95 76 8d bd
       -0.0022772534 -0.07822668 0.15797521 -0.06907383
000170 3f cd d2 3d d2 80 c5 3d 34 4a 9d bd 00 41 82 bd
       0.10293054 0.09643711 -0.07680169 -0.06360054
000180 5f 56 6e be 60 80 87 be 87 2e 1b be 46 f5 d6 be
       -0.23275135 -0.2646513 -0.15154468 -0.41984004
000190 f8 a5 8d be a7 eb 19 be 9a c7 87 be 09 c2 23 be
       -0.27665687 -0.150313 -0.2651947 -0.15991987
0001a0 f3 fb a9 bd 26 05 84 be cf 85 f4 3d d5 b1 db be
       -0.083000086 -0.25785178 0.119395845 -0.42909113
0001b0 33 a3 66 be 9f 7a cf be d5 2f 65 be 31 78 c6 bc
       -0.22523193 -0.4052324 -0.22381528 -0.024227234
0001c0 66 ba bb be 0d be 86 be 9b bd 20 be 42 44 45 be
       -0.36665648 -0.26316872 -0.15697329 -0.1926432
0001d0 ae 5f ac be a1 b9 07 3d 77 b6 c7 be 1d cc 32 be
       -0.33666748 0.033136014 -0.39006397 -0.17460676
0001e0 80 d9 d6 bc ac 91 3b be 0e 41 10 be 25 7e 81 be
       -0.026226759 -0.18317288 -0.14087316 -0.25291553
0001f0 4e 50 92 be c3 0c 3a be ad 85 c0 be aa cf 89 bd
       -0.28576893 -0.1816893 -0.37601987 -0.06729062

bias_hh_l0 f4 [128]
000000 88 f9 d7 bd 2f 58 10 be c6 8a 28 be 46 95 5b be
       -0.10545641 -0.1409614 -0.16459188 -0.21443662
000010 5f 68 e2 be 0b b4 e4 be 45 cd f5 bd a7 fd 8a be
       -0.44220254 -0.44668612 -0.12002043 -0.27146646
000020 85 1f 12 be c9 3f a9 be c3 ee 41 be b5 e7 d1 be
       -0.14269836 -0.33056477 -0.18938737 -0.4099709
000030 50 1a 7e bc c4 42 d2 be a9 c7 01 be 0f 59 3e bd
       -0.015509203 -0.41066563 -0.1267382 -0.04647165
000040 62 4f c1 be 23 34 80 be c2 5a e1 bd 0e f2 29 be
       -0.37755877 -0.25039777 -0.11003639 -0.16596243
000050 2e b2 d2 bd 2f b8 21 be ec 23 04 be 71 02 c0 be
       -0.10287891 -0.15792917 -0.12904328 -0.37501863
000060 c3 16 64 be 07 8c 97 be 6c 18 c8 be b7 39 ef be
       -0.22274308 -0.2959902 -0.39081132 -0.4672372
000070 5e be 56 be ed 53 61 be 53 17 a0 be 7c f4 f8 bc
       -0.20971057 -0.22004671 -0.31267795 -0.030390017
000080 fb b1 8f be 37 c8 34 be 3e 0b 53 be 6a 0e c0 be
       -0.28065476 -0.17654501 -0.20609757 -0.37510997
000090 da 9f 50 be c1 e8 42 be 3c 42 ac bd 18 ca 70 be
       -0.20373479 -0.19034101 -0.08411071 -0.23514593
0000a0 67 fa 8e be 84 af 68 be f6 cd cc bd de fa ea be
       -0.27925417 -0.22723204 -0.100002214 -0.4589452
0000b0 12 d4 20 be ae 48 b8 bd 99 44 98 be b6 fa 43 bd
       -0.15705898 -0.089982376 -0.29739836 -0.04784652
0000c0 4e 7f 84 be 3b 65 13 be bc 9d b8 bd 61 a5 b0 bb
       -0.25878376 -0.14394085 -0.090144604 -0.0053908085
0000d0 99 9e aa be ed ea 0e 3d 59 38 af be eb 0a 69 be
       -0.33324125 0.03489201 -0.34222677 -0.22758071
0000e0 37 9a 22 be 54 8d 21 be 70 b5 94 be 38 6c 47 be
       -0.15879141 -0.15776569 -0.29044676 -0.19474876
0000f0 a4 7d 97 bd fa 49 87 bc 3a bf 89 be 53 27 63 be
       -0.07397011 -0.016514767 -0.26903707 -0.2218297
000100 dd 91 7b 3d b4 ad 6b bd 8e 7b cf bc a1 9b 94 bc
       0.061418403 -0.057538703 -0.02532747 -0.018140616
000110 59 c1 2e bc 71 c6 22 be 2e f8 44 3d 95 9c b5 3d
       -0.010666215 -0.15896012 0.048088245 0.08867756
000120 aa 9d 58 bc 63 55 a1 bd 0a 80 1b 3d 51 64 c0 3c
       -0.013221184 -0.07877614 0.037963904 0.023485335
000130 7e f2 fc bd db 2b 14 be f1 2e 4e 3d d3 90 c7 bd
       -0.12350939 -0.14469855 0.050337736 -0.0974442
000140 47 8e 95 3d 8e 09 0a be cb 73 2f bd 0a 00 03 be
       0.07302528 -0.13480207 -0.04283504 -0.12792984
000150 d9 71 a0 3d 6e 52 4f 3d 7d d1 9e bd 4b f3 1d 3d
       0.07834215 0.05061572 -0.077548005 0.0385621
000160 35 3d ad bb 19 1c 81 bd f1 d9 b8 bd 75 4f 04 3e
       -0.0052868375 -0.06304187 -0.09025944 0.12920935
000170 df da 25 be 9e 24 80 3d 47 8b 3a 3c c8 1f 45 bd
       -0.16196774 0.06256984 0.011385745 -0.048126012
000180 67 c7 89 be c3 e2 ec bd f9 e0 96 be cc b1 8a be
       -0.26909944 -0.11566689 -0.29468516 -0.27088773
000190 54 e8 54 be 4f 4f ef be 62 fd cc bd 66 1a 47 bc
       -0.20791751 -0.46740195 -0.100092664 -0.01215229
0001a0 20 2a d3 bd c1 ee 8a be d3 1c e9 bd ce d3 33 be
       -0.10310769 -0.2713528 -0.11382451 -0.17561266
0001b0 da 86 71 be 34 35 7f be d6 c5 6a be ba fb 12 be
       -0.23586598 -0.24922639 -0.22927031 -0.14353839
0001c0 95 61 90 be 9a 16 89 bd 9a 6b 82 be ad b7 5e 3c
       -0.2819945 -0.06693764 -0.25472718 0.013593596
0001d0 d1 61 4e be 86 c9 04 3e f8 de b3 be 14 45 a0 be
       -0.20154501 0.129675 -0.3513105 -0.31302702
0001e0 04 16 a2 be 3d b8 97 be 54 e5 4a be 87 6b c5 be
       -0.31657422 -0.2963275 -0.19814044 -0.385586
0001f0 61 86 3a be 34 6b 15 be 45 e2 90 be 57 6c 86 be
       -0.18215324 -0.14591676 -0.2829763 -0.26254532

weight_ih_l1 f4 [128, 32]
000000 a4 b2 01 be 02 68 7e bd 5c fc 95 3e 80 8e 12 be
       -0.12665802 -0.06211091 0.29294097 -0.14312172
000010 f8 7a 26 be af 99 53 be 20 4a 2a be 05 f4 60 be
       -0.16257846 -0.20664094 -0.16629839 -0.21968086
000020 ed 05 7a bc 36 63 57 bd cf 2b f6 bd 0f 54 20 3d
       -0.015260202 -0.05258485 -0.120200746 0.039142665
000030 e9 93 3b 3d 87 79 57 be 6a 0a c6 bd 24 b9 ad bc
       0.045795355 -0.21042453 -0.09669955 -0.021206446
000040 16 d6 8e 3c 34 0e 26 3e dc ae 4c 3c 7b 8c bb bd
       0.017436069 0.16216356 0.012492862 -0.09157654
000050 a2 09 d7 bd 6d ea b7 3d ab 68 d3 bd 4a 7f 25 3d
       -0.10499884 0.0898026 -0.10322698 0.040404595
000060 fb a9 92 bd dd 42 82 3e 72 db 4c 3e b7 7c 73 3e
       -0.071613275 0.25441638 0.20005587 0.23778044
000070 dc 6f 63 3d 41 d8 8f be 98 3f 83 3d 33 e3 f9 3d
       0.0555266 -0.28094676 0.06408614 0.12201538
000080 ed 95 01 3e cb 75 f3 bd 79 d8 83 bc 24 c3 c8 bd
       0.12654848 -0.118877016 -0.016094433 -0.09802845
000090 8b 8b 44 3e 60 99 86 bd ec 2e d5 3d a2 83 60 3d
       0.19193856 -0.06572223 0.1040934 0.054813035
0000a0 a8 bc 23 bd 08 31 ad bd 27 f1 3e bc dd 47 66 bd
       -0.03997484 -0.084566176 -0.011654175 -0.056220878
0000b0 c7 74 5b 3e d2 c1 12 3e 4d 14 85 3d 8c 39 3c be
       0.21431266 0.14331749 0.06498013 -0.18381327
0000c0 86 56 b7 bd 2c 91 e5 3c 37 28 92 3d c1 0c 69 bd
       -0.0895205 0.028023325 0.071365766 -0.05689693
0000d0 60 9e c9 bd cd 52 97 3e 17 96 61 be 91 e1 7f 3d
       -0.09844661 0.2955536 -0.22029911 0.062470976
0000e0 89 0b 45 be f9 4f 5b 3e ea 4d 7d 3c 91 5c bb 3d
       -0.19242682 0.21417226 0.015460471 0.09148515
0000f0 b8 62 b6 3d 80 9d d9 bc f9 02 3e 3e a9 f0 8c bd
       0.08905548 -0.02656436 0.18555821 -0.0688184
000100 15 2a 49 bd 96 38 ad bd 5b 8c 7d bd 18 2b 29 3e
       -0.0491124 -0.084580585 -0.06190143 0.16520345
000110 87 bc 06 3e 3b ba b8 bd 8b a7 13 3d 97 70 3c 3e
       0.13157855 -0.09019896 0.036048453 0.18402325
000120 e3 ea 1d bd 85 35 20 bc ee be 73 be 8c df 59 3e
       -0.038554084 -0.009778385 -0.23803303 0.21276683
000130 89 ad b9 3d b9 89 56 3e 3f 13 00 3e 23 59 a8 bd
       0.09066302 0.20950975 0.12507342 -0.082201265
000140 ef f0 d7 3c 76 7c 10 3e 2f 79 89 3d a6 2b cd 3d
       0.026360003 0.14109978 0.06712567 0.10018091
000150 ff f1 d6 bc 0b 78 20 3d 6b f4 15 bd a3 7c c3 3d
       -0.02623844 0.039176982 -0.03661005 0.09545257
000160 b0 d0 5e be 9a 4a 7d 3e 92 ee 43 bd 74 9f 04 be
       -0.21759295 0.2473549 -0.04783494 -0.12951452
000170 8b 63 02 3e a5 e9 07 be ad 97 0a be 1a 4e 3b bd
       0.12733285 -0.13272722 -0.13534422 -0.04572878
000180 ca 59 d1 bc 61 5d e6 bd e3 94 f6 3d 67 c4 23 3d
       -0.02555551 -0.11248279 0.12040117 0.039982226
000190 9c 83 89 3d 2c 0c 5d be df 93 ec 3c df b3 8b 3d
       0.067145556 -0.21586674 0.028879104 0.06821417
0001a0 42 19 dd bc 2c 1b cd 3d 70 9e 91 be e6 98 cd 3d
       -0.026989583 0.10014948 -0.2844119 0.10038929
0001b0 35 05 bc 3d d2 84 65 3d a5 1c 5a 3e 09 53 9d be
       0.09180681 0.05603487 0.2129999 -0.30727413
0001c0 5d d8 86 bc 5e 43 b1 3d b9 59 14 3d 35 b5 0e 3e
       -0.016460592 0.086554274 0.03621838 0.13936312
0001d0 26 46 f0 bd ab b1 b4 3e b9 0d 29 be 4b 99 b1 3c
       -0.1173213 0.352918 -0.16509141 0.021679541
0001e0 fa 91 28 be 12 76 48 3d 6e 33 f9 3c c7 8c 8e 3c
       -0.16461936 0.048940726 0.030420031 0.017401112
0001f0 d3 63 f9 bc bf cf 45 be 92 f1 c0 bd 2c 88 ab 3c
       -0.030443108 -0.1931753 -0.09421076 0.020938955
000200 3e 9f 06 be 04 e8 f6 bd 3b ae ed 3e eb 14 60 3e
       -0.13146684 -0.12055972 0.4642199 0.2188298
000210 32 8a a5 3d 2f 25 21 3d 1f 9a 3e 3e 5a ef b7 3d
       0.08082999 0.0393421 0.1861348 0.089811996
000220 36 e5 49 be 1c d3 e5 3d 8e c1 09 be 49 8e 3d ba
       -0.19716343 0.112219065 -0.13452742 -0.000723098
000230 63 43 d9 bd 66 0a aa 3d e3 aa ee bc d7 d2 80 be
       -0.10608556 0.083027646 -0.02913422 -0.25160858
000240 19 53 24 3e 1c a5 14 3e 00 6b de bd a7 50 0d bc
       0.16047324 0.14516109 -0.108602524 -0.008625186
000250 9f 6e 90 be 83 2e 44 3e 43 6e b8 bd 91 46 04 bd
       -0.28209397 0.19158368 -0.09005406 -0.03229386
000260 61 e3 82 3c 44 ff 1b 3e 30 c4 29 bd 0d 51 7a 3d
       0.015977563 0.15234095 -0.041446865 0.061112452
000270 2d dc 50 bb 1a 1d ea be a7 d9 a0 3d f4 ab 18 3e
       -0.0031869516 -0.45725328 0.07854014 0.14909345
000280 0d 96 0f 3e ae 46 ee bd 41 a3 1b 3d 40 05 42 3e
       0.14022084 -0.11634575 0.037997488 0.18947315
000290 41 5d 15 bd 5a 2d 19 bd af dc 87 3d a0 03 28 3e
       -0.036465887 -0.037396766 0.06633889 0.16407633
0002a0 84 4e 13 be e4 d3 8c 3d 0c 98 26 be 67 e9 d5 bc
       -0.1438542 0.068763524 -0.16268939 -0.026112271
0002b0 f9 98 e7 3d 94 b4 a5 bb 7a be 37 3e 36 41 66 be
       0.11308474 -0.005056927 0.17943755 -0.22485813
0002c0 56 7f 4f bc 4a cb 3f 3e b3 18 7c bd 7f d4 5e 3e
       -0.012664637 0.18729892 -0.061546993 0.21760748
0002d0 f2 6a 9d bd fa db 5c 3e f7 cc f4 bd a3 da d6 3d
       -0.07686414 0.2156829 -0.119531564 0.104909204
0002e0 6f 32 29 be 3e 76 98 3e e5 ac 8c be d1 39 6f be
       -0.16523145 0.29777712 -0.27475658 -0.23361899
0002f0 ec dd d8 bc 31 b3 5a be dc d4 89 3d 6e 19 bf 3e
       -0.026473008 -0.21357419 0.06730053 0.3732409
000300 b0 10 23 3e 4a bc 30 be 87 07 2d 3d c6 2c 98 3d
       0.15924335 -0.17259327 0.042243507 0.07430415
000310 37 6e 9d bd 4a 1e 70 bd af 08 8e 3c b9 11 96 bc
       -0.076870374 -0.058622636 0.017338125 -0.018318998
000320 fd dd 77 bd f2 49 49 be a1 8d c3 3c 09 8b eb bd
       -0.06051444 -0.19657114 0.023871245 -0.11501128
000330 aa d7 97 3e 41 9d 58 be 28 13 55 be 5a 08 e5 3d
       0.29656726 -0.21153738 -0.20808089 0.111832336
000340 35 5d 05 be 22 2c d3 3d 50 d3 5b be 92 60 3f 3d
       -0.13023837 0.10311152 -0.21467328 0.046722956
000350 c3 6e 73 bd f8 40 0d 3e 98 53 38 3d 7b b6 0a be
       -0.059431802 0.13794315 0.045001596 -0.13546173
000360 93 a2 7b 3d 48 0a 6e 3e fa 67 6d bc af fb 63 bd
       0.06143434 0.2324611 -0.014490122 -0.055659946
000370 73 c9 96 be 46 6f 57 be 22 36 9a 3d 3b ec d7 3d
       -0.2945057 -0.21038541 0.07529856 0.10543104
000380 ba 90 01 bc 28 c9 29 be b5 b6 2c 3e ff 2f ea 3c
       -0.007908041 -0.16580641 0.16866572 0.02858734
000390 cb 2e bc 3d 45 ce ef bd b7 ea 27 be d5 a0 bb bb
       0.091886126 -0.11709265 -0.1639813 -0.00572596
0003a0 f7 5a 14 3e 9d e6 cd bb 41 79 5c be 12 df 40 3d
       0.14487825 -0.0062835948 -0.2153063 0.047087736
0003b0 3b 1a 8d 3d f3 08 be 3d 64 64 53 3e 06 81 55 be
       0.06889769 0.09279051 0.20643765 -0.2085
0003c0 93 60 fa 3c 44 d8 e8 3b f8 a9 92 bd d8 8a 2a 3e
       0.030563628 0.007105859 -0.07161325 0.16654527
0003d0 b4 3d 0c 3d 03 ff a6 3e 44 f1 8b be 26 ee 28 3e
       0.034238532 0.32616434 -0.2733251 0.16497096
0003e0 da 81 9a b9 e1 e6 a1 3e 6a 19 83 be af 7a db 3d
       -0.00029469916 0.3162146 -0.25605327 0.107167594
0003f0 f0 fa 1e 3d 81 0b 9c be 04 69 17 3d da 6a 68 3c
       0.03881353 -0.30477527 0.036965385 0.014185632

weight_hh_l1 f4 [128, 32]
000000 c1 d1 26 3d b0 9f fa 3d 4f b0 78 bc 64 46 93 be
       0.04072738 0.12237489 -0.015178754 -0.2876464
000010 54 d7 30 be 7c 0b 79 3e 31 7a 70 be 60 bb 44 be
       -0.17269641 0.24320787 -0.23484112 -0.19212103
000020 4e e9 b8 3d f5 97 ee 3d 62 2b 7c be f0 99 7e 3d
       0.09028874 0.11650077 -0.24625924 0.062158525
000030 ca c6 6e be bc 80 39 3e bb 42 62 be 15 64 55 3c
       -0.2331802 0.18115515 -0.22095768 0.01302435
000040 0b e4 b6 bd a4 2d 64 bc 61 b3 09 3d 97 c0 5d be
       -0.089302145 -0.013926897 0.033618335 -0.21655498
000050 a4 e0 79 3e c2 d5 fa bc d8 bd ac be dc 6a 9f bc
       0.244021 -0.030619506 -0.3373859 -0.019460134
000060 ea a1 58 bd a1 e4 45 be a3 cf 31 3c 98 50 79 3e
       -0.05288879 -0.19325496 0.010852727 0.2434715
000070 2f 0a 39 3e 05 0d fa bb c1 6c 1c bb 35 a4 82 3b
       0.18070291 -0.0076309466 -0.0023868533 0.00398686
000080 0d 24 a9 be 3b c7 0d be 93 f9 3a 3d 97 56 ee 3d
       -0.33035317 -0.13845532 0.04564817 0.116376095
000090 b0 5b de bd e4 19 01 3e 2e f2 df bd 18 05 cb bd
       -0.10857332 0.12607533 -0.10934864 -0.09913081
0000a0 0b 9a 38 3d e4 9b 2d bd 2e 80 cf be 56 a5 65 3e
       0.04506878 -0.042384997 -0.4052748 0.22426352
0000b0 c0 d5 5a bd 8a f9 36 be fe 44 ca 3c 6f bc f8 bc
       -0.053426504 -0.17868629 0.024691101 -0.03036329
0000c0 29 2f f9 3c cf 1c a0 3d ba 51 1b be 19 93 08 bc
       0.030417996 0.07817995 -0.15167895 -0.008335852
0000d0 d0 fe 46 bd 92 1e 4a be bf 82 87 bd 5b b1 2e 3d
       -0.048582852 -0.19738224 -0.06616735 0.042649608
0000e0 7a f0 80 3b 21 58 16 be c4 8a 3a be f8 d8 7a bd
       0.003934917 -0.14682056 -0.18216997 -0.061242074
0000f0 ad 5e 3b 3e a2 25 12 be ca 3c bd bd f3 78 42 3e
       0.18297835 -0.14272168 -0.0924011 0.18991451
000100 45 82 85 be 2c bc b7 bc e0 08 fc bd 90 fb e3 bd
       -0.2607595 -0.022428595 -0.1230638 -0.11131966
000110 6c 58 9d 3e 79 d6 54 3e a0 11 82 be 2d a1 db bc
       0.30731523 0.2078494 -0.25404072 -0.026810253
000120 5b d2 88 3b 08 9d 10 3d 14 ba 8e be fe 5e 4b 3b
       0.004175467 0.035306007 -0.2787634 0.0031031962
000130 6d 94 54 3e a7 75 3d be db d0 22 bd 1a bd 32 be
       0.20759745 -0.18501912 -0.03974996 -0.17454949
000140 9a 39 c8 3d 91 8b 4b 3e 87 2c 79 bb 67 fb 94 be
       0.097766116 0.19877459 -0.0038020925 -0.29098055
000150 1c 62 42 3d 9f d0 93 be d7 57 0f 3d 7c 9a 8a be
       0.047456846 -0.28870103 0.03499588 -0.27070987
000160 56 bf ea bb 70 ab 34 bb 76 1c 3d bd 15 fc dc be
       -0.0071639223 -0.0027568005 -0.04616972 -0.43161073
000170 7e 33 23 bd 9c 84 f3 3d bb 06 1a be ef 6c 94 3d
       -0.03984403 0.118905276 -0.1504163 0.0724734
000180 34 87 09 be b1 91 10 be 30 d6 21 bd ce 9b ed bc
       -0.13430482 -0.14118077 -0.039510906 -0.029004958
000190 b2 0c 03 be ac 64 3c 3e 76 ee d0 be cd 96 23 be
       -0.12797812 0.18397778 -0.4080693 -0.15975495
0001a0 b8 26 43 be e0 7e db 3d f6 76 a2 be dc fc 78 3e
       -0.19057739 0.10717559 -0.31731385 0.24315208
0001b0 23 4d 63 3c 34 08 31 3c 73 fb 67 3e b0 52 e7 be
       0.013873371 0.010805178 0.22654514 -0.45180273
0001c0 33 75 49 3e 23 63 f2 bd eb 43 0b be 94 0f 42 be
       0.19673614 -0.11835315 -0.13600127 -0.18951255
0001d0 3e 97 00 bd 0f 93 ba be fb 37 19 be 79 8d d9 bd
       -0.031394236 -0.36440322 -0.14962761 -0.10622687
0001e0 35 d6 7d 3c f4 3d 96 be cb 06 dd bd ba 49 9f bd
       0.0154929655 -0.2934414 -0.10792311 -0.07777734
0001f0 4b b2 9c 3d 07 ed 4d 3e 74 93 53 be 08 cd 82 3e
       0.07651194 0.2010995 -0.20661718 0.2554705
000200 45 30 76 be 43 67 76 be 29 68 9e be 9a 16 53 be
       -0.24041851 -0.24062829 -0.30938843 -0.2061409
000210 1f 6d 54 3e e0 90 52 3d ca b7 85 bd 38 51 4c 3d
       0.20744751 0.051407695 -0.065291956 0.049882144
000220 de 6f 48 3e 40 7c 6d 3e b1 e9 6f be eb d9 28 3d
       0.19573924 0.23191929 -0.2342899 0.041223448
000230 ec 62 87 be ad ff 1e be 3f c9 a6 bc d3 b0 94 be
       -0.2644266 -0.1552722 -0.020359633 -0.29041156
000240 33 39 d0 3c a7 d7 80 3d a8 7a bb 3d d5 bc 9e be
       0.0254179 0.062911324 0.09154254 -0.31003442
000250 a6 64 d8 bd 44 27 0d be 04 c9 86 be 31 e5 0a be
       -0.10566072 -0.1378451 -0.26325238 -0.13563992
000260 56 47 49 be c4 94 b5 be 7f ba 9e 3c a7 3b 0d 3e
       -0.19656119 -0.35465062 0.019376038 0.13792287
000270 73 0f 93 3e 6c 62 d7 3e cb 5b 12 be ab 73 75 3e
       0.28722724 0.42067277 -0.14292829 0.23969905
000280 54 8e 16 be 40 23 69 bd 44 71 a0 be 53 5b 46 be
       -0.14702731 -0.056918383 -0.31336415 -0.19370775
000290 f4 25 55 3d 54 02 94 bd 5c 5b fa bd 9d 2e 1b 3e
       0.052038148 -0.072270066 -0.12224457 0.151545
0002a0 50 d8 0d bd 10 7c 36 be 74 69 b2 3a 89 bb 72 bd
       -0.03463012 -0.17820764 0.001361175 -0.05926088
0002b0 b3 90 93 3e 3a 6a 83 3c e9 aa c4 3e b9 19 b9 be
       0.28821334 0.016041864 0.38411644 -0.36152437
0002c0 1f ae e0 3d 6f 46 58 3e 7a 4a 80 be 2f 59 1c be
       0.10970711 0.21120618 -0.2505682 -0.15268396
0002d0 ba 88 9c be d1 0c 15 3d 2c 9f 91 be e0 41 e7 be
       -0.30573064 0.036389176 -0.2844175 -0.45167446
0002e0 fd f7 76 bc 9b 1f 59 bd 30 ba d1 bc e8 71 a7 bd
       -0.015073773 -0.053008657 -0.025601476 -0.08176023
0002f0 b5 3a b2 bd 48 06 fe bb 57 c8 0d 3e dd b1 36 be
       -0.08702604 -0.0077522136 0.13845955 -0.17841287
000300 11 07 b1 bd db 4a 14 3e 29 62 4a be f5 1d ff bd
       -0.08643926 0.1448168 -0.19764008 -0.12456886
000310 6c 9a de bd 33 ac 98 3e 88 f6 d6 bd cf db 97 bd
       -0.108692974 0.29818878 -0.10496241 -0.07414972
000320 df 29 03 3e b5 63 f1 3d 19 f3 89 bc ed a9 3b 3e
       0.12808941 0.11786596 -0.01683955 0.1832654
000330 77 54 a2 3d 0a 55 69 3e 45 be 2f bd 58 aa 0f be
       0.07926267 0.22786346 -0.042906065 -0.14029825
000340 b3 40 85 3d 76 51 07 be 5e 68 22 be d8 f6 4b 3d
       0.06506481 -0.13214669 -0.15860125 0.049795955
000350 8f 25 39 bd 67 aa 53 be 8b bc d6 bd 67 ef ba bd
       -0.045201834 -0.20670472 -0.104851805 -0.091276936
000360 bf d9 bc bd 1a 1f 5f 3d 3f 75 f8 3c 51 72 df 3a
       -0.09221219 0.05447302 0.030329345 0.0017047619
000370 5a c8 71 3e da c9 da bd 59 6e 72 3d d7 61 75 3e
       0.23611584 -0.106830314 0.059187267 0.23963104
000380 e4 51 60 be cb 18 0b be 37 90 d7 bd 9c ae 81 be
       -0.21906239 -0.13583677 -0.10525554 -0.2532853
000390 95 d5 72 bd 19 a0 0f 3e 7d fe b3 be 29 2b 82 bc
       -0.05928572 0.14025916 -0.35155097 -0.015889721
0003a0 de 5c d5 3d df ad 6b 3d 4a d2 62 be 8b 6b 11 3e
       0.10418104 0.057538863 -0.22150531 0.1420118
0003b0 57 10 79 3d 76 c9 3f bd 3c 94 27 be 25 df 92 be
       0.0608066 -0.046822987 -0.1636514 -0.2868587
0003c0 42 ee 21 bd 40 b6 17 bd 15 c6 01 be c2 c0 9c be
       -0.03953386 -0.03703904 -0.12673219 -0.30615813
0003d0 79 2f 9d bd b6 8f dc be 91 a5 b5 bd 8c 64 7f bd
       -0.0767507 -0.43078393 -0.0886947 -0.06235175
0003e0 87 aa b3 bd 86 26 c5 be 7b 5e 77 3d 79 d0 04 3e
       -0.0877276 -0.38505954 0.060392838 0.12970151
0003f0 3f 0f 9e 3d a3 cd 64 bd 75 0f 14 be 28 bb 74 3e
       0.07717752 -0.055860173 -0.14459021 0.2389952

bias_ih_l1 f4 [128]
000000 28 ed 84 be f7 27 9b be 64 0f 65 be 15 02 93 be
       -0.25962186 -0.30303928 -0.22369152 -0.28712526
000010 26 ec dc be b2 53 bc be c4 16 32 be 56 9e f4 be
       -0.43148917 -0.36782604 -0.17391497 -0.4777705
000020 97 58 c0 be d0 22 3e be be 9e 32 3d 3f f0 a5 be
       -0.3756759 -0.18567967 0.04360842 -0.32409856
000030 b8 e8 b8 be c9 7b e7 bd 94 22 af be 32 1a b9 3d
       -0.3611505 -0.11302907 -0.3420607 0.090381995
000040 bf 15 e5 bd 84 52 db be ae fa a8 be 97 37 4e be
       -0.11185788 -0.42836392 -0.33003753 -0.20138393
000050 1d c7 52 be 7b a4 d3 bd 00 0f 8b be a9 7d 89 be
       -0.20583768 -0.103341065 -0.27159882 -0.26853684
000060 a1 65 eb be 7d c4 25 bd f9 69 15 bf fc 44 ca be
       -0.45975974 -0.04047059 -0.58364826 -0.39505756
000070 3f f2 f9 be bb 3e 8d be 80 8e 97 be 6f c4 c3 be
       -0.48817632 -0.27586922 -0.29600906 -0.38235804
000080 90 c2 08 be 1e ff 4c be de 3a 32 be 10 33 b0 bd
       -0.1335547 -0.20019194 -0.17405269 -0.086034894
000090 5f 8d d3 be 9a f5 15 be 6e 97 91 bd a3 ca 88 be
       -0.41318795 -0.14644471 -0.07108961 -0.267171
0000a0 53 a7 b3 be e1 fb da bd 99 29 32 be 20 65 23 be
       -0.35088596 -0.10692573 -0.17398681 -0.15956545
0000b0 3b 78 d1 be e9 21 ca bd a8 36 22 be f9 38 3d be
       -0.4091204 -0.09869749 -0.15841162 -0.18478765
0000c0 e5 e6 4d be 46 7f b3 be 8c 73 56 be f0 7b 85 be
       -0.2010761 -0.3505804 -0.20942515 -0.2607112
0000d0 24 00 ae be dc b3 2d bd 08 ff 07 be 0b 1e a6 be
       -0.33984482 -0.042407855 -0.1328088 -0.32444796
0000e0 c6 b9 f1 be f5 61 f2 bc 1c d3 f4 be 68 e3 96 be
       -0.47212046 -0.029587725 -0.47817314 -0.29470372
0000f0 58 15 f3 be 9e 76 b8 be 57 32 54 be 0e 1b f5 bd
       -0.4747722 -0.36027998 -0.20722328 -0.11968051
000100 22 03 cf 3d 12 fd 04 3e a4 25 1b 3e b4 38 9e 3d
       0.101080194 0.12987164 0.15151078 0.07725659
000110 d6 e6 c6 3d f2 9d b6 bb 30 ba 73 3c 9a 27 d6 3d
       0.09711997 -0.005573028 0.0148759335 0.10456772
000120 51 d8 f9 3c 16 21 c7 3d 47 37 e0 3d 4d 6c 60 bd
       0.030498656 0.097231075 0.10948043 -0.054790784
000130 40 a5 f7 3c 12 da 40 3e fe e3 b6 3d 11 a7 97 3e
       0.030230165 0.18833187 0.08930205 0.2961965
000140 1d f8 01 be 11 44 a9 bd 87 b8 0a 3e a1 cb 35 3e
       -0.12692304 -0.08264936 0.13546954 0.1775346
000150 ff a9 03 be 72 b1 5a bd 35 eb 45 3e 02 87 a9 bd
       -0.12857817 -0.05339188 0.19328006 -0.08277704
000160 ee 0b 01 3e 6b 57 75 3e 37 b4 75 bd 39 89 0b be
       0.12602207 0.23959129 -0.05998632 -0.13626565
000170 01 fe 9e 3c 36 8c f9 bc 7a f9 d8 3d f7 5e 18 be
       0.019408228 -0.030462366 0.10594459 -0.14879976
000180 2b 2d 3c be d3 9b b3 be f5 8b 02 be 45 3f 46 be
       -0.18376605 -0.35079822 -0.12748702 -0.19360073
000190 2b 97 bd be 2e 03 a6 be 53 3d 26 be b5 87 d2 be
       -0.37029395 -0.324243 -0.16234331 -0.4111916
0001a0 77 01 6e be 33 05 dd be f1 c4 1e be 8f b0 67 bd
       -0.23242746 -0.4316803 -0.15504815 -0.056564864
0001b0 86 19 73 be 3b 54 02 be 23 80 6b be 95 2e fc 3a
       -0.23740205 -0.12727444 -0.22998099 0.0019239957
0001c0 71 44 23 3d da 7c b1 be 5f 87 85 be d5 76 2f be
       0.039860193 -0.34665567 -0.26079842 -0.17135175
0001d0 9c e9 e6 be cc c2 51 be 17 5d 82 be 25 ac 57 be
       -0.45100105 -0.20484465 -0.25461647 -0.21061762
0001e0 0d 8a b9 be e0 cd b4 bc 56 2a db be 80 4a 7e be
       -0.36238137 -0.022070825 -0.42805737 -0.24833107
0001f0 2d 3a 81 be 7c d9 d9 be 7f c8 af be 9b e1 ea bd
       -0.25239697 -0.4254874 -0.34332654 -0.11468812

bias_hh_l1 f4 [128]
000000 66 49 75 3c 98 48 1a be 13 c9 ae bd 88 a8 d6 bd
       0.014971113 -0.15066755 -0.085344456 -0.104813635
000010 7e b0 d8 be 56 e9 82 be c6 59 81 be 7b 99 d9 be
       -0.42322153 -0.25568646 -0.25263804 -0.4249991
000020 19 6b 48 be 62 63 03 bf 82 da 27 bb 2a b5 fc bd
       -0.19572105 -0.5132352 -0.0025612419 -0.12339242
000030 08 83 4a be e4 ed 0e bc 3b 6a cf be 09 52 35 3e
       -0.19776547 -0.00872371 -0.40510735 0.17707075
000040 94 d2 04 be db 26 f5 be 3c 6b 68 be 41 a7 33 be
       -0.12970954 -0.47881207 -0.22697157 -0.17544271
000050 9d bc 1f be 15 1a 7f be 97 f3 1d be 37 bf 9d be
       -0.15599294 -0.24912293 -0.15424953 -0.30809948
000060 69 4e 84 be 9a 66 e7 3d 0e 0e d4 be 05 38 90 be
       -0.25841072 0.112988666 -0.41416973 -0.2816774
000070 6c 5c 92 be 83 a9 fd be d8 d7 ad be 24 e7 c1 be
       -0.28586137 -0.4954339 -0.33953738 -0.3787166
000080 95 57 f7 bd 32 78 6c be ae 0c 37 bd 00 50 ba be
       -0.12077252 -0.23092726 -0.044689827 -0.3638916
000090 d6 14 c9 be a4 85 1e be b6 48 c5 bd 69 d3 04 be
       -0.3927371 -0.15480667 -0.09633009 -0.12971272
0000a0 b9 d7 f0 bd 09 1e 8a be f3 02 3d be 35 86 9f be
       -0.11759896 -0.2697604 -0.18458156 -0.3115708
0000b0 02 1d fb bd 65 88 af be f6 54 39 be 57 2c 12 be
       -0.12261392 -0.34283748 -0.18098816 -0.14274727
0000c0 14 ff b1 bd 6a f3 9e be 9a 19 7b be 6d db 8b be
       -0.086912304 -0.31045085 -0.24521485 -0.27315846
0000d0 fe b8 dc be 9e 37 1b be 1e 8b 30 be 8e b9 96 be
       -0.43109888 -0.15157935 -0.17240569 -0.29438442
0000e0 c4 f8 8e be c7 8f 51 be c0 8a 99 be e6 6e a7 be
       -0.27924168 -0.20465003 -0.2998867 -0.32701796
0000f0 80 5c d8 be a9 9d d3 be 43 69 80 be 9c 44 c6 be
       -0.42258072 -0.41331223 -0.25080308 -0.3872422
000100 9c 78 ed 3d bf 28 ab 3d 62 be e3 3d 0a 22 04 3e
       0.1159527 0.08357381 0.11120297 0.1290361
000110 83 64 39 bd 11 7e 21 3d 6f 48 58 3e 01 bf de bd
       -0.04526187 0.039426867 0.21121381 -0.10876275
000120 15 b7 c8 3d 94 9c 9a bd d7 a3 28 3e c8 48 c1 bd
       0.09800545 -0.07549396 0.1646875 -0.0943771
000130 19 d9 eb bc 0d 51 23 3c 55 27 ca bd 31 51 5a 3d
       -0.028790044 0.0099680545 -0.09870783 0.053300086
000140 9a 7f 4d be da 6c 18 3e 16 6e 56 3d b8 d7 ec bc
       -0.20068207 0.14885274 0.05235108 -0.028911456
000150 bc 82 12 3d 9e 42 74 3e 1c 63 db bd 9e d9 56 3e
       0.03576921 0.23853537 -0.10712263 0.20981452
000160 30 50 a8 bd ff e4 8c 3d 06 bb c4 3d 1b 38 86 3d
       -0.082184196 0.06879615 0.096059844 0.0655367
000170 08 b0 f0 bd fa f4 04 be d7 39 bf bd 15 16 55 bc
       -0.11752325 -0.12984076 -0.09337204 -0.013005753
000180 cc 5a af bd ba 3f 9d be 69 d3 3d be fd 64 07 be
       -0.0856224 -0.30712682 -0.18537678 -0.13222118
000190 0e 91 64 be fa 1e db be 76 ca 69 be 36 b0 80 be
       -0.22320959 -0.4279707 -0.22831139 -0.25134438
0001a0 f9 f5 87 be 47 de a1 be a9 e1 9e 3d bb 40 36 be
       -0.2655485 -0.31614897 0.07757885 -0.1779813
0001b0 0c 79 05 bf 15 d6 83 bd f3 31 78 be 00 78 55 3d
       -0.5213783 -0.06437317 -0.24237804 0.052116394
0001c0 03 9f 56 bd 47 c6 58 be 0a 7c 65 be cd 82 a2 bd
       -0.05239774 -0.21169387 -0.22410598 -0.079351045
0001d0 e9 01 99 be 91 e1 a6 be 6c ee ad be ed 46 39 be
       -0.2988427 -0.3259397 -0.33970964 -0.18093462
0001e0 45 aa 8e be 51 9b 13 be 1c 99 89 be d4 0a 4d be
       -0.2786428 -0.14414717 -0.26874626 -0.20023662
0001f0 8c d4 ed be 9f 5b 7a be 34 5c e2 bd aa ed 35 be
       -0.46451223 -0.24449013 -0.110527426 -0.17766443

weight_ih_l2 f4 [128, 32]
000000 43 e7 13 be 33 73 98 be a4 6c 14 bf d8 71 ca be
       -0.14443688 -0.2977539 -0.5797827 -0.3953998
000010 1a 48 bd bd a5 5f 36 3e fa 81 57 be 5f 6d ce bd
       -0.09242268 0.17809923 -0.21045676 -0.10079455
000020 45 a0 e1 be 13 e8 59 bd 4d 18 2f be fb a0 59 3e
       -0.44067588 -0.05319984 -0.17099114 0.21252815
000030 82 a0 50 3e 92 69 34 be ba 55 99 3d 9d 0e 08 bf
       0.20373729 -0.17618397 0.07487054 -0.531473
000040 bf 41 f1 3e 79 cb 13 be 64 c6 0e bd 4e 08 29 be
       0.47120473 -0.14433087 -0.03485717 -0.16507074
000050 f2 97 a1 bb 1e 40 c9 be f1 df 18 bf e4 9d f0 be
       -0.0049314434 -0.3930673 -0.5971671 -0.4699546
000060 b2 8b b4 3c d9 44 a5 be 84 de 79 be 69 cb 4e bd
       0.022039268 -0.3227909 -0.24401289 -0.050486956
000070 c4 68 de 3e e0 38 e6 3e b3 bc 76 bc e4 35 04 bd
       0.43439305 0.44965267 -0.015059638 -0.032277957
000080 1f d2 09 bf d2 57 32 be 7c 47 e1 be 5c 92 44 be
       -0.53836244 -0.17416313 -0.4399985 -0.19196457
000090 42 3f f2 3e 15 0a b3 3d d9 a3 d0 be 03 c8 5e bd
       0.47313887 0.08742157 -0.40750006 -0.054389965
0000a0 d5 13 a7 bd 78 5c 96 3d d7 4e 34 bf f1 bc cc 3e
       -0.081580795 0.07341856 -0.704328 0.399879
0000b0 ae 8f f1 3c 71 4e bd be 34 de 15 bd 54 30 2d bf
       0.029487457 -0.3697391 -0.036588863 -0.6765187
0000c0 58 9a 93 3e 9a 9c 94 be 98 50 9e bd ec b3 cc be
       0.28828692 -0.29025728 -0.07730216 -0.3998102
0000d0 32 d9 b1 3e 6c 8e 21 bf ad 7c 11 be f1 31 9d be
       0.3473602 -0.63107944 -0.14207716 -0.30702165
0000e0 54 ac 64 3e d3 37 2c bf b3 95 10 be 19 16 b0 3c
       0.22331363 -0.6727268 -0.14119606 0.021494912
0000f0 78 5c bb 3d ce 07 90 3e 13 a2 85 be 93 27 f1 3e
       0.091484964 0.28130955 -0.26100215 0.47100505
000100 9b 3b 18 be ca 79 34 be ba 94 12 be 2f c4 76 be
       -0.14866488 -0.17624584 -0.14314547 -0.24098276
000110 f0 66 25 3e ee 37 58 3e d3 32 ba be a0 e5 83 be
       0.16152549 0.21115085 -0.363669 -0.25761127
000120 5d 6f 44 be 06 77 52 3d 61 7a b8 be 1d 14 b0 3e
       -0.19183107 0.05138304 -0.36030868 0.34390345
000130 62 ac 01 3d 77 a3 09 be 71 1e ad bd 4b a3 b5 be
       0.031658538 -0.13441263 -0.08453072 -0.35476145
000140 09 31 11 3e c9 23 22 be 42 62 d1 bd 4a a5 df be
       0.14178862 -0.15833963 -0.10223819 -0.43680793
000150 82 ef 8f 3e b4 13 f8 be 16 06 99 bc c8 6c 9a bd
       0.28112417 -0.48452532 -0.01867966 -0.075402796
000160 28 35 af bb e2 dd 87 be cf a4 27 be 04 35 96 bd
       -0.005346913 -0.2653647 -0.16371463 -0.07334331
000170 58 1c 04 be 35 66 8e 3c ed 43 a7 be ba aa 8b 3e
       -0.12901437 0.01738272 -0.3266901 0.27278692
000180 e4 0f 3b be aa 83 86 be 42 f1 94 be b6 c7 80 be
       -0.1826778 -0.26272327 -0.29090315 -0.25152367
000190 7e 91 6d 3e 3f 6e 54 3d f0 b2 eb be 6e 46 7a bd
       0.23200032 0.05186295 -0.46034956 -0.061102323
0001a0 69 de 95 bc c8 95 7a 3c 72 59 9c be 2e fc 3d 3e
       -0.01829453 0.0152945 -0.3053699 0.1855323
0001b0 b5 ff 63 3d f6 d5 25 be d2 d0 49 3d f5 07 f8 be
       0.055663783 -0.16194901 0.049271412 -0.4844357
0001c0 e7 c6 bc 3e 7b 5f b5 bd 8c 1d c1 bd 4e b2 b4 be
       0.368705 -0.08856102 -0.09429464 -0.35292286
0001d0 02 5d 15 3e 6b 90 fe be aa bb fe bd 24 aa 9d be
       0.14586261 -0.49719557 -0.12438138 -0.3079387
0001e0 f8 0f 11 be e2 35 4d be 38 2c 7c bd f1 30 9c 3d
       -0.14166248 -0.20040086 -0.061565608 0.07626522
0001f0 e9 3a 32 3d bb 08 0f 3e 70 4a c4 be 46 14 7d 3d
       0.043513212 0.13968174 -0.3833804 0.061786912
000200 bf bd 93 be 7d 37 96 be 13 c7 4f be 06 fa 93 bd
       -0.28855702 -0.2933921 -0.20290785 -0.072254226
000210 61 43 91 bd ed bf b1 3e d8 90 42 be 15 00 90 bc
       -0.0709293 0.3471674 -0.19000566 -0.017578164
000220 0d ec 06 be 76 e4 ec bd b8 46 38 be d2 6d 81 3e
       -0.13175984 -0.11567013 -0.17995727 0.252791
000230 7a fb d0 bd fe 2f bd bd 20 d6 09 be 99 d3 1a bf
       -0.10204215 -0.092376694 -0.13460588 -0.6047912
000240 6c 1d ae 3e 56 08 43 be 03 35 6b be 5f 9a 30 be
       0.34006822 -0.19046149 -0.22969441 -0.17246388
000250 15 a4 1b 3e 15 66 13 bf d7 c2 ad be d3 61 d7 bd
       0.15199311 -0.5757764 -0.33937714 -0.10516705
000260 32 71 c2 bd 81 83 ce be e0 83 24 3c c7 bb 73 be
       -0.094942465 -0.40334705 0.010041207 -0.238021
000270 8f b0 b0 3e 8f 5f 38 3e 9e 4a 31 bd 5d 16 c1 3e
       0.34509704 0.18005203 -0.04328405 0.37712374
000280 15 f4 42 bd 59 9f 61 be 46 c7 20 be 0b 3b 30 be
       -0.047596056 -0.22033443 -0.15701017 -0.17210023
000290 fd 0f 14 3d 98 db 39 3e bf 40 00 bf 91 2f 02 bd
       0.03614806 0.18150175 -0.50098795 -0.031783644
0002a0 ef 85 06 bd c8 0e 16 be d6 37 06 be ec e6 3d 3e
       -0.032842573 -0.14654076 -0.13107237 0.18545121
0002b0 e9 7e 95 3d b7 56 3a be e5 68 b4 3d 80 fe 9f be
       0.07299597 -0.18197142 0.088090695 -0.31248856
0002c0 d1 f7 37 3e f2 96 8a bd 1e a6 0f 3d 35 8a 81 be
       0.17965628 -0.06767072 0.03507053 -0.25300756
0002d0 7b a6 f6 3c 43 a8 d6 bd 85 53 d8 3d db 09 85 bd
       0.030108681 -0.10481312 0.10562805 -0.064960204
0002e0 35 31 4c be 77 2e c7 be fb 6a d2 bd 59 a4 33 be
       -0.19940646 -0.38902637 -0.10274311 -0.17543162
0002f0 f9 47 ce 3d 2e 2b 78 3d 51 cd 1c be 8d ad 18 3d
       0.100723214 0.060588054 -0.15312697 0.037274886
000300 97 52 83 be 16 e8 8b be 22 25 ce be 6a 1a d2 be
       -0.2564895 -0.27325505 -0.40262705 -0.41035777
000310 7a a1 c1 bd 3b 69 a0 3e 9c db a8 be 7c 5e 47 be
       -0.09454627 0.31330284 -0.3298005 -0.19469637
000320 18 ed bf be e7 61 24 3e 78 24 d5 be dd ea cc 3e
       -0.37485576 0.16052972 -0.41629386 0.40022936
000330 c3 fb c2 3d 12 fa 14 bd 7e 08 d4 3b f4 3f bf be
       0.09520676 -0.036371298 0.006470739 -0.3735348
000340 b3 5d 00 3f 53 28 fd 3c d5 84 b1 be a1 83 e6 be
       0.50142974 0.030903017 -0.34671655 -0.450223
000350 d5 a2 d0 bd e3 76 04 bf 53 8d be be 2b 1f d4 be
       -0.10187308 -0.51743907 -0.37217197 -0.4143003
000360 6e 39 80 be db e9 77 be 8b fd 3f be 4f 5c 14 3e
       -0.25043815 -0.24210303 -0.18749063 0.14488338
000370 ea 6d bb 3e 31 67 36 3e 0a f9 a3 bd d7 88 c7 3e
       0.36607295 0.17812802 -0.08006485 0.38971588
000380 27 3c ab be 7b 76 26 bf 9a 2e 1e bf 8a e7 e4 be
       -0.3344433 -0.65024537 -0.6178986 -0.447079
000390 fb 79 f7 3d fc 84 b8 3e 52 9f dc be 6e e2 ba be
       0.12083813 0.3603896 -0.43090302 -0.36500877
0003a0 28 d0 0e bf 10 e6 17 be e7 f0 34 bf 4d 27 da 3e
       -0.5578637 -0.14833856 -0.7068009 0.4260811
0003b0 67 80 82 3e a2 53 d7 be c8 7a d4 bc bc 4f 00 bf
       0.25488588 -0.42055994 -0.025937453 -0.50121665
0003c0 ec 38 12 3f 55 e6 dc bd d5 f5 ef bd c0 d9 15 bf
       0.57118106 -0.1078612 -0.117168106 -0.58535385
0003d0 1d f6 9f 3d 13 19 08 bf 8f 13 50 bf 5b ef 10 bf
       0.07810614 -0.5316326 -0.81279844 -0.5661523
0003e0 b4 82 0a be f4 44 0f bf 23 ac 2d be c4 41 71 bd
       -0.13526422 -0.5596459 -0.16960196 -0.05890061
0003f0 63 f7 13 3f 39 7d fb 3e 62 aa 2f be b8 06 6f 3e
       0.5779936 0.49118975 -0.1715484 0.23342407
