models/UCF101_lstm_angles_model.pth (torch, 184727 bytes, 42 tensors)

weight_ih_l0 f4 [96, 16]
0	0x3e476102	0.194706
1	0xbd03e64c	-0.03220205
2	0x3e3eedc2	0.18645385
3	0x3e47b87e	0.19503972
4	0xbe1d0f2f	-0.15337823
5	0x3da34210	0.07971585
6	0xbe0198f6	-0.12656006
7	0x3d6d72c0	0.057970762
8	0xbd9db56c	-0.07700619
9	0x3e03f1c4	0.12885195
10	0xbe3a0c00	-0.1816864
11	0x3d655340	0.055987597
12	0x3d88e704	0.06684688
13	0xbdb7cbc7	-0.08974414
14	0xba95bf80	-0.0011424869
15	0xbd4ebd3c	-0.050473437
16	0xbe42a284	-0.19007307
17	0xbe0683ca	-0.13136211
18	0xbd27c204	-0.040956512
19	0x3e3eee0e	0.18645498
20	0x3c3d82d0	0.011566833
21	0xbe3da86f	-0.18521284
22	0x3d975dac	0.07390913
23	0xbd99f6f8	-0.07517809
24	0xbdbf1a73	-0.09331217
25	0x3e173ab6	0.1476849
26	0x3c3534e0	0.01105997
27	0xbdd095cf	-0.10184824
28	0x3bfa4d60	0.0076386184
29	0x3de241e8	0.11047727
30	0xbe4a6316	-0.19764361
31	0xbe4fb8cc	-0.20285338
32	0xbc7dc720	-0.01548937
33	0x3e43cf64	0.19122082
34	0xbd5bd2a0	-0.053667665
35	0x3ceb8fb0	0.028755039
36	0xbdb8ef93	-0.0903007
37	0x3dc9101c	0.09817526
38	0xbdb5c08f	-0.08874618
39	0x3cf23398	0.029565617
40	0xbdce83cc	-0.10083732
41	0x3dcbc9a0	0.09950566
42	0xbe0b5e14	-0.13610107
43	0xbd74bbcc	-0.05974941
44	0xbd4a17dc	-0.04933916
45	0xbd471c40	-0.048610926
46	0x3e19a1f8	0.15003192
47	0xbc688110	-0.014190927
48	0x3bac4940	0.0052577555
49	0x3d92126c	0.0713242
50	0x3db748d0	0.08949435
51	0x3d18e798	0.03733024
52	0xbcecff90	-0.028930455
53	0xbe3391bc	-0.17536062
54	0xbd643d1c	-0.05572234
55	0x3d54e920	0.051980138
56	0xbe2e08c3	-0.1699553
57	0x3de2c584	0.11072829
58	0x3d971980	0.073779106
59	0xbd80b618	-0.062847316
60	0xbd8338d0	-0.064073205
61	0xbe3673d9	-0.1781763
62	0xbe110f50	-0.14165998
63	0x3e034932	0.1282089
64	0xbe1c8281	-0.15284158
65	0x3d3626a8	0.04447046
66	0x3c22bcc0	0.009932697
67	0x3e2eac28	0.1705786
68	0xbde9a8b2	-0.11409129
69	0x3d4123b8	0.047153205
70	0xbd355aa4	-0.044275895
71	0x3cd73bd8	0.026273653
72	0xbcd8e9b0	-0.026478618
73	0x3e4f44a4	0.20241028
74	0xbc1466e0	-0.00905773
75	0xbdef573c	-0.116865605
76	0x3d05e650	0.032690346
77	0x3e1e26e0	0.15444517
78	0x3d21d5b4	0.039510444
79	0xbe4b71bb	-0.19867603
80	0x3df8d840	0.121506214
81	0x3e3b2846	0.18277082
82	0x3e4ba22e	0.19886085
83	0xbceba2e0	-0.028764188
84	0x3dfe18b0	0.124070525
85	0x3dba1c70	0.09087455
86	0x3d96e134	0.07367173
87	0xbe2bbe28	-0.16771758
88	0x3d938b00	0.072042465
89	0x3d1d8050	0.038452446
90	0x3de2ba30	0.11070669
91	0xbe2616fc	-0.16219705
92	0xbe1c7ed1	-0.15282752
93	0xbd008698	-0.03137836
94	0xbe4111c6	-0.18854436
95	0x3d6436f8	0.055716485
96	0x3dc2ed8c	0.09517965
97	0x3db08a40	0.08620119
98	0xbd716cdc	-0.058941707
99	0xbdc0853e	-0.09400414
100	0xbdabbbe4	-0.08385447
101	0xbe44e9c1	-0.19229795
102	0x3e3d2400	0.18470764
103	0xbe507730	-0.20357966
104	0x3dd18808	0.10231024
105	0xbdc5cc02	-0.09658052
106	0x3e1b3596	0.1515716
107	0xbe150d16	-0.14555773
108	0xbdc3b2e1	-0.09555603
109	0xbe3c0f22	-0.18365148
110	0x3e2c62fa	0.16834632
111	0xbe477c85	-0.19481094
112	0xbde3d77b	-0.11125084
113	0xbe454886	-0.19265947
114	0x3b87ce60	0.004144475
115	0x3ccc36f0	0.02492854
116	0x3a87f680	0.0010373145
117	0xbd9e6008	-0.0773316
118	0xbd2cae20	-0.042158246
119	0x3e2a3faa	0.16625848
120	0x3e022156	0.12708029
121	0xbc82beb0	-0.015960068
122	0x3d6b7930	0.05748862
123	0x3d368c58	0.044567436
124	0x3e07d05e	0.1326308
125	0xbc014170	-0.007889137
126	0xbceeae78	-0.029135928
127	0x3de52c04	0.11190036
128	0xbd981720	-0.07426286
129	0x3e04ee66	0.12981567
130	0x3db767dc	0.089553565
131	0x3e257e8e	0.16161558
132	0xbe27dee5	-0.16393621
133	0xbcb8ea48	-0.022572652
134	0x3e0d1c3a	0.13780299
135	0x3e1028d0	0.14078069
136	0x3e3d30bc	0.18475622
137	0x3e132974	0.14371282
138	0xbe02111f	-0.12701844
139	0x3de983a0	0.114020586
140	0xbb6b0a80	-0.0035864413
141	0x3dc365f8	0.09540933
142	0xbde88637	-0.113537244
143	0x3e3a2e68	0.18181765
144	0x3e14f6ca	0.14547268
145	0xbe48b2a3	-0.19599395
146	0xbd3f046c	-0.046635076
147	0xbd34f9a8	-0.044183403
148	0x3d12e880	0.03586626
149	0xbc25c450	-0.010117605
150	0x3c842890	0.016132623
151	0xbd6e39b8	-0.058160514
152	0x3e1192d0	0.14216161
153	0xbe4f307e	-0.20233342
154	0x3e46d580	0.19417381
155	0x3c9230c8	0.017845526
156	0x3e1b7f92	0.15185383
157	0xbe495f1c	-0.19665188
158	0xbccaf258	-0.024773762
159	0x3cf935a0	0.030421078
160	0xbd488ee4	-0.048964396
161	0xbdf2fc76	-0.11864559
162	0xbe23301e	-0.15936324
163	0x3db624b8	0.08893722
164	0x3da0c508	0.07850081
165	0x3d060dd0	0.032728016
166	0x3db6b93c	0.089220494
167	0x3e2298ee	0.1587865
168	0x3da539bc	0.080676526
169	0x3e284f26	0.16436443
170	0xbe1be622	-0.15224507
171	0xbe256490	-0.16151643
172	0x3dddbfac	0.10827574
173	0xbdf7522c	-0.1207622
174	0x3c8ca018	0.017166182
175	0xbdb188db	-0.08668681
176	0xbe329a9c	-0.17441791
177	0x3e410270	0.18848586
178	0xbdd8b841	-0.10582019
179	0x3e1b6616	0.15175661
180	0x3991b400	0.00027790666
181	0x3e277862	0.16354516
182	0x3d28b588	0.041188747
183	0x3e154416	0.14576754
184	0xbdc13b69	-0.0943516
185	0x3e0edfaa	0.13952509
186	0xbcd52d38	-0.026022539
187	0x3e4bf8ac	0.1991908
188	0xbe3172c9	-0.17328943
189	0xbe026846	-0.1273509
190	0xbe207f30	-0.15673518
191	0xbe151fb0	-0.14562869
192	0x3e163130	0.14667201
193	0xbd5c070c	-0.053717658
194	0xbd23fe4c	-0.04003744
195	0x3dbb8c54	0.09157625
196	0xbe19a50f	-0.15004371
197	0xbe3f9f35	-0.18713076
198	0x3d08bb48	0.03338173
199	0xbe2de668	-0.16982424
200	0xbd124e90	-0.035719454
201	0x3e3942e8	0.18091929
202	0x3c5e85f0	0.013581738
203	0x3df26be0	0.11836982
204	0xbde1e047	-0.11029106
205	0x3d696d10	0.056988776
206	0x3d747bb8	0.0596883
207	0x3e4f1b40	0.20225239
208	0x3d5e85f0	0.05432695
209	0xbd5cece8	-0.05393687
210	0xbd3c9060	-0.046036124
211	0x3dd721cc	0.10504493
212	0xbd92ed34	-0.07174149
213	0xbc1c2360	-0.009529918
214	0xbe1028cb	-0.14078061
215	0xbe503d99	-0.20335998
216	0xbde043ce	-0.10950433
217	0xbbca3bc0	-0.0061716735
218	0xbe2205a2	-0.15822461
219	0xbe2ab104	-0.16669089
220	0x3e3a25ce	0.18178484
221	0x3e3066d2	0.17226723
222	0x3e1b8684	0.15188032
223	0x3e4934c2	0.19649032
224	0x3db1ca04	0.086811095
225	0xbdfdb9ea	-0.12388976
226	0xb921e000	-0.00015437603
227	0xbdd92804	-0.106033355
228	0xbd7e9080	-0.062149525
229	0xbce31548	-0.027720109
230	0xbde742ce	-0.11292039
231	0x3e111e06	0.1417161
232	0x3e062fb8	0.13104141
233	0x3e4da444	0.20082194
234	0xbd563edc	-0.05230604
235	0xbe4dcc4a	-0.20097461
236	0xbe50dfca	-0.20397869
237	0x3de201e8	0.1103552
238	0x3e012224	0.1261068
239	0x3d95f6e4	0.07322481
240	0x3e2b2d9a	0.16716614
241	0xbe091198	-0.13385618
242	0xbd0c8bcc	-0.03431301
243	0xbe1cf3a4	-0.15327317
244	0xbd13bb1c	-0.036067113
245	0x3e288612	0.16457394
246	0x3e2b62fa	0.16736975
247	0xbaf1bf00	-0.0018443763
248	0x3c956f50	0.018241554
249	0xbd98869a	-0.07447548
250	0x3e0fe2ce	0.14051363
251	0x3dd85b80	0.10564327
252	0xbcfc5150	-0.030800492
253	0xbc8dfe70	-0.01733324
254	0x3d8ed784	0.069747
255	0x3e4668e6	0.19375953

weight_hh_l0 f4 [96, 24]
0	0xbcd955b7	-0.02653013
1	0x3d8a7f4a	0.0676256
2	0xbdb98a66	-0.090596005
3	0x3da61da2	0.08111121
4	0x3d6ddbb8	0.05807087
5	0xbe59646c	-0.21229714
6	0xbe123392	-0.14277485
7	0xbe4df43f	-0.20112704
8	0xbe3d2ae9	-0.184734
9	0x3dcd29eb	0.10017761
10	0xbc776475	-0.015099634
11	0xbde063fc	-0.109565705
12	0xbdd7d079	-0.1053781
13	0x3e081b6b	0.13291709
14	0x3dd11329	0.10208733
15	0x3d51ca71	0.051218454
16	0x3e0ca54a	0.13734928
17	0x3e4b2452	0.19838074
18	0x3e4b8d61	0.1987815
19	0xbe75b381	-0.23994257
20	0xbe41ab3e	-0.1891298
21	0x3dda3bf0	0.106559634
22	0xbd1aeeb6	-0.03782531
23	0x3def24ae	0.11676918
24	0xbd8fe04f	-0.07025205
25	0x3d548c03	0.051891338
26	0x3cd7e1fd	0.026352877
27	0xbe395223	-0.18097739
28	0xbde45ee6	-0.11150913
29	0x3ddcf368	0.107886136
30	0xbd6e1ec3	-0.058134805
31	0x3e3efbad	0.18650694
32	0x3e1f924d	0.15583153
33	0x3e01fc0a	0.12693802
34	0x3e89fde5	0.2695152
35	0xbd3696a4	-0.044577256
36	0x3e2a740f	0.16645835
37	0xbd9e86a4	-0.077405244
38	0xbd9400da	-0.07226725
39	0xbe47abdb	-0.19499151
40	0x3dcf2f7a	0.10116477
41	0x3deab4d9	0.11460275
42	0x3dafe88a	0.08589275
43	0xbdab1c5d	-0.08355019
44	0x3d8df514	0.069315106
45	0xbdeea920	-0.11653352
46	0x3e0e72c0	0.13910961
47	0xbe095034	-0.13409501
48	0x3d0fd16c	0.03511183
49	0x3c4bd499	0.012440824
50	0x3c80b78f	0.015712528
51	0xbdf3f125	-0.11911229
52	0xbddb6d05	-0.10714153
53	0xbe3a47b3	-0.18191414
54	0xbdf39c8a	-0.11895092
55	0x3d0ece9f	0.034865018
56	0xbd847e41	-0.064693935
57	0xbdd6eb8b	-0.10494145
58	0x3cf478a5	0.029842684
59	0x3e06822f	0.13135599
60	0xbc932007	-0.017959608
61	0x3d986610	0.07441342
62	0xbc3a2566	-0.011361456
63	0xbe835cd6	-0.25656766
64	0xbd95a01b	-0.07305928
65	0x3d31ae21	0.043378953
66	0x3c236403	0.009972575
67	0x3d4d56ee	0.05013173
68	0xbd901586	-0.07035355
69	0xbcbf6a08	-0.02336599
70	0x3e45a445	0.19300945
71	0xbd943676	-0.0723695
72	0xb9f347a5	-0.0004640195
73	0xbdd7187e	-0.105027184
74	0x3c75e022	0.015007051
75	0x3dc3c4c2	0.09559013
76	0xbe30dfc2	-0.17272857
77	0xbe5d6a62	-0.21622613
78	0xbdf81584	-0.12113479
79	0xbd160736	-0.03662797
80	0x3e3b743f	0.18306063
81	0x3b201a82	0.0024429862
82	0x3eb1a765	0.34698024
83	0xbe34d37e	-0.17658803
84	0xbde75b02	-0.11296655
85	0xbe1bccec	-0.1521489
86	0xbe65c72f	-0.22439264
87	0xbea61aa4	-0.324422
88	0x3e00f55b	0.12593596
89	0xbe18b370	-0.149122
90	0x3e135510	0.14387918
91	0xbbcf1501	-0.0063196425
92	0x3e11b208	0.1422807
93	0xbd54f12a	-0.051987804
94	0x3cf86182	0.030319933
95	0xbd4a4b88	-0.04938844
96	0xbd6b63ac	-0.0574681
97	0xbd5be5d8	-0.053685993
98	0xbe87344e	-0.26407093
99	0x3de4dc9e	0.11174892
100	0xbd35dbd6	-0.044399105
101	0xbd266ebc	-0.04063295
102	0x3e4ffd03	0.2031136
103	0x3e80fa45	0.2519094
104	0x3d682300	0.056674004
105	0xbe0545ce	-0.1301491
106	0xbe492b54	-0.19645435
107	0xbe104794	-0.14089805
108	0xbba61a07	-0.0050690207
109	0xbc3ddbbe	-0.011588035
110	0xbdd838af	-0.105576865
111	0x3d2f8e00	0.04286003
112	0xbd09916d	-0.033585954
113	0xbccafaa2	-0.024777714
114	0x3e0ad3b6	0.13557324
115	0x3dc9081b	0.09815999
116	0xbd65c1cc	-0.056093022
117	0xbd3b9fa4	-0.045806542
118	0xbe19e103	-0.15027241
119	0xbdeb3c0c	-0.114860624
120	0xbc7911e0	-0.015202016
121	0x3d949153	0.07254281
122	0xba754c58	-0.00093573844
123	0x3dd30a33	0.1030468
124	0xbd582935	-0.052773673
125	0xbe1e2a97	-0.15445934
126	0xbe2d0cbd	-0.1689939
127	0x3e5c3f36	0.21508488
128	0xbe1de1fb	-0.15418236
129	0xbe8a1691	-0.26970342
130	0x3cc9a96a	0.024616916
131	0x3a43e9f5	0.0007473522
132	0xbcd81200	-0.02637577
133	0x3c70f3a7	0.014706529
134	0xbdf38c90	-0.118920445
135	0xbeaee4a6	-0.3415882
136	0x3e801f13	0.25023708
137	0xbe1a43e6	-0.15064964
138	0x3bd8d152	0.00661675
139	0x3deaec06	0.11470799
140	0x3dd35eb9	0.10320801
141	0xbe0d5568	-0.13802111
142	0xbd01befa	-0.03167627
143	0x3e5d2f02	0.21599963
144	0xbe198f89	-0.1499616
145	0x3b0f9278	0.002190737
146	0x3d5112a3	0.051043164
147	0x3d88966e	0.06669317
148	0x3c04674f	0.008081271
149	0xbcd7a6af	-0.026324598
150	0x3cd79caf	0.02631983
151	0xbda172fd	-0.078832604
152	0x3d8514b4	0.064980894
153	0xbe63f359	-0.22260799
154	0x3e948b34	0.29012454
155	0x3d961be4	0.073295385
156	0x3d4a2386	0.049350284
157	0x3d51009e	0.05102598
158	0xbc401143	-0.0117228655
159	0xbe5ccb62	-0.2156196
160	0x3e679cd5	0.2261842
161	0xbe4f26c2	-0.20229629
162	0xbe0f3917	-0.13986622
163	0xbd582e10	-0.052778304
164	0x3e11af87	0.14227115
165	0xbe41085c	-0.18850845
166	0xbd32f9e3	-0.04369534
167	0x3daafa52	0.08348526
168	0x3dc26a7d	0.09492967
169	0x3dc04283	0.09387686
170	0x3e117202	0.14203647
171	0xbe6c62cb	-0.23084562
172	0x3d885da3	0.06658485
173	0x3ca84344	0.020539887
174	0x3cd5b00d	0.026084924
175	0xbcdc9492	-0.026926313
176	0x3e1528dc	0.14566368
177	0xbdbc9b1b	-0.092092715
178	0x3e61f7cc	0.22067183
179	0x3d638f06	0.05555632
180	0x3dd964d0	0.106149316
181	0x3e07ef7d	0.13274951
182	0xbdebb7a4	-0.11509636
183	0x3d47100c	0.048599288
184	0x3e9abbea	0.30221492
185	0xbe12e28d	-0.14344235
186	0xbc72484f	-0.0147877475
187	0xbe60db4c	-0.21958655
188	0x3e029148	0.12750733
189	0x3e0f61a6	0.14002094
190	0x3e0e304e	0.13885614
191	0x3d685da3	0.056729924
192	0x3d973628	0.07383376
193	0xbdef4b51	-0.11684287
194	0x3e166ed5	0.14690717
195	0xbbbc3938	-0.0057441257
196	0x3df2c9bf	0.11854886
197	0x3d32b0c2	0.0436256
198	0x3de8fbe4	0.11376169
199	0x3da91430	0.082558036
200	0x3de6eecd	0.112760164
201	0xbe177232	-0.14789656
202	0xbe4f4f21	-0.20245029
203	0x3c4dbbc0	0.01255697
204	0xbbecf613	-0.007231483
205	0x3e4d675f	0.20058964
206	0xbdadf774	-0.084944636
207	0x3e3f03e1	0.18653823
208	0x3cf76647	0.030200137
209	0xbd0ffef4	-0.03515525
210	0xbdf9cf7b	-0.12197777
211	0x3ce760b0	0.028244346
212	0xbe5ad05a	-0.21368542
213	0x3e1bf211	0.1522906
214	0x3e4f89e8	0.20267451
215	0xbe4949c1	-0.19657041
216	0x3e016788	0.1263715
217	0xbdc987c1	-0.09840346
218	0x3e0c8720	0.13723421
219	0xbdadfd61	-0.08495594
220	0xbeb4d725	-0.35320392
221	0x3dba677b	0.091017686
222	0xbe8494c1	-0.2589474
223	0xba79f785	-0.00095354795
224	0xbd19fb89	-0.0375934
225	0x3c6962d2	0.014244752
226	0x3eb2a6d5	0.34892908
227	0xbe00d1cb	-0.1258003
228	0x3de92fa9	0.113860436
229	0xbdadf37a	-0.08493705
230	0xbe29fec9	-0.16601099
231	0xbd8eb52e	-0.06968151
232	0x3e8dbbab	0.27682242
233	0xbd995a2f	-0.07487904
234	0xbd57c645	-0.05267932
235	0xbd9f12f2	-0.077672854
236	0xbde5d913	-0.11223044
237	0xbe65daec	-0.22446793
238	0xbd2270a9	-0.039658222
239	0xbe2c15ed	-0.16805239
240	0x3d3c27ec	0.04593651
241	0xbe41f182	-0.18939784
242	0xbe93e0d6	-0.28882474
243	0xbda74393	-0.08167186
244	0xbddb416d	-0.10705838
245	0x3de58f91	0.11209024
246	0xbe2542e2	-0.16138795
247	0x3d0a4844	0.033760324
248	0xbe0be5eb	-0.13661925
249	0xbe6b1fb9	-0.2296132
250	0x3ded782e	0.11595188
251	0xbdfca40f	-0.12335979
252	0xbe13803d	-0.14404388
253	0x3db5ee4e	0.08883344
254	0x3c466370	0.012108669
255	0x3d87cfca	0.066314295

bias_ih_l0 f4 [96]
0	0xbde40a21	-0.111347444
1	0x3d9b00b9	0.07568497
2	0xbd378e5c	-0.0448135
3	0xbc08ae4f	-0.00834234
4	0x3d0343df	0.03204715
5	0x39ef0d03	0.00045595327
6	0x3b973a85	0.0046151304
7	0xbe04a7b8	-0.12954605
8	0xbd7e177f	-0.062034126
9	0xbd9035b3	-0.07041492
10	0x3e061b55	0.13096364
11	0xbdfb4c70	-0.12270439
12	0xbdd3f91f	-0.103502505
13	0xbdd9e469	-0.10639269
14	0xbda1cd0d	-0.079004385
15	0x3d1e569a	0.03865681
16	0xbd8a8427	-0.06763487
17	0x3d4b005e	0.049560897
18	0x3d53c3f8	0.051700562
19	0xbe6d9854	-0.2320264
20	0xbe0bf0a8	-0.13666022
21	0xbd3264f6	-0.043553315
22	0xbe669511	-0.22517802
23	0xbd0573b9	-0.032581065
24	0xbe6164c5	-0.22011097
25	0x3dae858f	0.08521568
26	0xbe8d22d8	-0.27565646
27	0x3b9efdc8	0.0048520304
28	0xbe56ce9d	-0.20977254
29	0x3de6a788	0.11262423
30	0xbde431d2	-0.11142315
31	0xbe972a65	-0.29524532
32	0xbe326652	-0.17421845
33	0x3dc6f2df	0.09714293
34	0xbc476bc4	-0.012171689
35	0xbe50148d	-0.2032034
36	0xbda33cfc	-0.07970616
37	0xbe69edaf	-0.22844575
38	0xbd98e376	-0.0746526
39	0xbe1c091e	-0.15237853
40	0x3d5f2dec	0.054487154
41	0x3ba80d2a	0.0051285224
42	0xbd82382a	-0.06358369
43	0xbe288c6b	-0.16459815
44	0x3d8adf40	0.06780863
45	0xbe8a9079	-0.2706335
46	0xbe26aff9	-0.16278066
47	0xbdce8984	-0.10084823
48	0xbda1e293	-0.07904544
49	0x3da98145	0.08276609
50	0x3d6ac709	0.05731872
51	0x3d137ad5	0.036005814
52	0xbe1c66b6	-0.15273556
53	0xbe0011e2	-0.12506822
54	0xbcdfe5ee	-0.027331319
55	0xbdb24b40	-0.08705759
56	0xbdc8ad9d	-0.09798739
57	0xbd4f36eb	-0.050589483
58	0x3c10c154	0.0088351555
59	0xbd4ad964	-0.049523726
60	0x3d506625	0.050878663
61	0xbe015e12	-0.12633541
62	0x3dc3f5bc	0.095683545
63	0x3d8a58eb	0.06755241
64	0x3c6b63bf	0.014367043
65	0xbd4bc2f4	-0.04974647
66	0x3d689a0f	0.056787547
67	0x3d85612c	0.06512675
68	0xbe0173a6	-0.12641773
69	0xbc9f3e4d	-0.019438887
70	0x3d807870	0.06272972
71	0xbe02b4f0	-0.12764335
72	0xbe8a0f55	-0.26964822
73	0xbe700e99	-0.23443069
74	0xbd6c3032	-0.05766315
75	0xbe6bade6	-0.23015556
76	0x3ccc0558	0.024904892
77	0xbe286a2a	-0.16446748
78	0xbdeeea3d	-0.11665771
79	0xbe34d20d	-0.17658253
80	0xbe56ffc0	-0.20995998
81	0x3c27edc0	0.010249555
82	0x3d3a9ba6	0.045558594
83	0xbd9bfa1a	-0.076160625
84	0xbe86fe2f	-0.26365802
85	0x3d8e1896	0.06938283
86	0x3d6cdafb	0.057826024
87	0xbe9e1961	-0.30878738
88	0x3c40e3ad	0.011773032
89	0xbe4729bf	-0.19449519
90	0xbe0f66b5	-0.14004023
91	0xbe3cc847	-0.18435775
92	0xbd87db13	-0.06633582
93	0xbe7ee60e	-0.24892446
94	0xbe4a5afe	-0.19761273
95	0xbe4bb3c2	-0.19892791

bias_hh_l0 f4 [96]
0	0xbe3ecb6e	-0.1863229
1	0x3de550d9	0.11197061
2	0xbdff521b	-0.12466832
3	0xbd8e032e	-0.069342
4	0x3d00a4b4	0.031407073
5	0xbe0a9c4f	-0.1353619
6	0xbda30545	-0.079599895
7	0x3d1df0f4	0.03855987
8	0xbdf67de9	-0.12035734
9	0xbd7042b3	-0.05865736
10	0xbdaf0b11	-0.085470326
11	0x3d7116a6	0.05885949
12	0x3d00eea3	0.03147758
13	0xbe52854a	-0.20558658
14	0xbea1bd18	-0.3158958
15	0xbe9e4624	-0.30912888
16	0x3d3dc290	0.046328127
17	0x3d03ff6b	0.032226007
18	0xbdc5b29d	-0.096532084
19	0xbcf512bd	-0.029916162
20	0xbdd26e4e	-0.10274945
21	0x3cddd399	0.027078437
22	0xbcac280f	-0.021015195
23	0xbeb2ab18	-0.3489616
24	0x3c3a4dd1	0.011371092
25	0xbd49cad3	-0.049265694
26	0x3d62ef60	0.055404067
27	0x3c3e3dde	0.01161143
28	0x3de82016	0.11334245
29	0xbcb502da	-0.022096086
30	0x3cf29914	0.029614009
31	0xbd8287f1	-0.06373585
32	0xbc5e7313	-0.0135772405
33	0xbe5f0de3	-0.21782641
34	0x3db72e1e	0.08944343
35	0x3db4b73b	0.08824011
36	0xbe293185	-0.16522796
37	0x3d3ca489	0.04605535
38	0xbd358c14	-0.044323042
39	0xbca52bde	-0.020162519
40	0xbdb86e84	-0.09005454
41	0xbe4e30ef	-0.20135854
42	0xbe852639	-0.26005724
43	0xbe8914b6	-0.26773614
44	0xbe8067d9	-0.2507923
45	0x3b224062	0.0024757613
46	0x39c53b19	0.000376188
47	0xbc951a11	-0.018200906
48	0x3da8d30f	0.08243381
49	0xbdc1e68b	-0.09467801
50	0xbd6a1412	-0.057148047
51	0x3cda6834	0.026661016
52	0x3e25c7ba	0.16189471
53	0x3e22db16	0.15903887
54	0x3d681743	0.05666281
55	0x3d679e34	0.05654736
56	0x3dcab125	0.09897069
57	0x3d7836a6	0.06059899
58	0xbd537cfc	-0.051632866
59	0x3d585860	0.052818656
60	0xbdaf599b	-0.08562013
61	0x3dd553a6	0.10416345
62	0xbc203dde	-0.009780375
63	0xbd1fb83e	-0.038994066
64	0xbd677b0a	-0.056513824
65	0x3d20589e	0.039147012
66	0xbd93f0e0	-0.07223678
67	0xbc96761c	-0.018366866
68	0x3dde94a3	0.10868194
69	0x3d8e0651	0.069347985
70	0xbdb22da2	-0.0870011
71	0x3e1085e4	0.14113575
72	0xbd8f7505	-0.070047416
73	0x3d5c751d	0.053822625
74	0x3dbf886d	0.09352193
75	0x3daf847f	0.085701935
76	0xbd9c2d4b	-0.076258264
77	0xbe47fcb6	-0.19529995
78	0xbe7abed6	-0.2448686
79	0xbe40fe5b	-0.18847029
80	0xbe63a5fe	-0.2223129
81	0xbe52124b	-0.2051479
82	0xbe3a802a	-0.18212953
83	0xbe5756da	-0.21029225
84	0x3da1d5bc	0.07902095
85	0xbe248263	-0.16065364
86	0xbea1432e	-0.31496567
87	0x3d4e28a1	0.050331715
88	0x3db31c56	0.08745639
89	0xbd176d05	-0.036969204
90	0x3e0489f1	0.12943245
91	0xbe6d7c1f	-0.2319188
92	0xbe59bd2d	-0.21263571
93	0xbd730aab	-0.059336346
94	0xbe55b90e	-0.20871374
95	0xbe18bfe6	-0.14916953

weight_ih_l1 f4 [96, 24]
0	0xbc09c9ef	-0.008409961
1	0x3c590158	0.013244949
2	0x3cdfc8b1	0.027317377
3	0xbce9ba55	-0.028531233
4	0xbe90bad2	-0.28267533
5	0xbda5774f	-0.08079397
6	0xbc031117	-0.00799968
7	0xbe012729	-0.12612595
8	0xbdf766f8	-0.120801866
9	0xbe241a64	-0.16025692
10	0x3d0053bd	0.03132986
11	0xbdd7a261	-0.10529018
12	0x3e560b8d	0.20902844
13	0x3e57977e	0.21053883
14	0xbdaed2de	-0.085363135
15	0xbe4648fa	-0.19363776
16	0x3e2e3000	0.17010498
17	0x3e2b4dc1	0.1672888
18	0xbad0e4e5	-0.0015937357
19	0xbd39ce0b	-0.045362514
20	0xbce9f058	-0.028556988
21	0xbbd434d8	-0.006476026
22	0xbe15e286	-0.14637193
23	0x3dea1c9b	0.11431237
24	0xbdda0a45	-0.1064649
25	0xbcbdb88a	-0.023159284
26	0xbe2fa053	-0.17151003
27	0x3e65cbe0	0.22441053
28	0x3d23fd19	0.040036295
29	0xbde780cf	-0.11303865
30	0x3d31097e	0.043221943
31	0x3e87d99e	0.26533216
32	0xbe95ba88	-0.29243875
33	0xbe12c5b1	-0.14333226
34	0xbc859883	-0.016308075
35	0xbd6364b0	-0.055515945
36	0xbe26924e	-0.16266748
37	0xbe2ece62	-0.17070916
38	0xbe807dd6	-0.25096005
39	0xbd1cc987	-0.03827813
40	0xbd9ee0f6	-0.07757752
41	0x3d135c8d	0.035976935
42	0xbe2201a4	-0.15820938
43	0xbc1cc50e	-0.009568466
44	0x3e878e34	0.2647568
45	0xbe3049ef	-0.17215703
46	0x3d99c144	0.075075656
47	0xbd481546	-0.048848413
48	0xbe054429	-0.13014282
49	0xbc676b38	-0.014124684
50	0x3e129690	0.14315248
51	0xbe1a538a	-0.1507093
52	0x3dc95fb0	0.09832704
53	0x3e4baf8a	0.19891182
54	0xbe261529	-0.1621901
55	0x3de12243	0.10992863
56	0xbda04f8d	-0.07827673
57	0x3d4e9d7e	0.050443165
58	0xbdc5b337	-0.09653323
59	0xbabd2906	-0.0014431782
60	0x3d8f85aa	0.07007916
61	0xbccb97a1	-0.024852576
62	0xbea2c830	-0.31793356
63	0x3b545cb8	0.0032403897
64	0x3e8424f8	0.25809455
65	0x3d8d6b07	0.069051795
66	0x3e0188c2	0.12649825
67	0xbdbe7e7f	-0.09301471
68	0x3e63a841	0.22232153
69	0x3caa6fc9	0.020805256
70	0xbe04ef0d	-0.12981816
71	0xbdaaa5cb	-0.08332404
72	0x3e551a9f	0.20810936
73	0xbe394300	-0.18091965
74	0xbe64e641	-0.2235346
75	0x3d7f9ae9	0.062403593
76	0x3d971bb6	0.07378332
77	0xbd063417	-0.03276452
78	0xbe2ec1f6	-0.17066178
79	0xbd2dd787	-0.04244187
80	0x3dc49f37	0.0960068
81	0xbe428a63	-0.18998103
82	0x3ea6b1fe	0.32557672
83	0xbe1bbb38	-0.15208137
84	0x3df0a5ec	0.11750397
85	0x3d327f1c	0.043578252
86	0xbec0cb6a	-0.37655193
87	0xbee1443c	-0.4399737
88	0x3e6d2da4	0.23161942
89	0x3dfd7c6b	0.123772465
90	0xbe034734	-0.1282013
91	0x3d8d6732	0.069044486
92	0x3e34b3a1	0.17646648
93	0x3d872c45	0.066002406
94	0xbe3a5406	-0.18196115
95	0xbb4e7a10	-0.003150586
96	0x3d88b327	0.066747956
97	0x3db9cbf2	0.090721026
98	0x3d827249	0.063694544
99	0x3da07872	0.07835473
100	0x3e26b783	0.16280942
101	0xbe1057d1	-0.14096
102	0x3da769ab	0.081744514
103	0x3d73dd37	0.05953714
104	0xbd91f30b	-0.07126435
105	0x3d8f24e6	0.0698946
106	0x3e2eeb91	0.17082049
107	0xbdd38d57	-0.10329693
108	0x3d57430f	0.052554186
109	0x3e3bd665	0.18343504
110	0x3c940eed	0.018073523
111	0xbdb10b85	-0.08644775
112	0xbda22ccf	-0.07918703
113	0x3cf86a01	0.030323984
114	0x3df20925	0.118181504
115	0xbe1172d6	-0.14203963
116	0xba582d60	-0.00082465075
117	0xbdf1ad06	-0.1180058
118	0xbd9b72ef	-0.07590281
119	0x3e160f09	0.14654173
120	0xbcf45ded	-0.029829944
121	0xbe334f9b	-0.17510836
122	0x3e1710db	0.14752524
123	0x3cf02dd3	0.029318726
124	0xbe984f44	-0.29747975
125	0xbda437e7	-0.08018475
126	0xbe13827c	-0.14405245
127	0xbe0659fa	-0.13120261
128	0xbddc13cc	-0.107459635
129	0xbd56a286	-0.05240109
130	0x3e7e95fc	0.24861902
131	0xbe00e745	-0.12588222
132	0x3e634391	0.22193743
133	0xbcf1d020	-0.029518187
134	0xbe5dfe5d	-0.21679063
135	0xbd9cd2b7	-0.07657378
136	0x3e9c97b2	0.30584484
137	0xbd9a13a8	-0.075232804
138	0x3d8ee334	0.06976929
139	0xbd01c271	-0.031679574
140	0x3e275a95	0.16343148
141	0xbe3c9e89	-0.18419851
142	0x3e161bec	0.14659089
143	0xbdab0bc4	-0.083518535
144	0xbe6b9bc6	-0.23008642
145	0xbd351a52	-0.044214554
146	0x3df7eee1	0.121061094
147	0x3dde6aa4	0.10860184
148	0xbe3cca5f	-0.18436573
149	0xbd6c909c	-0.057755098
150	0xbe69276f	-0.22768949
151	0xbe01ca28	-0.12674773
152	0xbd6e4ce5	-0.0581788
153	0xbb96b8d4	-0.00459967
154	0x3d02cf7e	0.03193616
155	0xbd966a5d	-0.07344506
156	0x3c9cc9d7	0.019139213
157	0x3dd282d3	0.10278859
158	0xbc58f052	-0.013240891
159	0xbdb5ba40	-0.08873415
160	0xbca04dc7	-0.019568337
161	0xbdfcab9b	-0.12337419
162	0xbc04a5af	-0.008096143
163	0xbe110650	-0.14162564
164	0xbe186ab8	-0.1488446
165	0xbe91dcb8	-0.28488708
166	0xbdb224c5	-0.086984195
167	0xbe6cd4d0	-0.23128057
168	0x3ca16189	0.019699829
169	0xbe1d4bf9	-0.15361013
170	0x3d8cb404	0.06870273
171	0xbd90bf1c	-0.07067701
172	0x3d54205c	0.051788673
173	0x3df3495c	0.118792266
174	0x3e076469	0.13221897
175	0xbc1fb920	-0.009748727
176	0x3cbb462f	0.022860615
177	0xbd4fd325	-0.050738472
178	0xbe693429	-0.22773804
179	0x3dba9d2a	0.09112008
180	0x3e014113	0.1262248
181	0xbdd759b1	-0.10515154
182	0xbe42e99e	-0.1903443
183	0xbd9f6ad5	-0.077840485
184	0x3d8d04c2	0.06885673
185	0xbe008526	-0.12550792
186	0x3e4b826a	0.19873968
187	0x3df18f53	0.11794915
188	0x3d5ee731	0.0544197
189	0x3db6caa2	0.08925368
190	0x3d1af224	0.03782858
191	0xbde42889	-0.11140544
192	0xbcd278da	-0.025692392
193	0xbe59025e	-0.2119231
194	0xbe7e83af	-0.24854921
195	0x3e20dfa4	0.15710312
196	0x3e17f535	0.14839633
197	0x3e27b4b6	0.1637753
198	0x3d377206	0.044786476
199	0xbd61e7b2	-0.055152602
200	0xbdebe28d	-0.115178205
201	0xbe80b39e	-0.25137037
202	0x3e021c27	0.12706052
203	0xbe76c776	-0.24099526
204	0x3cc53fbd	0.024078244
205	0xbe6a0843	-0.22854714
206	0xbdb86b0c	-0.090047926
207	0xbe53ee6d	-0.20696421
208	0xbe443040	-0.19159031
209	0xbe665eab	-0.2249705
210	0xbc23de9c	-0.010001805
211	0x3e7ab005	0.24481209
212	0xbc48f7fc	-0.012266155
213	0xbd734fd6	-0.05940231
214	0x3d0b3438	0.033985347
215	0x3d5698ce	0.05239182
216	0xbdd8b255	-0.10580889
217	0x3dbaa77e	0.09113978
218	0xbe287197	-0.16449581
219	0x3ce61149	0.028084414
220	0xbd83215f	-0.064028494
221	0x3e01df48	0.12682831
222	0x3e172cd9	0.14763202
223	0xbe08f6fa	-0.13375464
224	0x398132c4	0.0002464262
225	0xbde91119	-0.11380214
226	0xbbdb8a24	-0.0066998173
227	0xbdac82ab	-0.084233604
228	0x3da680a5	0.08130006
229	0x3dd3eafd	0.10347555
230	0xbe2aab0f	-0.16666816
231	0xbe02b48c	-0.12764186
232	0xbe58a49d	-0.21156545
233	0xbe3ba1a0	-0.18323374
234	0xbdf1d9aa	-0.11809094
235	0x3e0bb224	0.13642174
236	0x3e1d8b7f	0.15385245
237	0xbe46553a	-0.19368449
238	0xbe8b1ddb	-0.27171215
239	0x3d225fff	0.03964233
240	0x3e66494d	0.224889
241	0xbdc74788	-0.097304404
242	0x3d1d2dcd	0.038373757
243	0x3a8a13f3	0.001053451
244	0xbc596fcb	-0.013271282
245	0x3dfe737b	0.1242437
246	0xbdee4aa9	-0.11635334
247	0xbcdef86e	-0.02721807
248	0x3e33a874	0.17544729
249	0xbe53800c	-0.20654315
250	0x3e883ef0	0.26610518
251	0xbd4adbbf	-0.049525972
252	0x3de88715	0.1135389
253	0x3de565b2	0.112010375
254	0xbe9b9212	-0.3038488
255	0xbe021485	-0.1270314

weight_hh_l1 f4 [96, 24]
0	0xbe2dadfc	-0.16960901
1	0xbe3bf1f6	-0.1835402
2	0x3c36848e	0.011140002
3	0x3e095267	0.1341034
4	0x3db006f8	0.08595079
5	0x3cb8052b	0.022463402
6	0xbdb72eba	-0.08944459
7	0x3d951b34	0.07280579
8	0xbdcc5fe7	-0.099792294
9	0xbe21057a	-0.15724745
10	0x3cd2ab01	0.025716307
11	0x3cda60c4	0.02665747
12	0xbd831317	-0.064001255
13	0xbdf9c1a0	-0.12195134
14	0xbea056af	-0.31316134
15	0x3c383477	0.011242977
16	0x3b0b4b4b	0.0021254595
17	0xbd1138b6	-0.035454474
18	0xbe70ec1d	-0.2352757
19	0xbe6599b0	-0.22421908
20	0x3e46f9dd	0.19431253
21	0xbb21a327	-0.0024663897
22	0xbe5e1719	-0.21688499
23	0x3e7992d3	0.24372415
24	0x3e08bc0d	0.13352986
25	0xbbf23263	-0.0073912605
26	0xbe34bab7	-0.17649351
27	0xbd9e3af3	-0.077260874
28	0xbcd30ec8	-0.025763884
29	0x3e1b5977	0.15170847
30	0x3e487748	0.19576752
31	0x3e221b37	0.15830694
32	0xbdaacb50	-0.0833956
33	0x3c8d11b2	0.017220352
34	0xbdba1696	-0.09086339
35	0xbe527b1f	-0.2055478
36	0x3d052a1b	0.032510858
37	0x3d1d3693	0.038382124
38	0xbde3f46c	-0.11130604
39	0x3df6f855	0.12059084
40	0xbe6996a6	-0.22811374
41	0x3e8675d5	0.26261774
42	0xbda0384f	-0.0782324
43	0x3e2278e5	0.1586643
44	0xbe8d00d1	-0.27539685
45	0xba63ada3	-0.00086852367
46	0x3dd3d903	0.10344126
47	0x3d955402	0.07291414
48	0x3c5d4f8e	0.013507737
49	0x3de39efc	0.11114308
50	0xbe10f936	-0.14157566
51	0xbc94f1d4	-0.018181719
52	0x3b30a23d	0.002695217
53	0x3dd712d3	0.10501637
54	0xbc23a5c5	-0.009988253
55	0xbd06310c	-0.03276162
56	0xbc5b19e7	-0.013372875
57	0xbe5d3f54	-0.21606189
58	0x3d443957	0.047906246
59	0xbe24eb0c	-0.16105288
60	0x3d77f03c	0.06053184
61	0x3d182f08	0.037154227
62	0xbdec459a	-0.11536713
63	0xbe149f13	-0.14513807
64	0xbdfa55a7	-0.12223368
65	0x3b20049d	0.0024416812
66	0x3db47502	0.0881138
67	0x3c4d163a	0.012517506
68	0xbd15d605	-0.036581058
69	0x3e4527c0	0.19253445
70	0x3e03cb9e	0.12870643
71	0x3e6b1312	0.22956493
72	0x3df2ee07	0.11861806
73	0x3de31950	0.11088812
74	0xbeb8618f	-0.3601193
75	0xbe1673b4	-0.14692575
76	0x3db16e33	0.08663597
77	0xbda6ec51	-0.081505425
78	0xbc91c1ed	-0.017792666
79	0x3beaf02d	0.0071697445
80	0xbe405454	-0.18782169
81	0x3eadf22b	0.33973822
82	0xbd793122	-0.060837872
83	0x3d6fad48	0.058514863
84	0xbe820262	-0.25392443
85	0xbe25ab03	-0.16178517
86	0x3e28769a	0.16451493
87	0x3da0269c	0.07819864
88	0xbe83a8f5	-0.2571484
89	0x3c8d084f	0.017215876
90	0xbd907f7e	-0.07055567
91	0x3e08956a	0.13338247
92	0xbdc0fef5	-0.09423629
93	0xbc527415	-0.012845059
94	0x3cd4fbee	0.025999036
95	0xbdf89e0f	-0.12139522
96	0xbdfb52a1	-0.122716196
97	0x3d9d7a88	0.076893866
98	0x3e03002e	0.12793037
99	0x3e606d87	0.21916781
100	0xbda1a9e2	-0.07893731
101	0xbd2c5f84	-0.04208328
102	0xbdacaf98	-0.08431929
103	0xbe0a1c7d	-0.1348743
104	0x3e36b4ad	0.1784236
105	0xbdc3a7a4	-0.09553459
106	0xbd4a9e0e	-0.04946714
107	0xbdf4323f	-0.11923646
108	0x3e67be65	0.22631223
109	0xbd48f896	-0.049065195
110	0xbdbdca98	-0.09267157
111	0xbe72187a	-0.2364215
112	0xbdbf8251	-0.09351028
113	0x3e204c88	0.15654194
114	0xbd4ee6cf	-0.050513085
115	0xbde50028	-0.111816704
116	0xbe0b9a62	-0.13633111
117	0xbe00762e	-0.12545082
118	0xbd59562b	-0.05306069
119	0xbd434642	-0.047674425
120	0x3e67dd06	0.22642908
121	0x3e892f2f	0.2679381
122	0xbdfe51cc	-0.12417945
123	0xbdb80e49	-0.089871
124	0xbd62debd	-0.0553882
125	0xbdc218bb	-0.09477373
126	0xbcb2026a	-0.021729667
127	0x3e62768c	0.22115535
128	0xbea13d7b	-0.31492218
129	0x3e1f9ae3	0.15586428
130	0xbd20fb04	-0.039301887
131	0x3e38b7c3	0.1803885
132	0xbe759d16	-0.23985705
133	0xbeccf0a1	-0.40027335
134	0xbe26753d	-0.1625566
135	0xbe258043	-0.16162209
136	0xbe5fde64	-0.21862179
137	0xbe3ef95c	-0.1864981
138	0xbe0d7881	-0.138155
139	0xbdc116ed	-0.09428201
140	0xbdc0a23d	-0.094059445
141	0xbe3a4483	-0.18190198
142	0x3e9f1e5d	0.31077853
143	0x3def4960	0.11683917
144	0x3e1dcfe2	0.15411332
145	0xbe319bc6	-0.17344579
146	0xbe1e79a0	-0.15476084
147	0x3dea9dc4	0.11455873
148	0xbe357c22	-0.17723134
149	0x3c453462	0.012036415
150	0xbbc4956c	-0.005999258
151	0xbd297a41	-0.041376356
152	0xbca66a39	-0.020314323
153	0x3e72d1f6	0.23712906
154	0x3cbc583f	0.022991298
155	0xbe28772b	-0.16451709
156	0xbdf9cc8a	-0.12197216
157	0xbe4af020	-0.19818163
158	0xbe4155eb	-0.18880431
159	0x3dbf6fc8	0.093474925
160	0x3c1d471e	0.009599475
161	0xbd817175	-0.06320468
162	0xbda289c8	-0.07936436
163	0xbdab9650	-0.08378279
164	0xbe5ac3d8	-0.21363771
165	0x3d1d5f1c	0.03842078
166	0xbe407682	-0.18795207
167	0x3e07fe0b	0.13280503
168	0x3d9df405	0.07712559
169	0x3e789a20	0.24277544
170	0x3e7e6085	0.24841507
171	0x3d4911b0	0.049089134
172	0xbd9a7201	-0.07541276
173	0x3cc88f1d	0.024482304
174	0x3e25bae4	0.16184574
175	0xbe730e45	-0.23735912
176	0xbe83c645	-0.25737205
177	0xbd391641	-0.04518724
178	0xbe55bd0a	-0.20872894
179	0x3e553703	0.20821767
180	0x3cc6f2a8	0.02428563
181	0xbe3e97df	-0.18612622
182	0xbd9306ca	-0.07179029
183	0x3c897370	0.016778678
184	0x3e74123b	0.2383508
185	0xbbca4307	-0.006172541
186	0x3d9a13dc	0.07523319
187	0xbc12aa49	-0.008951732
188	0x3d464061	0.04840124
189	0xbd19891c	-0.037484273
190	0x3cf04f9c	0.029334836
191	0x3e101936	0.14072117
192	0x3b813156	0.003942649
193	0xbd8e755b	-0.069559775
194	0x3ddfe6a5	0.10932664
195	0xbc89af9d	-0.016807372
196	0xbe547b3f	-0.2075014
197	0xbd27445c	-0.040836677
198	0x3dfaf373	0.122534655
199	0x3e0c51da	0.13703099
200	0x3d508461	0.050907496
201	0x3d032f15	0.032027323
202	0x3e9936f7	0.29924747
203	0xbe605cd2	-0.21910408
204	0xbd922202	-0.07135393
205	0x3e07c7ab	0.13259761
206	0xbc5b2840	-0.013376296
207	0x3ddc4958	0.10756177
208	0xbdf50c5b	-0.11965247
209	0x3e9b2de8	0.3030846
210	0x3da80620	0.08204293
211	0x3ea58336	0.32326669
212	0xbd3b5b99	-0.04574165
213	0x3e893e35	0.26805273
214	0xbe85be28	-0.2612164
215	0xbd657c55	-0.056026775
216	0x3db37ae7	0.08763676
217	0xbdd37d13	-0.103265904
218	0xbbe711da	-0.0070516886
219	0xbe5fbc98	-0.21849287
220	0xbd4d1bbf	-0.05007529
221	0x3df46186	0.119326636
222	0x3e4e92c1	0.2017317
223	0xbe3fb1eb	-0.18720214
224	0x3d206c3b	0.039165717
225	0xbd39eb3e	-0.04539036
226	0x3e39878c	0.18118113
227	0xbe6764ef	-0.22597097
228	0x3e1a001a	0.15039101
229	0xbd6ac9cb	-0.05732135
230	0x3e0acaaf	0.1355388
231	0xbe6f3410	-0.23359704
232	0x3d93bd32	0.072138205
233	0x3dd30502	0.103036895
234	0xbd54d026	-0.05195632
235	0xbd5df65a	-0.054190017
236	0xbe108b81	-0.14115717
237	0x3e16353f	0.1466875
238	0xbcc183f2	-0.023622487
239	0xbc7bc911	-0.015367762
240	0x3e92f970	0.2870593
241	0x3e10c359	0.14137019
242	0xbe50ef79	-0.20403852
243	0x3e1d83dd	0.15382333
244	0x3e193b34	0.1496399
245	0xbe0964ae	-0.13417313
246	0x3d2da55b	0.042394023
247	0x3e22a09c	0.1588158
248	0xbe58cf4a	-0.21172825
249	0x3e033f7c	0.12817186
250	0xbe85cff5	-0.2613522
251	0x3dc5ff9a	0.09667893
252	0xbe1a3ce4	-0.1506229
253	0xbddce4d4	-0.10785833
254	0xbe0f182d	-0.13974066
255	0x3dda91cd	0.106723405

bias_ih_l1 f4 [96]
0	0xbe3897c5	-0.18026645
1	0xbe128954	-0.14310199
2	0xbe911924	-0.28339493
3	0xbea3c796	-0.3198821
4	0xbdd038c9	-0.10167081
5	0xbe18dd32	-0.1492813
6	0xbea493ec	-0.32144105
7	0xbe40e008	-0.18835461
8	0xbe55db98	-0.2088455
9	0xbe209413	-0.15681486
10	0x3c584ef4	0.013202418
11	0xbece38b2	-0.4027763
12	0xbb2556df	-0.002522878
13	0x3b903a76	0.0044015003
14	0x3da38c1e	0.079857096
15	0xbdb2ff60	-0.08740115
16	0xbce0ea49	-0.027455466
17	0xbe804334	-0.25051272
18	0xbe4baf67	-0.1989113
19	0x3d9d30ff	0.07675361
20	0xbe9d51a6	-0.30726355
21	0xbcc12a95	-0.023579875
22	0x3d4f6e3a	0.05064223
23	0xbe6042bc	-0.21900457
24	0xbde59c28	-0.11211425
25	0xbe89d4d4	-0.26920187
26	0xbcadf055	-0.021232763
27	0xbdca9d58	-0.09893292
28	0xbc260d2b	-0.010134975
29	0xbe2e51b2	-0.17023352
30	0xbeaccd9f	-0.33750626
31	0xbe79b891	-0.24386813
32	0xbdca9c25	-0.098930635
33	0xbe0eeecb	-0.1395828
34	0x3d06c8e0	0.032906413
35	0xbe87b51b	-0.2650536
36	0xbe705b53	-0.23472337
37	0xbe12dc02	-0.14341739
38	0xbe2aa516	-0.16664538
39	0x3e17276b	0.1476113
40	0xbe34ae0c	-0.17644519
41	0xbdc250b0	-0.09488046
42	0xbed100c0	-0.40820885
43	0xbdc81b8e	-0.09770881
44	0x3d1a4d3d	0.037671316
45	0xbd83bcf8	-0.06432527
46	0xbb696c45	-0.0035617512
47	0xbe8564f5	-0.26053587
48	0xbc4b5c81	-0.012412191
49	0x3dcee150	0.10101569
50	0xbe141203	-0.14459996
51	0xbe4d3c25	-0.20042475
52	0x3e08aca7	0.13347112
53	0x3df1ed65	0.118128575
54	0xbe314911	-0.17313029
55	0xbd505624	-0.0508634
56	0x3e77fbb1	0.24217106
57	0xbcaf8b0c	-0.021428607
58	0xbcdbdad7	-0.02683775
59	0x3d420b92	0.047374316
60	0x3e1dc5dd	0.1540751
61	0x3e55aaac	0.20865887
62	0x3e18620d	0.14881153
63	0x3cf86552	0.03032175
64	0x3e033ff3	0.12817363
65	0x3d82ffb7	0.0639643
66	0x3e3b2d63	0.18279032
67	0x3e031cf1	0.12804009
68	0x3dd53013	0.1040956
69	0xbdec5b2d	-0.11540828
70	0xbe180408	-0.14845288
71	0xbde2efce	-0.11080895
72	0xbe6986fc	-0.22805399
73	0xbe9eda7b	-0.31026062
74	0xbea1e1d8	-0.31617618
75	0xbe12a114	-0.14319259
76	0xbe45a96d	-0.19302912
77	0xbe966443	-0.2937337
78	0xbe8b8253	-0.27247867
79	0xbcf83e85	-0.03030325
80	0xbe793c2b	-0.24339359
81	0xbe37ae9f	-0.17937706
82	0xbe481b94	-0.1954177
83	0xbe02bed8	-0.12768114
84	0xbd92a304	-0.07159999
85	0xbdf3fdce	-0.11913644
86	0x3d18d60e	0.037313513
87	0xbdcdd0ab	-0.10049566
88	0xbe0f5d46	-0.14000425
89	0xbe2ed376	-0.17072853
90	0xbe90224c	-0.28151166
91	0x3dd82922	0.105547205
92	0xbdd3f861	-0.10350109
93	0xbd946bea	-0.072471455
94	0x3da933e8	0.082618535
95	0xbcc9c8af	-0.024631826

bias_hh_l1 f4 [96]
0	0xbddd82df	-0.10815977
1	0x3cb66eae	0.022269573
2	0x3b8b7e5f	0.004257008
3	0xbda6e69c	-0.08149454
4	0xbd9a98f8	-0.07548708
5	0xbde8f82d	-0.11375461
6	0xbe420f23	-0.18951087
7	0xbe9acaf7	-0.30232975
8	0xbde62957	-0.11238354
9	0xbe157cd3	-0.14598398
10	0x3ce2a55f	0.027666746
11	0xbddc76c6	-0.10764842
12	0xbea220fd	-0.31665793
13	0xbdfc23b0	-0.12311494
14	0xbe945392	-0.2897001
15	0xbe3e9175	-0.18610175
16	0xbcf92569	-0.030413346
17	0xbe2561e1	-0.16150619
18	0xbeb0bf80	-0.34521103
19	0xbdcc498a	-0.09974964
20	0xbdd5e0a9	-0.10443241
21	0xbe04cb6d	-0.12968226
22	0x3e035e0e	0.12828848
23	0xbdb88270	-0.09009254
24	0xbd920ec6	-0.07131724
25	0xbe42aeb5	-0.19011958
26	0xbe1df397	-0.15424953
27	0xbccb6242	-0.024827126
28	0xbe8cad68	-0.27476048
29	0x3d28a71c	0.041174993
30	0xbe170d1e	-0.14751098
31	0xbdaa2f2e	-0.0830978
32	0x3c45e307	0.012078053
33	0xbd9b3656	-0.07578723
34	0x3d1f9b36	0.03896638
35	0xbdf626ed	-0.12019143
36	0xbe32af26	-0.17449626
37	0x3e13325a	0.14374676
38	0xbdc62c87	-0.09676462
39	0xbe1a8621	-0.15090229
40	0xbe1e4fcc	-0.15460128
41	0xbdb7fc39	-0.089836545
42	0xbecd0d80	-0.40049362
43	0xbe51b508	-0.20479214
44	0xbdd78ae9	-0.10524542
45	0x3c963d1c	0.018339686
46	0x3c0d5ea0	0.008628517
47	0xbe024e46	-0.12725171
48	0x3d88e664	0.066845685
49	0xbe5ca747	-0.21548186
50	0x3d9ba544	0.07599881
51	0x3da2c125	0.07946996
52	0xbe5142d3	-0.20435648
53	0x3abe216c	0.001450581
54	0x3e3d9688	0.18514454
55	0x3dfeede0	0.12447715
56	0xbd8e52eb	-0.06949409
57	0xbe164374	-0.14674169
58	0x3e6af5cc	0.22945327
59	0xbe304089	-0.17212118
60	0xbdbc3b92	-0.0919105
61	0x3cfad7e9	0.030620532
62	0x3dd4c510	0.10389149
63	0x3dad9cb1	0.08477152
64	0xbe58f028	-0.21185362
65	0xbd0d6c93	-0.034527373
66	0xbdce623d	-0.10077331
67	0xbd4d1d99	-0.050077055
68	0xbe421940	-0.18954945
69	0x3e34b5bb	0.1764745
70	0x3d72ab12	0.059245177
71	0x3bfefcce	0.0077816015
72	0xbe6c2c6f	-0.23063825
73	0xbdb39c1d	-0.087700106
74	0xbcf624c0	-0.03004682
75	0xbdc3d174	-0.095614344
76	0xbe370924	-0.1787458
77	0xbe588686	-0.21145067
78	0xbdfd68fd	-0.123735406
79	0x3c8637ff	0.016384123
80	0xbdd898cf	-0.10576021
81	0xbe57ef71	-0.21087433
82	0xbd7dab24	-0.06193079
83	0xbcaf82c3	-0.021424657
84	0xbe3d0a34	-0.18460923
85	0xbd789b86	-0.060695194
86	0xbda9dca4	-0.08294037
87	0xbe1bcb26	-0.15214214
88	0xbde346e9	-0.110975094
89	0x3e02506e	0.12725994
90	0xbdbabe3c	-0.091183156
91	0x3d63bfe2	0.055602916
92	0xbddd127c	-0.10794541
93	0xbe810fa9	-0.2520726
94	0xbe1a8fc8	-0.1509391
95	0xbd62443e	-0.055240862

weight_ih_l2 f4 [96, 24]
0	0xbe00267d	-0.12514682
1	0xbc106ef8	-0.0088155195
2	0x3d7e5a81	0.06209803
3	0x3e7a50a0	0.24444818
4	0xbd134eed	-0.03596394
5	0xbd84b966	-0.064806744
6	0x38f0be1e	0.00011479504
7	0xbc6dc431	-0.014512108
8	0x3b8b3a0b	0.0042488626
9	0x3d51e615	0.051244814
10	0xbf0f87aa	-0.5606638
11	0x3e6c340d	0.23066731
12	0xbe4ff241	-0.20307256
13	0xbf1f766b	-0.62290066
14	0xbec03cc9	-0.37546375
15	0xbdbde151	-0.09271491
16	0x3dff7530	0.124735236
17	0xbe5dd022	-0.21661428
18	0xbe782d51	-0.24236037
19	0xbeab65b1	-0.33476022
20	0x3ec02350	0.3752694
21	0xbd874fee	-0.06607042
22	0xbe253890	-0.16134858
23	0x3da9ef76	0.08297627
24	0x3c2df279	0.010616892
25	0x3e5d4763	0.21609263
26	0x3d45c7f8	0.04828641
27	0xbd9942e5	-0.07483462
28	0xbe72f387	-0.23725711
29	0x3e9a7573	0.30167732
30	0x3d8d84bf	0.06910085
31	0x3caeae52	0.021323357
32	0xbe3d4bb8	-0.18485916
33	0xbb6eb800	-0.003642559
34	0xbe13eddf	-0.1444621
35	0xbe20108e	-0.15631315
36	0xbe69c2f2	-0.22828272
37	0xbed49362	-0.41518694
38	0xbdd190c7	-0.10232692
39	0xbd3d0edb	-0.046156745
40	0xbc9cf12c	-0.019157968
41	0xbd15a366	-0.036532782
42	0xbdbf545c	-0.09342262
43	0xbd12a567	-0.03580227
44	0x3e21ff34	0.15820009
45	0x3ca72ea9	0.020407991
46	0x3e8a2cbe	0.2698726
47	0xbd93920c	-0.072055906
48	0xbe1aaae2	-0.15104249
49	0xbcfe0f19	-0.031013058
50	0xbe726c52	-0.23674133
51	0x3d7c1754	0.061545685
52	0xbd36f46f	-0.044666704
53	0xbaddc413	-0.0016919397
54	0x3c04895d	0.008089391
55	0xbdb92da1	-0.09041906
56	0xbe758d8b	-0.23979776
57	0x3e5efe58	0.21776712
58	0xbe3f3d95	-0.18675835
59	0xbdcff7a1	-0.10154653
60	0xbe5c2a83	-0.21500592
61	0xbf22ac64	-0.635443
62	0xbcc1610a	-0.023605842
63	0x3e4f9b70	0.20274138
64	0xbe06b311	-0.13154246
65	0xbe41d174	-0.18927556
66	0xbe3aaef9	-0.1823081
67	0xbc2e6b15	-0.0106456475
68	0x3d9c529a	0.076329425
69	0x3e2983da	0.16554204
70	0x3dceff35	0.10107271
71	0x3e0723a0	0.13197184
72	0xbde6cbba	-0.112693265
73	0x3dd335cd	0.10312996
74	0x3daf48e3	0.08558824
75	0x3c19fad1	0.009398178
76	0xbdce112f	-0.10061871
77	0x3e224254	0.15845615
78	0xbda085eb	-0.07838043
79	0xbb53d7dd	-0.003232471
80	0xbd473da9	-0.048642788
81	0x3e8a621d	0.2702798
82	0xbe2bab33	-0.16764526
83	0x3e21e88c	0.15811366
84	0xbe0c1503	-0.1367989
85	0xbea332df	-0.3187475
86	0xbe74d2ed	-0.23908587
87	0x3d3032d6	0.04301723
88	0x3e3bca56	0.18338904
89	0xbda2191b	-0.07914945
90	0xbc83f33e	-0.016107198
91	0x3e4cdd81	0.20006372
92	0xbcedcd5c	-0.029028587
93	0xbaec3dba	-0.0018023767
94	0xbd540290	-0.051760256
95	0xbc8545ce	-0.016268637
96	0xbd5ddb83	-0.05416442
97	0x3e716f2b	0.23577563
98	0xbd89ffb2	-0.06738223
99	0x3e140808	0.14456189
100	0x3e2fbf26	0.17162761
101	0x3d2231eb	0.039598387
102	0xbde70f9f	-0.11282276
103	0x3cd56ef2	0.02605388
104	0xbecbf5b7	-0.39835903
105	0x3e73ab5c	0.23795837
106	0xbe6596c2	-0.22420791
107	0x3e847815	0.25872865
108	0xbe9bc822	-0.30426127
109	0xbe7cbdb8	-0.24681747
110	0xbcaadf58	-0.020858452
111	0xbde4d345	-0.11173109
112	0x3e3ed85c	0.18637222
113	0xbe881c05	-0.26583877
114	0xbcb34e07	-0.021887792
115	0xbdcbef2e	-0.09957729
116	0x3d8f44b1	0.06995524
117	0x3e0060f2	0.12536982
118	0x3ea11f55	0.31469217
119	0xbd96d210	-0.07364285
120	0x3dfd1c97	0.12358969
121	0x3e8e42b2	0.2778526
122	0xbeac1d99	-0.3361633
123	0xbd2c35e5	-0.042043585
124	0xbd55c178	-0.05218646
125	0x380572d5	3.1816617e-05
126	0xbde310b6	-0.11087172
127	0x3e52ccee	0.20585987
128	0xbe4515b1	-0.19246556
129	0x3ed5820b	0.41700777
130	0xbc6f12bc	-0.014591869
131	0xbd696bb2	-0.056987472
132	0xbddfd4f5	-0.1092929
133	0xbf38b626	-0.72152936
134	0xbea11fea	-0.3146966
135	0x3e30038c	0.17188853
136	0xbe2b0a7c	-0.16703218
137	0xbd6ad7ca	-0.0573347
138	0xbdfebcf2	-0.12438382
139	0xbe6e8194	-0.23291618
140	0x3e0d3127	0.13788281
141	0x3ed9627c	0.4245795
142	0xbc9f7907	-0.01946689
143	0xbe42862b	-0.18996494
144	0xbe6ddb9a	-0.23228303
145	0xbd9782df	-0.073980086
146	0xbe5751b4	-0.21027261
147	0xbc9b5075	-0.018959263
148	0x393b7af7	0.00017879518
149	0xbd4c4092	-0.049866267
150	0xbe2079eb	-0.15671508
151	0xbd4b33e3	-0.04961003
152	0xbec7d97f	-0.39033124
153	0x3dbf6b50	0.0934664
154	0x3d7eb755	0.062186558
155	0xbbf2d51a	-0.0074106576
156	0xbe62c629	-0.22145905
157	0xbf2407d4	-0.64074445
158	0xbe85f129	-0.26160553
159	0xbe1e9fb0	-0.15490603
160	0x3daae03f	0.08343553
161	0xbe0c2eae	-0.13689682
162	0xbcbbdba1	-0.022931876
163	0xbc81ba79	-0.015835987
164	0x3e92cf48	0.28673768
165	0xbdf0786b	-0.11741718
166	0x3d4fe47f	0.05075502
167	0x3de84704	0.1134167
168	0xbea3eede	-0.3201818
169	0x3e54ad73	0.2076929
170	0x3e1a8333	0.15089111
171	0x3dcfed64	0.101527005
172	0x3c43a2ad	0.01194064
173	0x3d190c21	0.037365083
174	0xbdaab27a	-0.08334823
175	0xbe594635	-0.21218188
176	0xbe41516f	-0.1887872
177	0x3ee3807a	0.44433957
178	0xbea1f695	-0.3163344
179	0x3ea0dc27	0.31417963
180	0xbd99ffe1	-0.07519508
181	0xbed3001f	-0.4121103
182	0xbd086081	-0.03329516
183	0xbcb3a04b	-0.02192702
184	0xbccffb57	-0.025388403
185	0xbec92723	-0.3928767
186	0xbe114949	-0.14188112
187	0xbe5dfc4d	-0.21678276
188	0x3de79b20	0.113088846
189	0xbd8a3629	-0.067486115
190	0xbd8f2925	-0.069902696
191	0x3d51d24c	0.051225945
192	0x3d579582	0.052632816
193	0x3e921d3a	0.28537923
194	0xbdd47fa4	-0.10375908
195	0x3ea5cd24	0.32383072
196	0xbe18ebb5	-0.14933665
197	0xbe7c49b2	-0.24637488
198	0xbe5d4d8f	-0.21611618
199	0x3da0948e	0.078408346
200	0xbe8b242e	-0.2717604
201	0x3eb6346f	0.3558688
202	0xbe6e844a	-0.23292652
203	0x3e046fef	0.12933324
204	0xbdee87b8	-0.1164698
205	0xbead9e60	-0.33909893
206	0xbe1a143c	-0.15046781
207	0xbe7a1382	-0.24421504
208	0x3e14fd6c	0.14549798
209	0xbe825037	-0.25451824
210	0xbe2c0eaf	-0.16802476
211	0x3d54f70e	0.051993422
212	0x3e373454	0.17891055
213	0x3e296437	0.16542135
214	0x3cfab8c0	0.030605674
215	0x3d6cc0b7	0.057800975
216	0x3d45b33a	0.048266627
217	0x3e7ab2dc	0.24482292
218	0xbe86af1c	-0.26305473
219	0xbe31666c	-0.17324227
220	0x3cb5c8ec	0.022190534
221	0x3df1340a	0.11777504
222	0x3d5e85ea	0.05432693
223	0xbe18e758	-0.14932
224	0xbd55b5da	-0.05217538
225	0x3e450509	0.19240202
226	0xbe3f077b	-0.18655197
227	0xbb03f059	-0.0020132272
228	0xbde55fd0	-0.111999154
229	0xbf1f3dcb	-0.62203664
230	0xbe7b7b59	-0.24558772
231	0xbda37e36	-0.07983057
232	0xbdb4b651	-0.088238366
233	0xbe675cbf	-0.22593974
234	0xbe365a61	-0.17807914
235	0x3e51d40c	0.20491046
236	0x3ded9792	0.11601175
237	0x3d3c3907	0.045952823
238	0xbaedbc72	-0.0018137826
239	0xbb8b5fd8	-0.004253369
240	0xbe8aab72	-0.27083927
241	0xbd82074a	-0.063490465
242	0x3dc6016f	0.09668242
243	0xbd6ed1c0	-0.058305502
244	0xbe551ee7	-0.2081257
245	0xbe3fc90a	-0.18729034
246	0x3db875bf	0.09006833
247	0xbeca76ce	-0.39543766
248	0xbe27c77c	-0.16384691
249	0x3eb1f645	0.347582
250	0xbe8b1de3	-0.2717124
251	0xbd85111c	-0.06497404
252	0xbc4902e4	-0.012268756
253	0xbe6b351a	-0.22969475
254	0xbdc75f3e	-0.09734963
255	0xbe63d21e	-0.22248122
