models/UCF101_lstm_angles_model.pth (torch, 315095 bytes, 42 tensors)

weight_ih_l0 f4 [128, 25]
-0.02837421 -0.17226042 -0.11031971 -0.0024421513 -0.022843167 -0.061569273 0.14167278 0.019223243
-0.13894583 0.1615781 0.15332083 0.11139946 -0.019116461 -0.13206546 -0.10842348 0.106670454
0.008393332 0.04181461 -0.076094866 0.03352405 0.09159632 0.015845269 0.16175915 0.14741479
-0.16888785 -0.0024706423 0.060680225 0.0589775 0.13729696 0.118502215 0.17439382 0.1156701
0.10203458 -0.100641534 -0.1704703 -0.17003231 -0.00989224 -0.10509536 -0.013488129 -0.100421205
-0.160017 -0.07566008 0.053494185 -0.02196376 -0.02937989 -0.16045651 0.05350572 0.110890135
0.10464032 0.16148518 0.050048202 0.08020441 0.061992213 -0.114199035 -0.14216822 -0.13858357
0.13431369 0.095103845 0.14642923 0.1503887 0.011207938 0.047671333 0.07678713 -0.16090015
-0.17011884 0.13576828 0.08169539 0.05368887 -0.14018664 -0.078944184 -0.018904835 0.08750673
-0.120932244 -0.070483945 -0.041157633 -0.026998445 -0.09221326 0.020191506 0.11748053 -0.0961648
0.15485929 -0.07488725 -0.0054059178 -0.05780086 -0.09803627 0.068268046 -0.17382988 -0.096941814
0.17175175 0.064003006 -0.0657911 0.026334345 0.110885814 -0.04648283 0.018741846 0.06480716
-0.11562535 0.1679885 0.042608693 0.17132281 -0.15056728 0.14081527 0.12969474 0.009391621
0.12302868 0.06070134 -0.02140835 0.09001057 0.122008696 0.07004872 0.12054597 -0.013368577
0.13144864 -0.04621041 0.15113576 -0.06259091 -0.02498889 0.15382402 -0.16310468 -0.10377422
-0.14481592 -0.107596226 -0.12647769 0.025385872 -0.00043213367 0.11265601 0.04802537 -0.1711236
0.018491715 0.039618075 0.1117814 0.14944245 0.15867732 -0.15911248 0.14677857 -0.01208733
0.016965926 -0.09812989 0.12152772 0.050259024 -0.020657852 0.08747508 -0.06572961 0.03641647
-0.08184654 0.057600796 -0.019645363 -0.06714058 -0.1386068 -0.07579367 0.042875186 -0.10409905
0.16634868 0.09178494 0.04714778 0.10950543 0.092812344 0.120452896 0.06611641 -0.07149193
-0.16267185 0.14422764 -0.0054389387 0.00029094517 0.17474209 0.121042 -0.07820927 0.15761076
-0.13342455 -0.077210814 0.1331261 0.15171798 -0.117767245 0.08062507 -0.16869545 -0.1483782
0.07960509 0.027002215 0.0073750615 0.07820065 -0.07801946 0.1021447 -0.10718757 0.17143317
-0.046533674 -0.14964749 0.080648765 -0.062335506 0.11496656 0.14532869 -0.07151698 -0.061619952
-0.06252799 -0.08112345 -0.17586271 -0.054170124 0.11885251 0.01194258 0.15834127 -0.16601825
-0.041392148 0.15647946 0.059526697 -0.15041856 0.16936468 0.16757338 0.028345942 -0.13462463
-0.04698506 -0.13634044 0.022358105 -0.056056447 0.0522068 -0.082049735 -0.161833 -0.06298566
-0.0776979 -0.051864393 0.15562655 0.17076926 0.1491607 0.04563065 -0.032454863 -0.08597177
-0.0013474971 0.06744653 -0.17406797 -0.013993815 -0.15754616 0.045982867 -0.0034829378 -0.05992464
-0.031583056 -0.030288309 -0.0027787238 -0.16406232 0.12348686 0.049845055 -0.11791312 0.11432837
0.014065117 -0.0019638687 0.04478495 0.058721513 0.124956414 -0.15505345 0.16435866 -0.1382719
0.05811292 0.13161747 -0.030492976 0.063442245 0.0007535219 -0.040824622 -0.11702919 -0.09307263
00000000: 0871 e8bc 0965 30be 4def e1bd 800c 20bb
00000010: 9821 bbbc 1030 7cbd ab12 113e 107a 9d3c
00000020: d147 0ebe bb74 253e 2300 1d3e 6625 e43d
00000030: 209a 9cbc 2b3c 07be 210d debd 0a76 da3d
00000040: 3084 093c cc45 2b3d a0d7 9bbd 8450 093d
00000050: da96 bb3d f0cd 813c 31a4 253e e7f3 163e
00000060: f0f0 2cbe 80ea 21bb d48b 783d 6492 713d
00000070: 9397 0c3e 4ab1 f23d 4b94 323e 72e4 ec3d
00000080: 82f7 d03d 261d cebd c48f 2ebe f31c 2ebe
00000090: 1013 22bc 3c3c d7bd 50fd 5cbc a2a9 cdbd
000000a0: 7fdb 23be acf3 9abd b81c 5b3d 58ed b3bc
000000b0: 18ae f0bc b64e 24be d028 5b3d 5e1a e33d
000000c0: aa4d d63d 5f5c 253e 58ff 4c3d 3642 a43d
000000d0: 8ceb 7d3d 2fe1 e9bd 8c94 11be dae8 0dbe
000000e0: 8789 093e cec5 c23d 8bf1 153e 7fff 193e
000000f0: 80a1 373c 0443 433d 9242 9d3d 02c3 24be
00000100: a233 2ebe d706 0b3e ea4f a73d dce8 5b3d
00000110: 168d 0fbe 7dad a1bd 50de 9abc ba36 b33d
00000120: 53ab f7bd e359 90bd e894 28bd d82b ddbc
00000130: 4eda bcbd a868 a53c a299 f03d 0df2 c4bd
00000140: 6f93 1e3e 7d5e 99bd 2024 b1bb 98c0 6cbd
00000150: 3dc7 c8bd 1ed0 8b3d 7600 32be 6e89 c6bd
00000160: b1df 2f3e 0214 833d 7cbd 86bd 20bb d73c
00000170: 1a18 e33d c864 3ebd 8088 993c 9eb9 843d
00000180: fccc ecbd 2d05 2c3e 7486 2e3d 3f6f 2f3e
00000190: 4f2e 1abe e131 103e b3ce 043e 50df 193c
000001a0: 76f6 fb3d f8a1 783d 9060 afbc 7657 b83d
000001b0: b2df f93d b475 8f3d cee0 f63d e007 5bbc
000001c0: 799a 063e 2047 3dbd 55c3 1a3e aa2f 80bd
000001d0: 80b5 ccbc 0b84 1d3e ea04 27be 9487 d4bd
000001e0: a04a 14be 695b dcbd 5e83 01be 08f6 cf3c
000001f0: 0090 e2b9 32b8 e63d 40b6 443d 063b 2fbe
00000200: f07b 973c 9046 223d a6ed e43d 7107 193e
00000210: 4f7c 223e 62ee 22be 1f4d 163e f009 46bc
00000220: 20fc 8a3c 53f8 c8bd 86e3 f83d 68dc 4d3d
00000230: a83a a9bc 2226 b33d 3f9d 86bd 7029 153d
00000240: 299f a7bd d0ee 6b3d 50ef a0bc 0081 89bd
00000250: f1ee 0dbe b639 9bbd e49d 2f3d e231 d5bd
00000260: 4f57 2a3e bef9 bb3d 081e 413d 6244 e03d
00000270: 6614 be3d 02b0 f63d 0a68 873d 5c6a 92bd
00000280: 7393 26be 69b0 133e 2039 b2bb 008a 9839
00000290: 97ef 323e dee4 f73d 2f2c a0bd b764 213e
000002a0: 72a0 08be b420 9ebd 3552 083e f55b 1b3e
000002b0: f42f f1bd c21e a53d 80be 2cbe 74f0 17be
000002c0: fe07 a33d c033 dd3c 80aa f13b aa27 a03d
000002d0: abc8 9fbd 3e31 d13d 2885 dbbd 2d8c 2f3e
000002e0: 189a 3ebd 313d 19be 2e2b a53d 8453 7fbd
000002f0: 9673 eb3d 0bd1 143e 7f77 92bd 3465 7cbd
00000300: ad0e 80bd 0d24 a6bd 5b15 34be 7ee1 5dbd
00000310: f268 f33d d0aa 433c 3724 223e b000 2abe
00000320: d08a 29bd 273c 203e 44d2 733d 5307 1abe
00000330: ef6d 2d3e 5b98 2b3e c035 e83c 0adb 09be
00000340: 6873 40bd d49c 0bbe 5828 b73c 729b 65bd
00000350: ccd6 553d b109 a8bd 8db7 25be a0fe 80bd
00000360: 1420 9fbd c26f 54bd 915c 1f3e 23de 2e3e
00000370: 95bd 183e 34e7 3a3d 64ef 04bd f811 b0bd
00000380: 809e b0ba 6821 8a3d e03e 32be 5046 65bc
00000390: c853 21be 8858 3c3d 0042 64bb 8a73 75bd
000003a0: 3c5d 01bd 301f f8bc 401b 36bb f4ff 27be
000003b0: aee6 fc3d 542a 4c3d 6f7c f1bd fe24 ea3d
000003c0: 6071 663c 40b4 00bb 6c70 373d f885 703d
000003d0: 26e9 ff3d 55c6 1ebe a34d 283e 2697 0dbe
000003e0: d007 6e3d bbc6 063e 68cc f9bc 02ee 813d
000003f0: 0088 453a b837 27bd 00ad efbd dd9c bebd

weight_hh_l0 f4 [128, 32]
-0.1336949 -0.028768685 -0.076756656 -0.15124054 0.064850785 0.110727966 -0.1357916 -0.042611413
-0.23209189 -0.16578065 0.051604975 0.061545387 -0.16392678 -0.2648381 -0.09052715 0.057347022
0.06434022 0.012914344 -0.09112416 -0.019202244 0.07567419 -0.14386089 -0.039901916 0.090142764
0.25044322 0.21530783 -0.16772525 0.10599611 0.19456999 -0.1389869 -0.042565417 -0.03632111
0.0035067177 -0.015939374 -0.069902115 -0.040532593 -0.23778558 -0.07030537 -0.0150093 -0.03610953
0.059601422 0.1455421 0.0022849853 0.12581107 -0.007543693 -0.1205804 0.17746027 0.21257062
0.058874793 -0.09331911 0.31891745 0.021603476 -0.2848394 0.051236033 -0.079882234 0.001005614
-0.17148812 -0.20956841 0.3288405 0.13852628 -0.22950907 -0.13098152 0.10181061 0.25658983
-0.3054264 -0.16868274 0.013408759 0.047791827 -0.052932322 -0.04981762 -0.09604268 -0.085087456
-0.011021806 -0.07777795 0.026492799 0.07218557 -0.1660086 -0.1474148 -0.24657966 -0.16950823
0.26900974 0.22158721 -0.17420559 -0.02669673 0.078187324 0.035002142 -0.09258122 -0.031560548
0.2879387 0.27221093 -0.20894817 -0.03139547 0.19042787 0.041702308 0.030227678 -0.14169596
-0.20120396 -0.27348897 0.07695064 -0.00015553237 -0.15114194 0.2533026 -0.3485581 0.07080222
-0.039522123 0.03695647 -0.01434217 0.09219997 -0.083853364 -0.037679642 -0.03853537 0.112957835
0.14725035 0.12388282 0.014891367 -0.18313143 0.15770632 -0.16095936 -0.23854248 -0.1397911
-0.032984518 0.27811393 0.033445794 -0.1401629 0.24643686 -0.18855841 -0.12154888 -0.17350766
-0.2462516 -0.082315214 0.050006263 -0.05180987 -0.14138281 0.09715896 -0.13725984 0.12556726
0.15997721 0.17957164 -0.029128794 0.10574635 -0.18212305 0.030100904 -0.03823324 0.0770447
-0.095445774 -0.19640377 -0.17370546 0.060755163 -0.08496244 0.13349974 0.16424426 0.04140953
0.20638473 0.07533403 -0.15018609 -0.042348254 -0.04581085 -0.15362929 -0.20121038 -0.07244219
-0.1645512 0.21995275 -0.18690792 0.11688848 -0.2924957 0.11509003 0.026060391 -0.03399016
0.0097802235 -0.060014386 0.047963694 -0.00955437 -0.1066141 -0.035919033 0.02140438 -0.113371596
-0.15431146 -0.094837494 0.09695886 -0.13057415 0.10966613 -0.08492129 -0.02489968 -0.16122688
0.03109353 -0.0714345 -0.1404859 0.13645393 -0.0027581926 -0.13884458 0.03534206 -0.15444829
-0.14463282 -0.0913764 0.015519537 -0.25121775 0.004012355 -0.11831446 -0.062508225 0.09923045
0.08364767 -0.1733048 -0.014673734 0.107452415 -0.18727101 -0.09570761 0.0026293346 -0.037143286
0.13547039 0.07657523 0.10394411 -0.05911248 -0.015841285 -0.046233132 0.14242542 -0.060428128
0.06206191 0.10438485 -0.13191922 0.15353917 -0.049518794 -0.08651699 -0.11333748 0.030830147
0.004366181 0.0635598 0.019597145 -0.01974278 0.24817438 -0.15258841 -0.11085244 -0.12763435
-0.20183703 -0.1506079 0.13376878 0.018612972 -0.013036117 -0.04043661 -0.14685403 -0.19363539
0.08098299 -0.0067121163 0.07791685 -0.025872055 0.09410909 0.07511202 0.10253423 -0.08970928
-0.046402726 -0.084871046 -0.014135516 -0.26726523 -0.10921534 -0.053890944 -0.17482778 -0.19126143
00000000: 51e7 08be 4eac ebbc 9832 9dbd cdde 1abe
00000010: 7dd0 843d 58c5 e23d f40c 0bbe 4e89 2ebd
00000020: 7fa9 6dbe 67c2 29be bd5f 533d 0417 7c3d
00000030: 6cdc 27be dc98 87be 4c66 b9bd b6e4 6a3d
00000040: cec4 833d af96 533c 4e9f babd 064e 9dbc
00000050: 12fb 9a3d 4550 13be 3170 23bd c59c b83d
00000060: 183a 803e a879 5c3e 2bc0 2bbe 7d14 d93d
00000070: 5b3d 473e 9552 0ebe 1359 2ebd 72c5 14bd
00000080: f6d0 653b 4a93 82bc d728 8fbd 8105 26bd
00000090: 107e 73be 43fc 8fbd 91e9 75bc 96e7 13bd
000000a0: 9f20 743d fd08 153e b1bf 153b 9ed4 003e
000000b0: 1531 f7bb dbf2 f6bd 25b8 353e 1dac 593e
000000c0: b226 713d 171e bfbd 2649 a33e c6f9 b03c
000000d0: 78d6 91be e0dc 513d 4c99 a3bd cece 833a
000000e0: 959a 2fbe 1a99 56be c85d a83e d5d9 0d3e
000000f0: 6d04 6bbe 0520 06be 1582 d03d be5f 833e
00000100: d960 9cbe 2bbb 2cbe 69b0 5b3c 5dc1 433d
00000110: 90cf 58bd 900d 4cbd 06b2 c4bd 5542 aebd
00000120: ce94 34bc 0c4a 9fbd 6d07 d93c 07d6 933d
00000130: 29fe 29be e8f3 16be 617f 7cbe 9193 2dbe
00000140: a5bb 893e c2e7 623e f362 32be 1ab3 dabc
00000150: ad20 a03d 685e 0f3d 399b bdbd a245 01bd
00000160: b46c 933e 3b5f 8b3e 82f6 55be 8998 00bd
00000170: 86ff 423e 0ad0 2a3d 09a0 f73c bf18 11be
00000180: 6908 4ebe bf06 8cbe 4c98 9d3d 6716 23b9
00000190: f4c4 1abe e1b0 813e 3576 b2be c100 913d
000001a0: f3e1 21bd ab5f 173d 6cfb 6abc 56d3 bc3d
000001b0: 50bb abbd f855 1abd 44d7 1dbd 7056 e73d
000001c0: ccc8 163e 47b6 fd3d ecfa 733c ce86 3bbe
000001d0: c47d 213e 88d2 24be 7b44 74be 6625 0fbe
000001e0: c61a 07bd f364 8e3e 75fe 083d dd86 0fbe
000001f0: f259 7c3e 7515 41be 9fee f8bd feab 31be
00000200: 6129 7cbe e194 a8bd 5ed3 4c3d 9636 54bd
00000210: a8c6 10be 47fb c63d d88d 0cbe b494 003e
00000220: 11d1 233e a1e1 373e 829f eebc 8b91 d83d
00000230: 777e 3abe 2c96 f63c 759a 1cbd 9dc9 9d3d
00000240: 1379 c3bd 121e 49be d8df 31be 68da 783d
00000250: ca00 aebd 28b4 083e a62f 283e 0a9d 293d
00000260: 8556 533e ba48 9a3d 62ca 19be 5d75 2dbd
00000270: 28a4 3bbd ff50 1dbe 180a 4ebe 925c 94bd
00000280: 1c80 28be 4b3b 613e ca64 3fbe 3a63 ef3d
00000290: ffc1 95be 52b4 eb3d 9a7c d53c 4439 0bbd
000002a0: 3b3d 203c a5d1 75bd 9475 443d ef89 1cbc
000002b0: 7e58 dabd d61f 13bd 3d58 af3c 5e2f e8bd
000002c0: d303 1ebe 293a c2bd 5e92 c63d 3bb5 05be
000002d0: a398 e03d 37eb adbd 6afa cbbc a918 25be
000002e0: dcb7 fe3c 404c 92bd 89db 0fbe 94ba 0b3e
000002f0: cbc2 34bb 462d 0ebe d6c2 103d b127 1ebe
00000300: a01a 14be 8d23 bbbd a845 7e3c 9d9f 80be
00000310: 137a 833b da4e f2bd 5004 80bd 5639 cb3d
00000320: 784f ab3d d076 31be 1a6a 70bc 0310 dc3d
00000330: f9c3 3fbe 5a02 c4bd ea50 2c3b 8f23 18bd
00000340: c0b8 0a3e 79d3 9c3d a6e0 d43d ee1f 72bd
00000350: 95c5 81bc f45e 3dbd f8d7 113e 7c83 77bd
00000360: a134 7e3d b9c7 d53d d515 07be 5f39 1d3e
00000370: 38d4 4abd d22f b1bd 7b1d e8bd 818f fc3c
00000380: 2e12 8f3b a42b 823d 318a a03c 9cbb a1bc
00000390: 6d21 7e3e 2340 1cbe 9b06 e3bd 94b2 02be
000003a0: 5eae 4ebe f538 1abe affa 083e 3b7a 983c
000003b0: 7095 55bc dca0 25bd e760 16be 5b48 46be
000003c0: 69da a53d 50f1 dbbb df92 9f3d a2f1 d3bc
000003d0: 44bc c03d 55d4 993d 77fd d13d 80b9 b7bd
000003e0: c910 3ebd dfd0 adbd a798 67bc fdd6 88be
000003f0: 4bac dfbd c0bc 5cbd 0e06 33be 09da 43be

bias_ih_l0 f4 [128]
-0.1120912 -0.048267767 -0.16167021 -0.24746168 -0.024758011 -0.1272167 -0.29791862 0.0386964
-0.21504726 0.016405212 -0.06987773 -0.2801545 -0.22711988 -0.27547798 -0.1553411 -0.18430553
-0.19261673 -0.03370975 -0.17881696 0.018807324 -0.19960319 -0.15650168 -0.009677252 0.09144413
0.14193454 -0.13485517 -0.3929901 -0.05942751 0.05365234 0.0021155314 -0.14860357 0.04072278
-0.10016842 0.15479706 -0.3490793 -0.41946372 -0.14014621 -0.2985431 -0.25359246 -0.16754422
-0.13851327 0.056730315 -0.22008067 -0.30245537 -0.05727761 -0.23524305 -0.009136187 -0.16214368
-0.19077118 0.09750121 -0.26074973 -0.1997644 -0.09701454 -0.0952247 -0.030160852 0.0044504544
0.038239274 0.03748591 -0.3530447 -0.09157289 0.10396548 -0.051421132 -0.03345146 0.06303602
0.054832652 0.090969115 0.09171424 -0.043073807 -0.072601765 -0.009029974 0.027112981 -0.08431549
0.05385851 0.0038400604 0.13855943 -0.00024635193 0.07060087 0.039432503 0.10173406 0.053702068
-0.14573681 0.026258692 -0.067312285 0.100817695 -0.010943299 -0.0785935 -0.004558144 0.12395302
-0.1316868 0.0014694231 -0.0008074509 -0.06913294 -0.05851866 -0.124312155 -0.11965755 -0.044064812
-0.27894297 -0.0228336 -0.25013268 -0.18975873 -0.1352623 -0.2713584 -0.07696894 -7.75383e-05
-0.28907862 -0.08159796 -0.08805613 -0.07847696 -0.11300853 -0.28102264 0.1317523 -0.0004002747
-0.33181906 -0.057853043 -0.1540186 -0.2122608 -0.19467875 0.084192835 -0.109231815 0.014748185
-0.014886717 0.14987588 -0.27288172 -0.20884745 -0.09942748 -0.16326015 -0.2151777 0.0089655435
00000000: 1290 e5bd 6cb4 45bd e08c 25be 9866 7dbe
00000010: 50d1 cabc 1845 02be ca88 98be 1e80 1e3d
00000020: 5935 5cbe 3964 863c 0e1c 8fbd 6970 8fbe
00000030: 1d92 68be 730b 8dbe bd11 1fbe 97ba 3cbe
00000040: 523d 45be 3c13 0abd cb1b 37be d111 9a3c
00000050: c764 4cbe fa41 20be 568d 1ebc 0f47 bb3d
00000060: 4a57 113e 7917 0abe 0036 c9be 436a 73bd
00000070: 8ec2 5b3d baa4 0a3b 892b 18be eecc 263d
00000080: 1a25 cdbd 1f83 1e3e 86ba b2be f3c3 d6be
00000090: 7d82 0fbe a4da 98be dfd6 81be b690 2bbe
000000a0: 6cd6 0dbe 0c5e 683d d45c 61be 6edb 9abe
000000b0: ed9b 6abd 8ee3 70be f2af 15bc fe08 26be
000000c0: 8559 43be b7ae c73d fd80 85be 0a8f 4cbe
000000d0: 8faf c6bd 2b05 c3bd e413 f7bc 1ed5 913b
000000e0: c9a0 1c3d d38a 193d 46c2 b4be 918a bbbd
000000f0: dbeb d43d f79e 52bd 6604 09bd 0719 813d
00000100: 3498 603d 044e ba3d add4 bb3d 296e 30bd
00000110: 3cb0 94bd 75f2 13bc 0b1c de3c 9aad acbd
00000120: be9a 5c3d 86a9 7b3b 86e2 0d3e cc28 81b9
00000130: 3097 903d fa83 213d f259 d03d b3f6 5b3d
00000140: 083c 15be 781c d73c 06db 89bd 8279 ce3d
00000150: 864b 33bc a1f5 a0bd 7c5c 95bb 15db fd3d
00000160: e8d8 06be a899 c03a 1dab 53ba 9295 8dbd
00000170: 43b1 6fbd 5f97 febd 040f f5bd 4e7d 34bd
00000180: 9dd1 8ebe 880d bbbc 6411 80be 1d50 42be
00000190: 3382 0abe 7def 8abe e4a1 9dbd 0f9c a2b8
000001a0: 1d02 94be d51c a7bd c656 b4bd 87b8 a0bd
000001b0: 0471 e7bd 33e2 8fbe 13ea 063e f6db d1b9
000001c0: 30e4 a9be 50f7 6cbd 0db7 1dbe e55a 59be
000001d0: de59 47be 4b6d ac3d eeb4 dfbd 5fa2 713c
000001e0: 6be7 73bc 1079 193e 27b7 8bbe 1bdc 55be
000001f0: a2a0 cbbd ab2d 27be 8b57 5cbe 37e4 123c

bias_hh_l0 f4 [128]
-0.22157228 -0.15534544 -0.13713783 -0.3909395 -0.13154599 -0.059873175 -0.19565932 -0.15529011
-0.053325158 -0.12901403 0.0989959 -0.13448599 -0.17061919 0.05237857 -0.13372934 -0.028631931
-0.32232258 -0.012324341 -0.09942724 -0.03965965 -0.2194683 -0.018194823 0.0075808275 -0.15680718
0.10989934 -0.0047949334 -0.18971436 -0.026061976 0.06640935 -0.24741529 -0.25780082 -0.024649909
-0.026691908 0.16452205 -0.34680402 -0.32808617 -0.3010719 -0.25877926 -0.11855158 0.08863289
-0.17713518 -0.060749106 -0.16100314 -0.009722813 -0.008041961 -0.0029448755 -0.16053458 -0.147399
-0.24189661 -0.15950502 -0.14750065 -0.15526858 -0.21431951 -0.087618366 -0.105663456 -0.11812856
0.07377941 0.15664238 -0.18629947 -0.07770266 -0.09439256 -0.23703629 -0.23187728 0.050090276
0.048932403 -0.055007588 -0.0402577 0.0012722634 0.12256348 0.04200667 -0.080033466 0.11454116
-0.09149565 -0.009871174 -0.1504688 0.08661732 0.09754535 0.056087445 -0.078534536 -0.028452635
0.14558701 0.049295105 0.06503021 0.025062392 -0.018038098 0.15389289 -0.05092671 -0.0030877541
-0.014778591 -0.08374656 -0.022239571 0.010190249 0.08881264 0.15155782 0.1082145 0.0952885
-0.23283151 0.0557616 -0.20575485 -0.24438587 -0.15175298 -0.3213736 -0.3899314 -0.11759043
-0.049641725 0.056297917 0.093961746 -0.24538118 0.006740449 -0.08505482 -0.122782744 -0.025732897
-0.34608623 -0.06714413 -0.16564292 0.12006005 0.055088777 -0.1803337 -0.13359804 0.1387295
0.023020748 0.030381378 -0.18929945 -0.05908405 -0.048159964 0.057277072 0.032760803 -0.13905533
00000000: d8e3 62be e012 1fbe dc6d 0cbe 3929 c8be
00000010: feb3 06be 933d 75bd eb5a 48be 5f04 1fbe
00000020: 7b6b 5abd 411c 04be 5dbe ca3d b2b6 09be
00000030: ccb6 2ebe e98a 563d 58f0 08be 838d eabc
00000040: 7707 a5be 08ec 49bc 82a0 cbbd 2872 22bd
00000050: 4cbc 60be 4f0d 95bc 9768 f83b 1092 20be
00000060: e812 e13d d11e 9dbb 7b44 42be ed7f d5bc
00000070: a001 883d 6f5a 7dbe 78fe 83be 9bee c9bc
00000080: fda8 dabc 7878 283e 4c90 b1be e9fa a7be
00000090: 1926 9abe b77e 84be 2ccb f2bd 2985 b53d
000000a0: ed62 35be 0ed4 78bd 02de 24be 6f4c 1fbc
000000b0: 6ec2 03bc d0fe 40bb 2d63 24be c3ef 16be
000000c0: bfb3 77be 4955 23be 690a 17be bafe 1ebe
000000d0: 9376 5bbe 4271 b3bd 1566 d8bd 63ed f1bd
000000e0: a919 973d dc66 203e 4ac5 3ebe 9222 9fbd
000000f0: e350 c1bd a4b9 72be 3d71 6dbe 762b 4d3d
00000100: 586d 483d a34f 61bd 42e5 24bd 13c2 a63a
00000110: 9002 fb3d 300f 2c3d 96e8 a3bd 8e94 ea3d
00000120: 1262 bbbd b4ba 21bc 7e14 1abe 6c64 b13d
00000130: dbc5 c73d f3bb 653d b7d6 a0bd 8015 e9bc
00000140: c314 153e aae9 493d 8f2e 853d a54f cd3c
00000150: a2c4 93bc 1996 1d3e 8798 50bd eb5b 4abb
00000160: e721 72bc 5183 abbd c32f b6bc 01f5 263c
00000170: 67e3 b53d f931 1b3e 909f dd3d 9e26 c33d
00000180: 626b 6ebe 4766 643d 66b1 52be 4a40 7abe
00000190: 2265 1bbe 158b a4be 17a5 c7be 40d3 f0bd
000001a0: 1f55 4bbd a598 663d 046f c03d 3445 7bbe
000001b0: fcde dc3b 3931 aebd 8575 fbbd cccd d2bc
000001c0: 3732 b1be dd82 89bd 4c9e 29be 0be2 f53d
000001d0: c5a4 613d 66a9 38be edcd 08be 1b0f 0e3e
000001e0: 0296 bc3c 5ee2 f83c b7d7 41be 1e02 72bd
000001f0: 6243 45bd 5d9b 6a3d 3130 063d 8564 0ebe

weight_ih_l1 f4 [128, 32]
0.03659913 0.12714551 0.09718917 -0.0063507655 -0.12995125 0.23582344 -0.07487537 0.13203236
-0.08885086 -0.12572034 -0.1457633 -0.024092684 -0.044489507 0.023184735 0.10222006 -0.042238746
0.10513912 0.04087893 0.09906972 0.16542298 0.11744123 0.12538998 -0.30374944 -0.0048532826
0.08699248 -0.08789929 0.17339082 0.049995467 -0.20365378 -0.3039209 0.07928089 0.009417089
0.08947146 -0.027127074 0.10204566 -0.1375959 0.2503376 0.07266472 0.02793588 -0.06135314
-0.16792671 -0.26595134 -0.011371588 0.07949538 0.011559897 0.0015695065 0.1191882 0.041185454
0.1326548 0.071146205 -0.052414373 0.054591924 -0.009679073 -0.022141682 0.050470836 -0.037449498
-0.010360456 -0.06971725 0.05660691 -0.017693909 -0.008272355 -0.15782452 -0.19736657 -0.16370524
0.14339277 -0.123930104 -0.046850517 0.007582791 -0.055011503 0.31182086 -0.004854711 0.19049424
-0.05793944 -0.20263287 0.026758444 0.064353906 -0.011536208 0.1331547 -0.14687419 -0.10863062
0.11908468 0.078070424 0.11492583 0.11973484 -0.18727525 -0.04414477 -0.2729702 -0.10444251
0.14612426 -0.04730233 -0.09227392 0.120189406 -0.04542074 -0.024964102 -0.12384965 0.09668372
0.0042210827 -0.0023934294 0.111945905 0.018917782 0.09939852 0.13990082 -0.051592924 0.16232227
-0.12985845 0.040891357 0.027286932 -0.15158732 -0.19681306 -0.16032284 0.020001085 0.03936036
0.04566482 0.056471065 -0.15745552 -0.01075347 0.10831192 0.0756935 -0.105835214 -0.20905939
0.019885546 0.23761876 0.051251553 0.030749924 0.23254928 -0.16094975 -0.20490065 -0.25625086
-0.3176967 -0.34061402 0.12155464 0.07049366 0.0345132 0.22217095 0.095851004 0.26599434
-0.10636189 -0.055394385 0.03388918 -0.11070732 -0.05558857 -0.31957513 -0.1779441 0.17453709
-0.05090052 0.0035563682 0.031880926 -0.20094357 0.17395526 -0.22686319 -0.08815212 -0.13234214
0.16113582 -0.010641084 -0.25334215 0.1012812 -0.020279044 -0.13531937 -0.13910861 -0.2910862
-0.104191035 -0.12558696 0.09221724 -0.22885312 -0.051573295 0.05256001 -0.055752665 -0.050832488
-0.34516108 -0.23508276 -0.028097348 -0.06343333 0.12763645 -0.021171235 -0.021348359 0.105983995
0.014225824 0.33269265 -0.105180524 -0.2239563 0.18441032 -0.14524163 -0.16798387 -0.14287615
-0.06400382 -0.029080587 -0.0921204 0.028318742 0.20961778 -0.17269127 0.09098373 0.06432363
-0.124923214 -0.19116731 -0.020746816 0.09372588 0.006192007 -0.10407203 -0.16743259 0.07740032
-0.12070353 -0.19081724 -0.10792502 -0.06856813 -0.065952525 -0.17557749 0.024738668 0.092218295
0.2084019 0.030265328 0.043639004 -0.058572177 -0.10479404 0.05901798 0.10382078 -0.16926642
0.0008975383 -0.06573248 0.17266993 0.036722235 -0.054877337 0.006884929 -0.18686989 -0.20505634
-0.17782801 -0.26673996 0.23092894 0.016392138 -0.18041223 0.2629271 -0.1502548 0.26027098
0.06723491 0.033119243 -0.055282082 -0.20136045 -0.1057924 -0.14657146 0.0062989467 0.015232016
0.17353058 0.010616352 0.01284539 0.065671794 -0.04064975 -0.16786759 -0.17303896 -0.1527176
0.14779939 -0.0092838295 0.12763374 0.04681651 0.047326293 -0.20913307 -0.1720737 -0.0890847
00000000: f8e8 153d 6f32 023e 1e0b c73d 151a d0bb
00000010: f111 05be b37b 713e 4258 99bd 7e33 073e
00000020: 71f7 b5bd d5bc 00be f942 15be 055e c5bc
00000030: a13a 36bd eaed bd3c c058 d13d 8902 2dbd
00000040: 2e53 d73d aa70 273d 11e5 ca3d a464 293e
00000050: 0785 f03d 3b66 003e 0c85 9bbe 4908 9fbb
00000060: 1d29 b23d 8b04 b4bd 5d8d 313e 0cc8 4c3d
00000070: 9e8a 50be 859b 9bbe 055e a23d 224a 1a3c
00000080: d03c b73d 9939 debc 51fd d03d f1e5 0cbe
00000090: 402c 803e 3ed1 943d c9d9 e43c 6e4d 7bbd
000000a0: fbf4 2bbe c62a 88be e64f 3abc 79ce a23d
000000b0: b965 3d3c e6b7 cd3a f118 f43d 14b2 283d
000000c0: a9d6 073e 1ab5 913d 74b0 56bd c89b 5f3d
000000d0: f994 1ebc 7962 b5bc 82ba 4e3d a564 19bd
000000e0: e7be 29bc ebc7 8ebd a6dc 673d d1f2 90bc
000000f0: c688 07bc c09c 21be 761a 4abe 59a2 27be
00000100: 8ed5 123e 11cf fdbd 54e6 3fbd 1079 f83b
00000110: be53 61bd fca6 9f3e 4414 9fbb ec10 433e
00000120: e851 6dbd fe7e 4fbe 8634 db3c fbcb 833d
00000130: 5d02 3dbc b559 083e 3066 16be bb79 debd
00000140: abe2 f33d 63e3 9f3d 3c5e eb3d 8a37 f53d
00000150: 15c5 3fbe 25d1 34bd c0c2 8bbe f4e5 d5bd
00000160: 99a1 153e 17c0 41bd 1cfa bcbd dd25 f63d
00000170: 190b 3abd 8481 ccbc e3a4 fdbd 1d02 c63d
00000180: 0251 8a3b 15db 1cbb e543 e53d 77f9 9a3c
00000190: 7491 cb3d 2942 0f3e 1a53 53bd cf37 263e
000001a0: 9df9 04be b27d 273d d888 df3c b539 1bbe
000001b0: 5d89 49be ac2b 24be 51d9 a33c 5438 213d
000001c0: 090b 3b3d 344e 673d 053c 21be 522f 30bc
000001d0: a4d2 dd3d 3205 9b3d 22c0 d8bd aa13 56be
000001e0: 03e7 a23c 5552 733e 26ed 513d 44e7 fb3c
000001f0: 6621 6e3e 03d0 24be 7ad1 51be 5033 83be
00000200: 24a9 a2be f664 aebe a4f1 f83d fb5e 903d
00000210: b75d 0d3d c880 633e 884d c43d 6930 883e
00000220: 43d4 d9bd 39e5 62bd 61cf 0a3d 85ba e2bd
00000230: d7b0 63bd 5a9f a3be fa36 36be dab9 323e
00000240: 107d 50bd f511 693b 9395 023d 27c4 4dbe
00000250: 5421 323e d34e 68be 1989 b4bd b384 07be
00000260: ca00 253e f157 2ebc 10b6 81be 856c cf3d
00000270: 3d20 a6bc 2991 0abe 7d72 0ebe 4009 95be
00000280: 1c62 d5bd de99 00be 64dc bc3d 7958 6abe
00000290: 853e 53bd 2a49 573d e85c 64bd ba35 50bd
000002a0: f4b8 b0be 89b9 70be 692c e6bc 55e9 81bd
000002b0: 21b3 023e 4c6f adbc c1e2 aebc 230e d93d
000002c0: 6e13 693c b156 aa3e e368 d7bd cd54 65be
000002d0: 0fd6 3c3e 39ba 14be f703 2cbe 204e 12be
000002e0: 6f14 83bd 693a eebc 9fa9 bcbd b5fc e73c
000002f0: 0ba6 563e fbd5 30be ae55 ba3d 1bbc 833d
00000300: bed7 ffbd 5dc1 43be 3af5 a9bc 5bf3 bf3d
00000310: 52e6 ca3b b723 d5bd 7373 2bbe 0f84 9e3d
00000320: 6a33 f7bd 9865 43be cb07 ddbd 736d 8cbd
00000330: 1e12 87bd 96ca 33be bfa8 ca3c f2dc bc3d
00000340: 4f67 553e feee f73c d0be 323d 61e9 6fbd
00000350: 429e d6bd d6bc 713d fd9f d43d 2d54 2dbe
00000360: c748 6b3a c09e 86bd 63d0 303e 0e6a 163d
00000370: 0fc7 60bd f89a e13b d25a 3fbe 4afa 51be
00000380: 8c18 36be 2492 88be a378 6c3e ce48 863c
00000390: fcbd 38be 619e 863e 65dc 19be 3d42 853e
000003a0: 75b2 893d 0ba8 073d 776f 62bd 6f31 4ebe
000003b0: b0a9 d8bd d416 16be 6567 ce3b b58f 793c
000003c0: 00b2 313e 35f0 2d3c 7875 523c ef7e 863d
000003d0: 5a80 26bd 7be5 2bbe 2031 31be 0162 1cbe
000003e0: b958 173e 341b 18bc 6bb2 023e abc2 3f3d
000003f0: 37d9 413d fb26 56be 1734 30be 0a72 b6bd

weight_hh_l1 f4 [128, 32]
0.09224863 -0.1347988 -0.01658638 -0.23347364 -0.114585586 0.15403941 -0.21647899 0.025537163
-0.084294245 -0.025331886 -0.3095547 -0.054839175 0.08918582 0.0048361565 0.20673443 0.12170594
-0.03643462 -0.009583267 -0.023768138 0.08395743 0.07218799 -0.12677333 -0.13852751 0.10723614
0.14515857 -0.20716897 0.12491966 0.16214594 -0.013804243 -0.16445798 0.12787884 0.30888402
0.13088568 -0.07411832 0.060624298 0.23807204 -0.14822195 0.07100401 -0.21238889 -0.031484112
-0.11246862 0.0073896563 0.0627757 -0.027689697 0.25975466 -0.105968416 -0.06502369 0.01454085
0.2876187 0.06435774 -0.067274906 -0.16265658 -0.07879883 0.17922978 -0.024651406 0.2093542
-0.09036613 0.10492021 0.22292666 -0.14505166 -0.12028617 0.09986695 0.13890263 -0.10008201
-0.049303222 -0.20431694 0.086316906 0.109962165 -0.2999475 0.061297193 -0.31137863 -0.00096303155
-0.16575219 0.24504106 0.012924066 -0.14494967 -0.12175756 0.0064149 -0.076754265 -0.08830902
0.04643182 0.124935895 0.03569319 -0.013221597 -0.064533666 0.11314713 0.09300106 -0.13012964
-0.09179267 -0.08707127 -0.16091755 -0.03243111 0.15433033 -0.3340051 0.17232807 0.008200144
0.19095665 0.17241576 0.19344483 -0.14447932 0.037338 -0.011403606 -0.28253374 0.12937823
-0.05543569 -0.017331468 -0.28665382 0.22128515 -0.026993167 0.018319625 0.17925625 0.06623493
0.085753426 0.1019887 -0.0484635 0.0014004182 0.0666709 -0.08303405 -0.20730951 0.057359565
0.03315074 0.012208631 -0.020442626 0.12257595 -0.10258216 0.013445554 -0.069864884 -0.025071757
-0.06597407 -0.1939736 -0.097411424 -0.056871697 -0.21082786 0.08709201 -0.065701164 -0.08465455
-0.2161874 0.215875 0.08077637 -0.20663184 0.23654869 -0.21862003 -0.22655745 -0.04210575
0.20829472 0.0029928149 0.18527195 -0.14294544 -0.13863793 0.16590203 -0.013417994 0.06254041
0.10176241 0.0037833971 -0.037696604 -0.19678988 -0.035321083 0.028458357 0.19870234 -0.20534573
0.10218539 0.19716388 0.15761796 0.15142946 -0.06829347 -0.06320231 -0.107801884 0.18247025
-0.23606573 0.19807056 -0.017586434 -0.164233 0.17343394 0.042052016 -0.12618235 0.262751
0.08236792 -0.03720418 0.046767145 0.059814617 0.10851572 -0.07188014 0.24828115 0.097592466
-0.18505725 0.110043146 0.027959114 -0.2732785 -0.03313935 -0.09507702 0.030672463 -0.010523023
0.10882125 -0.19528735 0.13693087 -0.22689304 0.071135886 0.05771038 0.053529497 0.046971526
-0.12751451 0.08855212 -0.09743445 -0.08744052 0.008619208 -0.08714072 0.11650553 -0.1737084
0.2144654 0.03519639 0.07492082 -0.30675295 -0.0050143744 -0.044388928 -0.16844095 -0.13713264
0.09890319 0.08875481 -0.20086582 0.0907311 0.050464556 0.20456433 -0.14932914 -0.16032802
-0.12900685 -0.16754144 0.18100987 -0.058725897 0.015585539 0.002732906 0.07305673 -0.049349148
0.10672862 -0.11868101 0.034615774 0.07562328 -0.0011487985 0.009206578 -0.09486198 -0.037760474
0.07607347 -0.13851757 -0.10505722 -0.14776906 -0.038107213 0.029964251 -0.15697055 0.04465455
-0.07811312 0.058414273 -0.08364168 0.1368008 0.023646181 0.12369615 0.18215886 -0.116067246
00000000: daec bc3d b208 0abe 29e0 87bc b713 6fbe
00000010: d9ab eabd 82bc 1d3e abac 5dbe 5033 d13c
00000020: 76a2 acbd d184 cfbc f47d 9ebe 0b9f 60bd
00000030: 0ea7 b63d 9f78 9e3b 31b2 533e f740 f93d
00000040: 783c 15bd 2303 1dbc 66b5 c2bc e0f1 ab3d
00000050: 4cd7 933d ded0 01be 28da 0dbe 9f9e db3d
00000060: 73a4 143e 1a24 54be e1d5 ff3d 9609 263e
00000070: 312b 62bc ac67 28be acf2 023e 0c26 9e3e
00000080: e506 063e 59cb 97bd 2f51 783d 28c9 733e
00000090: 7fc7 17be 8d6a 913d 797c 59be 7cf5 00bd
000000a0: f355 e6bd ee24 f23b 8c90 803d 81d5 e2bc
000000b0: 90fe 843e f805 d9bd 242b 85bd bf3c 6e3c
000000c0: c242 933e fecd 833d 6dc7 89bd 728f 26be
000000d0: 4861 a1bd 0388 373e bff1 c9bc f360 563e
000000e0: e111 b9bd 68e0 d63d e346 643e 6c88 14be
000000f0: 9858 f6bd 0b87 cc3d 7e3c 0e3e ccf7 ccbd
00000100: 2df2 49bd 7638 51be ebc6 b03d d833 e13d
00000110: b892 99be c412 7b3d 056d 9fbe f473 7cba
00000120: f1ba 29be 0bec 7a3e 76bf 533c b06d 14be
00000130: 075c f9bd 1534 d23b 5731 9dbd 5cdb b4bd
00000140: 4b2f 3e3d 64de ff3d 0633 123d 669f 58bc
00000150: 3a2a 84bd afb9 e73d 5777 be3d b440 05be
00000160: ccfd bbbd 6c52 b2bd 92c7 24be 7cd6 04bd
00000170: c508 1e3e b702 abbe c576 303e e659 063c
00000180: 248a 433e c28d 303e 6716 463e 63f2 13be
00000190: bbef 183d 31d6 3abc 43a8 90be ba7b 043e
000001a0: 8910 63bd b9fa 8dbc 4ac4 92be 9398 623e
000001b0: c620 ddbc 0a13 963c f38e 373e 2ea6 873d
000001c0: 7e9f af3d 74df d03d aa81 46bd 3d8e b73a
000001d0: c18a 883d c20d aabd f248 54be ddf1 6a3d
000001e0: 12c9 073d b606 483c 4b77 a7bc 1a09 fb3d
000001f0: 9816 d2bd be4a 5c3c 5215 8fbd 4963 cdbc
00000200: 6a1d 87bd 04a1 46be a47f c7bd 4cf2 68bd
00000210: 42e3 57be 4c5d b23d 558e 86bd 5d5f adbd
00000220: 3b60 5dbe 560e 5d3e 156e a53d 4c97 53be
00000230: d239 723e eedd 5fbe adfe 67be 1477 2cbd
00000240: 364b 553e 1a23 443b eeb7 3d3e 4a60 12be
00000250: 1af7 0dbe 39e2 293e 25d7 5bbc 3015 803d
00000260: cf68 d03d dff2 773b c167 1abd 4983 49be
00000270: d7ac 10bd 8021 e93c a078 4b3e 2746 52be
00000280: 9346 d13d 54e5 493e 9a66 213e 5310 1b3e
00000290: 72dd 8bbd 3670 81bd 3cc7 dcbd 7bd9 3a3e
000002a0: 37bb 71be 02d3 4a3e 6d11 90bc b22c 28be
000002b0: ab98 313e bc3e 2c3d f235 01be 4d87 863e
000002c0: 83b0 a83d 6963 18bd e88e 3f3d 2c00 753d
000002d0: 7d3d de3d e535 93bd 6a3d 7e3e 8fde c73d
000002e0: a67f 3dbe 4d5e e13d 830a e53c 29eb 8bbe
000002f0: 21bd 07bd beb7 c2bd d144 fb3c c268 2cbc
00000300: addd de3d 68f9 47be 9b37 0c3e a656 68be
00000310: b1af 913d b861 6c3d bf41 5b3d 3765 403d
00000320: 2a93 02be d05a b53d b78b c7bd 0414 b3bd
00000330: 9437 0d3c d576 b2bd 749a ee3d 9de0 31be
00000340: d19c 5b3e 172a 103d 1670 993d b90e 9dbe
00000350: 9f4f a4bb 2ad1 35bd c97b 2cbe 806c 0cbe
00000360: c18d ca3d 15c5 b53d c5af 4dbe 3ad1 b93d
00000370: ecb3 4e3d 5079 513e bde9 18be 072d 24be
00000380: 5f1a 04be fc8f 2bbe a75a 393e 918a 70bd
00000390: 7d5a 7f3c 8e1a 333b c49e 953d 5522 4abd
000003a0: 8994 da3d 080f f3bd 45c9 0d3d 61e0 9a3d
000003b0: 4893 96ba 30d7 163c ff46 c2bd baaa 1abd
000003c0: 68cc 9b3d 8dd7 0dbe 3d28 d7bd c650 17be
000003d0: 4f16 1cbd 9777 f53c e3bc 20be b0e7 363d
000003e0: c5f9 9fbd ce43 6f3d 544c abbd 8215 0c3e
000003f0: a3b5 c13c 6854 fd3d da87 3a3e aab4 edbd

bias_ih_l1 f4 [128]
0.043239612 -0.1817089 -0.0066840854 -0.1475716 -0.522564 -0.25941953 -0.26686513 -0.23419698
-0.15460351 -0.11304853 -0.32496497 -0.6571019 -0.28847882 -0.50435686 -0.14853753 -0.43140832
-0.13759084 -0.16095798 -0.2458501 -0.24192265 -0.53976905 -0.23808753 -0.35463744 -0.24939197
-0.07468646 -0.5123702 -0.37926364 -0.30079505 -0.079249196 -0.23585707 -0.34825096 -0.34692892
0.07865372 -0.0802608 -0.1178897 -0.35254228 -0.31325334 -0.071867235 -0.3750396 -0.23309022
-0.11422553 -0.29690975 -0.42680025 -0.4042589 -0.1377098 -0.25082326 -0.11137766 -0.35372823
-0.42667294 -0.13693823 -0.31544414 -0.23102541 -0.22911328 -0.2379418 -0.2146003 -0.10471517
0.05930769 -0.3730098 -0.30121475 -0.40192226 -0.19544813 -0.14233087 -0.18358998 -0.14158836
-0.1942091 0.086018965 -0.117478795 0.018738918 0.05481207 0.1828756 0.011123222 0.013529499
-0.14166777 -0.0054274704 -0.07233673 0.09093279 0.03909276 0.04956234 -0.07232137 0.079597205
-0.04748609 -0.042336885 -0.048007302 0.08818644 0.13295615 -0.07162848 -0.1660652 -0.08145787
0.071884684 0.021814933 -0.08415511 0.18752328 0.05125384 -0.03146674 0.02554498 0.13234553
-0.16546004 -0.16627446 0.056353092 -0.21735679 -0.23063362 -0.2639754 -0.35193375 -0.4682141
-0.27744892 -0.12114375 -0.42768878 -0.61041147 -0.19989417 -0.50109327 -0.21662132 -0.10898709
-0.35364753 -0.29801342 -0.2222823 -0.2464953 -0.5081859 -0.19609429 -0.06317414 -0.12888819
-0.16083612 -0.21380708 -0.28891292 -0.20413865 -0.04154268 0.0007654292 -0.23167664 -0.2218009
00000000: 051c 313d e611 3abe 2c06 dbbb 021d 17be
00000010: c1c6 05bf a3d2 84be 8ca2 88be 55d1 6fbe
00000020: 6250 1ebe fd85 e7bd cf61 a6be d537 28bf
00000030: 7fb3 93be 881d 01bf 391a 18be 8de1 dcbe
00000040: 9de4 0cbe 2bd2 24be 21c0 7bbe 92ba 77be
00000050: 4e2e 0abf 38cd 73be 0a93 b5be 9c60 7fbe
00000060: 37f5 98bd b22a 03bf d82e c2be cf01 9abe
00000070: 674d a2bd 8484 71be f34d b2be aba0 b1be
00000080: 3415 a13d c65f a4bd 2870 f1bd 6c80 b4be
00000090: be62 a0be 212f 93bd 3105 c0be 34af 6ebe
000000a0: 13ef e9bd 8e04 98be 9085 dabe 06fb cebe
000000b0: cc03 0dbe e86b 80be f819 e4bd de1b b5be
000000c0: e074 dabe 8939 0cbe e581 a1be ed91 6cbe
000000d0: ac9c 6abe 04a7 73be 2ec0 5bbe e874 d6bd
000000e0: 9fec 723d 24fb bebe d238 9abe c1c8 cdbe
000000f0: 8e23 48be 2fbf 11be 03ff 3bbe 8afc 10be
00000100: c0de 46be b62a b03d b998 f0bd 5c82 993c
00000110: 9f82 603d be43 3b3e 2d3e 363c d5aa 5d3c
00000120: 5b11 11be ecd8 b1bb 4825 94bd f83a ba3d
00000130: bb1f 203d e101 4b3d 3a1d 94bd dc03 a33d
00000140: c680 42bd 7169 2dbd 4ea3 44bd 189b b43d
00000150: a825 083e f4b1 92bd ff0c 2abe 62d3 a6bd
00000160: 4738 933d 3bb5 b23c 8459 acbd 1a06 403e
00000170: 8cef 513d 45e3 00bd b543 d13c 9685 073e
00000180: 5b6e 29be da43 2abe 80d2 663d c792 5ebe
00000190: 382b 6cbe c927 87be a930 b4be c2b9 efbe
000001a0: c90d 8ebe 371a f8bd 06fa dabe ed43 1cbf
000001b0: 0fb1 4cbe a647 00bf fbd1 5dbe a034 dfbd
000001c0: 4a11 b5be 3795 98be f99d 63be 4469 7cbe
000001d0: 7918 02bf f1cc 48be 7261 81bd 44fb 03be
000001e0: 39b2 24be 3ef0 5abe 65ec 93be b909 51be
000001f0: a828 2abd 16a7 483a a43c 6dbe c61f 63be

bias_hh_l1 f4 [128]
-0.07849344 -0.42234823 -0.07195602 -0.37825093 -0.24008821 0.020645048 -0.17488384 -0.43164313
-0.32909933 -0.19622381 -0.5324246 -0.47735628 -0.21442221 -0.3259725 -0.19208829 -0.45965853
-0.31283423 -0.1700349 -0.44703513 -0.38494495 -0.31874794 -0.15470594 -0.35697317 -0.28431487
-0.20548406 -0.37842637 -0.44656393 -0.26409054 -0.24671555 0.002890695 -0.13389459 -0.1624437
0.10578249 -0.09293758 -0.17029288 -0.06503461 -0.4554215 -0.0660417 -0.11973676 -0.3967402
-0.30895796 -0.1888203 -0.26923078 -0.39525792 -0.3942529 -0.24669968 -0.23246321 -0.1688124
-0.36836714 -0.22161116 -0.20025972 -0.45635167 -0.38850918 -0.14732112 -0.17291784 -0.34345612
-0.020671012 -0.25985017 -0.34929943 -0.24798027 -0.26745105 -0.12090876 -0.08194618 -0.05190817
0.051889375 -0.18579975 0.043336928 -0.120693535 0.040280107 -0.06777335 0.150366 -0.0013250761
0.17253786 0.038478486 -0.02948207 0.11481497 -0.096335135 0.10072432 0.20649904 -0.030893885
-0.004924009 0.0067545283 -0.14103211 0.15412961 -0.05824315 -0.026438376 -0.0011669727 -0.13434407
0.116744064 -0.085499704 -0.101237535 0.029965658 0.023486499 0.025425635 -0.056298696 0.030900711
0.09150408 -0.2643835 -0.074179344 -0.25545233 -0.5182265 -0.006493379 -0.24068032 -0.28431892
-0.12832464 -0.17831382 -0.5367311 -0.46475524 -0.25379643 -0.29413477 -0.38357416 -0.11079205
-0.4158387 -0.34014237 -0.3738434 -0.3880623 -0.36036885 0.021111589 -0.2473329 -0.38370153
-0.04580054 -0.4064217 -0.3102422 -0.33675528 0.011033364 -0.057795025 -0.33530748 -0.36250615
00000000: 2bc1 a0bd 073e d8be ae5d 93bd 1baa c1be
00000010: afd9 75be ce1f a93c c014 33be 5400 ddbe
00000020: b57f a8be e5ee 48be fb4c 08bf 0b68 f4be
00000030: 7f91 5bbe dee5 a6be cbb2 44be 5d58 ebbe
00000040: cf2b a0be a11d 2ebe cae1 e4be 8117 c5be
00000050: ee32 a3be 3c6b 1ebe 30c5 b6be b891 91be
00000060: 6a6a 52be 1ac1 c1be 07a4 e4be e036 87be
00000070: 00a3 7cbe d071 3d3b aa1b 09be a457 26be
00000080: 7da4 d83d 0f56 bebd 4261 2ebe de30 85bd
00000090: 022d e9be df40 87bd 8c38 f5bd 8821 cbbe
000000a0: bd2f 9ebe 1c5a 41be 9ed8 89be 3f5f cabe
000000b0: 84db c9be d79e 7cbe d60a 6ebe 28dd 2cbe
000000c0: 9e9a bcbe 09ee 62be e210 4dbe eda6 e9be
000000d0: adea c6be 59db 16be 6011 31be 7bd9 afbe
000000e0: 4156 a9bc 150b 85be 60d7 b2be 8aee 7dbe
000000f0: 58ef 88be 039f f7bd 66d3 a7bd a99d 54bd
00000100: f489 543d 4a42 3ebe 1082 313d 2c2e f7bd
00000110: c1fc 243d c1cc 8abd 8bf9 193e 2dae adba
00000120: c4ad 303e 9e9b 1d3d 6284 f1bc 1c24 eb3d
00000130: 5b4b c5bd 8d48 ce3d 7c74 533e 2c15 fdbc
00000140: 9559 a1bb 1755 dd3b b96a 10be 27d4 1d3e
00000150: 5f90 6ebd 4b95 d8bc 1bf5 98ba 7e91 09be
00000160: 8317 ef3d 781a afbd a055 cfbd 8a7a f53c
00000170: c266 c03c 6c49 d03c 7699 66bd 7d23 fd3c
00000180: 7e66 bb3d 465d 87be 57eb 97bd a6ca 82be
00000190: 7eaa 04bf 69c6 d4bb e774 76be 4092 91be
000001a0: 8967 03be e697 36be 3667 09bf 66f4 edbe
000001b0: 9bf1 81be d598 96be d563 c4be f1e6 e2bd
000001c0: cfe8 d4be 2427 aebe 6768 bfbe 1ab0 c6be
000001d0: 4482 b8be 36f2 ac3c d644 7dbe 8774 c4be
000001e0: 5999 3bbd 8116 d0be 11d8 9ebe 306b acbe
000001f0: 48c5 343c 7aba 6cbd 6cad abbe 689a b9be

weight_ih_l2 f4 [128, 32]
0.16663893 -0.09920708 -0.049303427 0.18174547 -0.13078822 -0.08614885 -0.3834709 0.010393294
-0.28470904 0.2076731 -0.11022589 0.0025670836 0.3179655 -0.19038285 -0.20948224 -0.010795717
0.22012131 0.015831951 -0.07698175 -0.045950145 0.03203681 -0.0064935535 -0.024297327 0.19222018
-0.19522688 0.022122845 0.1973076 -0.050491482 -0.10181501 -0.07986679 0.45866308 0.10866434
0.33767182 0.071743 0.3090313 0.20148881 -0.3545991 -0.037497967 -0.36892298 0.21555305
-0.045665823 0.1350258 -0.06252598 -0.048739016 0.4417186 -0.21363638 0.043297533 0.2896517
0.5893124 0.20717378 0.017141491 -0.11123386 0.22246544 0.15864876 0.11816276 -0.119719826
-0.10023862 0.21536586 0.09037378 -0.09282576 -0.08062432 -0.11735705 0.58213663 0.1815616
0.08286519 0.063365884 0.25362185 0.1757692 -0.023277411 -0.29987207 -0.30523697 -0.015867021
-0.29250973 0.27194956 -0.07659227 0.09300827 0.07865898 -0.118801415 -0.045398753 0.054863296
0.2593122 0.041372504 0.13058025 -0.046916984 -0.012038422 0.21231633 0.08964191 0.06869608
-0.050606556 0.26344088 0.18934987 -0.13425484 -0.23170686 -0.10306641 0.25315073 0.014355731
0.3238629 -0.0090201795 0.006315111 -0.1802928 -0.07208036 -0.052664798 -0.6412118 -0.012695966
-0.16358767 0.2477273 -0.09969517 -0.06772058 0.37639827 -0.085482225 -0.02152173 0.1715589
0.5156117 0.2386165 0.014648452 -0.037288915 0.09688717 -0.07887307 -0.08221717 0.04196353
-0.20565069 0.19207262 -0.2311361 -0.043933813 -0.11170566 -0.0029933653 0.31218368 0.07816563
0.12125846 0.18174501 0.03682729 -0.09207021 -0.022061946 -0.23518626 -0.3689654 -0.098640434
0.12074689 0.13055524 -0.16294356 0.11514771 0.2602569 -0.17438397 -0.11676989 0.28315
0.3237687 0.11996857 0.028578129 -0.30542237 0.2567041 0.02602909 -0.075829946 0.25984466
-0.20457464 0.08703631 -0.012182413 -0.16572648 0.0113205565 -0.18717234 0.14183778 0.0597036
0.2839222 -0.15971468 0.17533918 -0.010811769 -0.16453893 0.0015772263 -0.35070223 -0.28290513
-0.018445347 0.2511236 0.12422612 -0.107149184 0.24009342 -0.3686344 -0.15818754 0.2702314
0.26813787 0.26374036 -0.035952643 0.05133829 -0.010464323 0.059705045 -0.1228029 0.21350724
-0.109800234 0.078908555 -0.002159796 0.084596016 -0.08083871 -0.17076415 0.007637968 -0.25277054
0.038374633 -0.20892055 0.02004268 0.07545711 -0.15542439 -0.30016986 -0.41914442 0.14171807
-0.2539634 0.2694966 -0.056785896 -0.10959852 0.24124283 -0.12748408 -0.057468805 0.0068325126
0.36068842 0.1280906 0.0391551 -0.015236771 -0.0827576 0.096427195 0.049217515 -0.032393754
0.017276423 0.034356903 -0.07598067 -0.1842016 -0.023619425 -0.18994468 0.38691637 -0.008736771
0.06925366 0.015525199 -0.0070418585 -0.05806834 -0.07011308 0.020256463 -0.32248026 0.10719474
-0.19858731 0.40764794 0.05548043 -0.12769441 0.21283452 -0.28693423 0.057779368 0.16336533
0.37637946 0.25912786 -0.08145987 -0.15991883 0.22364105 0.19235015 -0.06876477 0.16052298
0.048446346 0.36172718 0.16779718 0.03494313 -0.09828213 -0.1115514 0.33835277 -0.12537222
00000000: 65a3 2a3e 152d cbbd 64f2 49bd 7c1b 3a3e
00000010: 59ed 05be cf6e b0bd 4c56 c4be a248 2a3c
00000020: 62c5 91be 42a8 543e 1dbe e1bd 843c 283b
00000030: 60cc a23e b9f3 42be 8382 56be 85e0 30bc
00000040: 7b67 613e 02b2 813c 9ca8 9dbd 3836 3cbd
00000050: 0839 033d e0c7 d4bb 300b c7bc 5ed5 443e
00000060: 8ee9 47be f83a b53c 010b 4a3e 28d0 4ebd
00000070: 6384 d0bd 3391 a3bd e3d5 ea3e 698b de3d
00000080: 52e3 ac3e feed 923d 5a39 9e3e 1553 4e3e
00000090: 038e b5be 7897 19bd 79e3 bcbe f0b9 5c3e
000000a0: 160c 3bbd 3444 0a3e 9f0d 80bd 90a2 47bd
000000b0: f128 e23e 7fc3 5abe c158 313d 3a4d 943e
000000c0: 2ddd 163f 5d25 543e 506c 8c3c 94ce e3bd
000000d0: fbcd 633e d274 223e 51ff f13d ab2f f5bd
000000e0: e849 cdbd de88 5c3e e315 b93d 6f1b bebd
000000f0: 5d1e a5bd e558 f0bd e806 153f 49eb 393e
00000100: 3ab5 a93d f9c5 813d b9da 813e d7fc 333e
00000110: 45b0 bebc d588 99be 0548 9cbe 8efb 81bc
00000120: d6c3 95be f93c 8b3e 68dc 9cbd 1f7b be3d
00000130: f617 a13d 284e f3bd 0bf4 39bd 56b8 603d
00000140: 92c4 843e 3776 293d d4b6 053e 062c 40bd
00000150: cd3c 45bc 7469 593e 2d96 b73d 88b0 8c3d
00000160: d248 4fbd b9e1 863e efe4 413e 1a7a 09be
00000170: 9044 6dbe 7b14 d3bd f99c 813e 4d34 6b3c
00000180: 5cd1 a53e 60c9 13bc feee ce3b ad9e 38be
00000190: de9e 93bd 0bb7 57bd 7526 24bf be02 50bc
000001a0: 8783 27be 3aac 7d3e fb2c ccbd 16b1 8abd
000001b0: 46b7 c03e 4e11 afbd 574e b0bc 23ad 2f3e
000001c0: 21ff 033f e257 743e 1000 703c 43bc 18bd
000001d0: c86c c63d 3488 a1bd 7a61 a8bd f3e1 2b3d
000001e0: 1896 52be afae 443e f1ae 6cbe f1f3 33bd
000001f0: f0c5 e4bd 562c 44bb 8ad6 9f3e 4d15 a03d
00000200: 5b56 f83d 5d1b 3a3e 36d8 163d 4e8f bcbd
00000210: 41bb b4bc abd4 70be 08e9 bcbe ff03 cabd
00000220: 254a f73d 46b0 053e adda 26be 90d2 eb3d
00000230: 6440 853e b691 32be 0d25 efbd 09f9 903e
00000240: 03c5 a53e 15b2 f53d ae1c ea3c 5260 9cbe
00000250: b86e 833e f53a d53c bb4c 9bbd 5c0a 853e
00000260: 047c 51be 1840 b23d be98 47bc 34b4 29be
00000270: db79 393c 1baa 3fbe ec3d 113e c38b 743d
00000280: 405e 913e 3f8c 23be 1d8c 333e d923 31bc
00000290: e57c 28be efba ce3a 3e8f b3be f1d8 90be
000002a0: b21a 97bc 4693 803e 446a fe3d 0871 dbbd
000002b0: 0ddb 753e a6bd bcbe eafb 21be c55b 8a3e
000002c0: 5e49 893e fa08 873e 1443 13bd 1948 523d
000002d0: 8d72 2bbc 478d 743d 1680 fbbd a4a1 5a3e
000002e0: f2de e0bd cf9a a13d 5d8b 0dbb ad40 ad3d
000002f0: c48e a5bd ccdc 2ebe eb47 fa3b 246b 81be
00000300: b82e 1d3d 45ef 55be 8c30 a43c 4289 9a3d
00000310: 9227 1fbe ddaf 99be 199a d6be 8b1e 113e
00000320: 7e07 82be 75fb 893e 5498 68bd 3075 e0bd
00000330: 5c08 773e 308b 02be 6964 6bbd 45e3 df3b
00000340: 27ac b83e 2f2a 033e 1961 203d a6a3 79bc
00000350: d17c a9bd 9f7b c53d 4e98 493d 50af 04bd
00000360: 4987 8d3c d3b9 0c3d c19b 9bbd 589f 3cbe
00000370: 867d c1bc dc80 42be e719 c63e ac24 0fbc
00000380: ddd4 8d3d 675d 7e3c 64bf e6bb 11d9 6dbd
00000390: 7297 8fbd e2f0 a53c 221c a5be ea88 db3d
000003a0: 795a 4bbe 3bb7 d03e 733f 633d 53c2 02be
000003b0: 4bf1 593e 0be9 92be 0faa 6c3d 3e49 273e
000003c0: cfb4 c03e 68ac 843e 6fd4 a6bd c3c1 23be
000003d0: 2902 653e 70f7 443e 8bd4 8cbd 2360 243e
000003e0: ad6f 463d 4e34 b93e 06d3 2b3e 8720 0f3d
000003f0: 2448 c9bd 0f75 e4bd 933c ad3e 9361 00be

weight_hh_l2 f4 [128, 32]
0.10741606 0.019926522 0.082614824 -0.021965297 0.21660627 0.1080673 -0.18463118 -0.04483573
0.105670586 -0.11140465 -0.016793586 0.11950656 -0.15372705 0.022495579 -0.107626125 -0.11356208
-0.008223595 -0.07106187 -0.032262783 0.15767354 0.17558755 -0.19800748 -0.0944091 0.22706962
0.10275548 0.059075534 -0.04483438 0.11444507 -0.12094135 0.10713927 -0.012365427 0.21443526
-0.0050131585 0.3620331 0.20933805 -0.17325419 -0.14710662 0.2756117 -0.12887686 -0.21057121
0.14813828 -0.23545249 0.17410682 0.345328 -0.297576 0.13766088 0.05935633 -0.26026902
0.06715404 -0.009946827 -0.44159678 0.20283906 0.39936695 -0.040358 -0.18798018 0.19689228
-0.05614466 0.2554266 -0.3261055 -0.21492429 -0.08920636 0.20498209 -0.012565662 -0.008048337
0.08827664 0.16464025 0.029521396 -0.06803799 0.32445988 -0.042183105 -0.043862466 0.029960958
0.14176086 -0.2099326 0.06865772 0.04311769 -0.036054403 0.124700114 0.12463359 -0.14063637
-0.09232608 -0.08223292 -0.0909838 -0.007057634 0.04355247 -0.21181674 -0.20009181 0.18088192
-0.11931635 0.080618806 -0.04534507 -0.054948717 0.07894651 0.20888202 0.13401236 0.19650549
0.019069452 0.3183641 0.08323616 -0.19416395 0.04150253 -0.3727757 -0.13440709 -0.13706288
0.09046239 -0.045602314 0.09325144 0.09621552 0.3023985 0.28250438 0.12687439 -0.1210737
-0.057117578 0.407658 -0.2234527 0.004523828 0.31001154 -0.2184269 -0.2090107 0.05243891
0.1118291 0.05732285 -0.29305142 0.09914456 0.0829587 0.22797418 -0.02209769 -0.13992654
-0.05470165 0.2880317 0.1929535 0.09117096 0.048609298 0.056135815 -0.1203141 -0.1056106
0.047925387 -0.03616897 0.32715946 0.29926312 0.046894826 0.29194173 -0.12716132 0.026919212
-0.04462307 0.058670316 -0.01118606 0.11617722 0.45774516 -0.04625151 -0.45770404 0.07046636
0.20833223 0.098481566 -0.3773319 0.19906425 0.18824565 0.25203198 -0.031842228 0.14835344
0.104496114 0.2801227 0.16835177 -0.06471976 0.030382812 -0.060988553 -0.1210922 -0.12837693
-0.10868075 -0.24849626 -0.15121128 -0.085016415 -0.09038011 0.019253101 -0.112662256 0.07361322
0.08434855 0.1394905 -0.11277132 0.1577301 -0.071695626 -0.23866607 -0.2829936 0.005603491
0.08096135 -0.0054331603 -0.16485609 0.22899666 -0.08712572 -0.027915264 -0.049661405 0.10154135
-0.13938808 -0.017942283 0.19896999 0.25109512 0.08864234 0.09839266 -0.106685564 0.00860836
0.25697446 -0.3118673 0.007854832 0.1484478 -0.12415005 -0.28389826 -0.10862231 0.044728212
0.26512405 -0.034033217 -0.033368185 -0.10658778 0.008203082 -0.3407868 -0.37628207 0.17375298
-0.11660226 -0.16886798 -0.20902489 0.084337264 -0.055870228 -0.10412504 0.31023327 -0.19661151
0.020957818 -0.023397207 0.110483915 0.041476265 0.26225957 0.17837693 -0.1387912 0.114330284
-0.11576744 0.009992616 0.052834257 0.28647792 -0.24598283 0.02126712 -0.09330352 -0.018707085
0.01815722 -0.15592195 -0.12525295 0.1358039 0.11970524 -0.17982577 -0.07284362 0.036794487
0.026449803 -0.18409815 -0.3151948 -0.06937915 0.008396045 0.15130499 0.051996086 -0.09576806
00000000: f4fc db3d f23c a33c f631 a93d 91f0 b3bc
00000010: 09ce 5d3e 6352 dd3d f50f 3dbe aca5 37bd
00000020: d269 d83d 1f28 e4bd b492 89bc dbbf f43d
00000030: a06a 1dbe a648 b83c 166b dcbd 3c93 e8bd
00000040: 42bc 06bc e388 91bd fb25 04bd 2c75 213e
00000050: 39cd 333e 79c2 4abe 8f59 c1bd f084 683e
00000060: 7771 d23d 30f9 713d 41a4 37bd 2d62 ea3d
00000070: 19b0 f7bd d56b db3d 5c98 4abc eb94 5b3e
00000080: 6c45 a4bb 675c b93e b75c 563e 8c69 31be
00000090: 1ea3 16be fa1c 8d3e 4cf8 03be fb9f 57be
000000a0: 90b1 173e 751a 71be 0f49 323e d5ce b03e
000000b0: e25b 98be f9f6 0c3e a01f 733d fb41 85be
000000c0: 0f88 893d 04f8 22bc f918 e2be 0bb5 4f3e
000000d0: d379 cc3e 6e4e 25bd e07d 40be 219e 493e
000000e0: f1f7 65bd 46c7 823e 4df7 a6be 1d15 5cbe
000000f0: d3b1 b6bd d3e6 513e 35e0 4dbc 2cdd 03bc
00000100: 62ca b43d 7497 283e dbd6 f13c 8057 8bbd
00000110: 9b1f a63e 31c8 2cbd 21a9 33bd af70 f53c
00000120: c229 113e 92f8 56be 6b9c 8c3d 2d9c 303d
00000130: c8ad 13bd c662 ff3d e53f ff3d fb02 10be
00000140: 7515 bdbd bc69 a8bd b755 babd ba43 e7bb
00000150: 1364 323d 7de6 58be dee4 4cbe 1c39 393e
00000160: 215c f4bd 791b a53d c1bb 39bd e811 61bd
00000170: b5ae a13d 2be5 553e 893a 093e bc38 493e
00000180: 8a37 9c3c 9f00 a33e b877 aa3d ead2 46be
00000190: 8ffe 293d 75dc bebe 03a2 09be 365a 0cbe
000001a0: 5844 b93d 7ec9 3abd 9cfa be3d a40c c53d
000001b0: fad3 9a3e 6aa4 903e 5ceb 013e 7df5 f7bd
000001c0: 1ff4 69bd 8db8 d03e c9d0 64be 9f3c 943b
000001d0: d5b9 9e3e 4dab 5fbe e706 56be 2fca 563d
000001e0: a806 e53d 5dcb 6a3d d60a 96be 4e0c cb3d
000001f0: 40e6 a93d 1072 693e 3706 b5bc e748 0fbe
00000200: d60e 60bd e478 933e 9a95 453e d7b7 ba3d
00000210: 8b1a 473d abee 653d 3d67 f6bd 5f4a d8bd
00000220: 694d 443d ea25 14bd 7281 a73e 0439 993e
00000230: ca14 403d 6379 953e 9436 02be ae85 dc3c
00000240: aec6 36bd 4950 703d bc45 37bc 53ee ed3d
00000250: 935d ea3e 3972 3dbd 2f58 eabe ab50 903d
00000260: 0b55 553e b4b0 c93d a631 c1be 80d7 4b3e
00000270: 78c3 403e 560a 813e ff6c 02bd f7e9 173e
00000280: 0f02 d63d 3e6c 8f3e 6864 2c3e cb8b 84bd
00000290: 60e5 f83c 22cf 79bd 30ff f7bd 3e75 03be
000002a0: 0394 debd ce75 7ebe 21d7 1abe 161d aebd
000002b0: 3519 b9bd aeb8 9d3c 78bb e6bd 87c2 963d
000002c0: efbe ac3d 99d6 0e3e a6f4 e6bd 0084 213e
000002d0: 28d5 92bd e164 74be 8ae4 90be 7d9d b73b
000002e0: 10cf a53d a708 b2bb 09d0 28be 1a7e 6a3e
000002f0: f86e b2bd 8dae e4bc c269 4bbd e9f4 cf3d
00000300: c0bb 0ebe b2fb 92bc cabe 4b3e 8a8f 803e
00000310: 1d8a b53d 1782 c93d f67d dabd 140a 0d3c
00000320: 2892 833e 12ad 9fbe 8eb1 003c b302 183e
00000330: 6242 febd 1d5b 91be 6075 debd ee34 373d
00000340: 57be 873e 6a66 0bbd 14ad 08bd b24a dabd
00000350: 3866 063c 9c7b aebe 0ba8 c0be 4dec 313e
00000360: 2acd eebd baeb 2cbe 9f0a 56be 04b9 ac3d
00000370: 2ed8 64bd 823f d5bd e5d6 9e3e 8754 49be
00000380: bbaf ab3c 80ab bfbc 6445 e23d 04e3 293d
00000390: e346 863e 71a8 363e 481f 0ebe ff25 ea3d
000003a0: 7b17 edbd 12b8 233c bc68 583d 3cad 923e
000003b0: ece2 7bbe 6238 ae3c ea15 bfbd 9a3f 99bc
000003c0: 73be 943c 01aa 1fbe 4f42 00be 2d10 0b3e
000003d0: 0528 f53d 3f24 38be 092f 95bd d1b5 163d
000003e0: 42ad d83c 3a84 3cbe 3661 a1be a816 8ebd
000003f0: 918f 093c b2ef 1a3e d9f9 543d 0b22 c4bd
