models/UCF101_lstm_angles_model.pth (torch, 301271 bytes, 42 tensors)

weight_ih_l0 f4 [128, 16]
000000 e9 5d 26 3e 5e 1f 89 3d 24 40 08 3d 00 2e ff 3b
       0.16246761 0.06695436 0.033264294 0.007787466
000010 08 e7 a7 bc aa c2 54 bd 41 7c 01 3e 83 da 30 be
       -0.020495906 -0.05194346 0.12645055 -0.17270856
000020 54 fc 7b 3d 97 49 04 3e e0 18 1a bc 80 4e 64 bb
       0.061519936 0.12918697 -0.009405345 -0.0034836829
000030 92 6c a7 bd 33 c0 28 3e 82 7b 55 bd 48 f2 f1 bc
       -0.08175005 0.16479568 -0.05211974 -0.029534474
000040 42 62 c6 3d 98 4f 82 3d f6 1a f0 3d 64 70 1c be
       0.0968671 0.063628376 0.117238924 -0.15277249
000050 e2 b0 df 3d 3e 5a 15 be a2 bc 97 3d 14 23 4f 3d
       0.109224096 -0.14585206 0.07409026 0.050570562
000060 2d d2 a6 bd c1 f0 08 3e 01 7b 19 3e a7 fe 10 be
       -0.081455566 0.1337309 0.14988329 -0.14159642
000070 1b 9c 0b 3e fa 66 1e be 7c 5d 7d 3d 9d 01 dd bd
       0.13633768 -0.1546897 0.06185673 -0.10791323
000080 3a c8 d4 3d 7c 32 7a bd 04 dd dd bd 87 44 02 3e
       0.10389753 -0.061083302 -0.10833171 0.12721454
000090 11 fc 07 3e e0 f1 be bb c9 24 32 3e 8f a7 2b be
       0.1327975 -0.0058271736 0.17396845 -0.16763137
0000a0 2a fc 9e 3d 75 36 b7 bd 10 4f 2d bc 68 cd 8d bc
       0.0776294 -0.08945934 -0.010577932 -0.01730986
0000b0 ce 8b c2 3d 4a 17 cd 3d ce 95 9c bd 83 41 1b 3e
       0.09499322 0.10014208 -0.076457605 0.1516171
0000c0 11 5d 2b 3e 4f d1 30 3e c8 5b 50 3d 26 d8 c6 3d
       0.16734721 0.17267345 0.05086878 0.09709196
0000d0 ea e1 f3 bd d1 3d a4 bd 94 ed 33 bd b7 62 1a 3e
       -0.11908324 -0.08019603 -0.043927744 0.15076719
0000e0 da 75 cc 3d 2b b2 33 3e ad 0a 33 be 66 85 b8 3d
       0.09983416 0.17548434 -0.17484541 0.09009819
0000f0 68 59 95 3c 16 5c e9 3d 20 fc 17 bc d5 c8 10 3e
       0.018231109 0.11394517 -0.00927642 0.14139111
000100 26 0e a8 3d 02 86 95 3d f8 28 b7 bc a0 cd 25 be
       0.082058236 0.073009506 -0.022358403 -0.16191721
000110 72 54 98 3d 16 3f db 3d 33 96 e2 bd 2b 0f ad bd
       0.07437982 0.10705392 -0.110638045 -0.08450159
000120 61 b2 04 3e 65 04 26 3e 40 92 0a 3c b5 31 15 3e
       0.12958671 0.16212614 0.00845772 0.14569743
000130 72 7d 16 be fc b7 84 bd 1f 6f 16 3e 5a 89 1a be
       -0.14696291 -0.06480405 0.14690827 -0.15091458
000140 8a 15 dc 3d 03 37 2c 3e f6 ab a9 3d c0 a4 83 bb
       0.10746296 0.1681786 0.08284752 -0.0040174425
000150 57 9f 06 3e 2e 2a ef 3d 96 e6 e2 3d d4 c0 69 3d
       0.13146721 0.11677967 0.11079137 0.05706866
000160 61 43 0f be 6a ef f0 3d 63 da 21 3e 73 d9 1d 3e
       -0.13990547 0.117644146 0.15805964 0.15414982
000170 04 f3 53 3d 78 44 16 3d 04 32 5c 3d 50 6b 13 bd
       0.05174543 0.03668639 0.053758636 -0.035991013
000180 69 5c e7 bd f6 bd fe 3d b2 75 83 bd 8c 19 20 be
       -0.11296923 0.12438576 -0.06418933 -0.15634745
000190 ea a9 c8 3d fe 2b ec bd 88 db 3a bd cd d5 0f 3e
       0.097980335 -0.11531828 -0.045619518 0.14046402
0001a0 ea 35 e2 3d 0f 9b d2 bd e0 68 b4 bb 70 5e 74 3d
       0.110454395 -0.10283481 -0.005505666 0.059660375
0001b0 9a f7 f8 bd f0 a2 cf bc 8b 0f 05 3e d9 d4 81 bd
       -0.12156601 -0.02534625 0.1299421 -0.063394256
0001c0 82 3b ec 3d 4f e8 ce bd 96 90 bb 3d 9e b7 0b be
       0.11534788 -0.10102903 0.09158437 -0.13644263
0001d0 81 ea ca bd 3e 78 0a be 0e 6d c8 3d 83 d7 16 3e
       -0.09908009 -0.13522431 0.097864255 0.14730649
0001e0 d8 20 db bc 9e 1a c7 3d f5 9b 22 be 5a b0 8c 3d
       -0.02674906 0.09721874 -0.15879805 0.06869574
0001f0 a3 e5 03 be 8a 08 cb 3d 80 9f 5c bb 70 a8 f3 3c
       -0.12880568 0.09913738 -0.0033664405 0.029743403
000200 fd 4f 04 be 20 3f 0d 3c b6 9e c3 3d ba ed 90 3d
       -0.12921138 0.008621007 0.09551756 0.07076593
000210 b6 43 e1 3d 56 71 bf 3d b0 3f 35 bd 07 6d 16 3e
       0.10999243 0.09347789 -0.04425019 0.14690028
000220 0e 4b c3 bd d5 a0 0e 3e be 27 ea 3d 54 30 30 3d
       -0.095358 0.1392854 0.114333615 0.04301484
000230 da 43 d1 3d 19 67 de bd a3 5d 0c 3e d0 f6 fd bd
       0.1021802 -0.10859508 0.13707595 -0.124005914
000240 d1 89 25 3e c2 fd c4 3d d2 61 97 3d f6 c5 31 be
       0.16165854 0.09618713 0.073917046 -0.17360672
000250 eb 94 20 be 74 2f 72 3d 81 e2 0c 3e 93 9e 10 be
       -0.15681808 0.059127286 0.1375828 -0.14122991
000260 ad 59 24 be c0 ea bd 3b 30 27 18 be a6 5f 84 bd
       -0.16049834 0.0057958066 -0.14858699 -0.06463556
000270 e4 e2 c8 bd c8 bf e1 bc c0 61 6f bc 50 83 6a bc
       -0.09808901 -0.027557269 -0.014610708 -0.014313534
000280 9e 9d 09 be 1a fe fe 3d 70 48 45 3d 00 f7 25 3a
       -0.13439032 0.1245081 0.048164785 0.00063310564
000290 e0 7f 3e bd 42 09 d8 3d 92 3b e4 3d 17 26 08 3e
       -0.04650867 0.10548641 0.11144175 0.1329578
0002a0 94 7f 40 3d d0 23 b4 bc f0 ea 07 be 21 09 05 3e
       0.046996668 -0.021989733 -0.13273215 0.12991764
0002b0 02 26 ba 3d 83 3f f3 bd b8 1b f9 bd 8e 12 2e be
       0.09089281 -0.11877348 -0.1216349 -0.16999266
0002c0 18 b7 f5 bd e4 74 f0 bd 80 5c 86 bb 7a 6a a2 bd
       -0.11997813 -0.11741045 -0.0041003823 -0.07930465
0002d0 20 04 a3 bc eb 34 05 3e cc 7a 0f be f0 55 10 be
       -0.019899428 0.13008468 -0.14011687 -0.14095283
0002e0 6b bb d0 bd 38 72 d1 3c ce 7d fa 3d 90 61 10 be
       -0.10191997 0.025567159 0.122310266 -0.14099717
0002f0 ab ba 0d 3e 8d 90 80 bd c0 d7 69 3c 9c 4f 8a bd
       0.1384074 -0.06277571 0.01427263 -0.067534655
000300 78 1f ac bd 80 ce c7 3a 52 05 26 be 65 f3 02 3e
       -0.0840444 0.0015244037 -0.16212967 0.1278816
000310 f7 e1 e3 bd d3 63 0d be c5 76 af bd b9 5d 87 bd
       -0.11127084 -0.13807611 -0.08567575 -0.06609673
000320 77 d7 12 be 60 31 86 bb 7b ed d4 bd f3 23 14 be
       -0.14340006 -0.0040952414 -0.10396858 -0.14466839
000330 d0 04 ca bc 0a 1e 93 3d e6 18 b6 bd 34 96 44 3d
       -0.024660498 0.07183464 -0.08891468 0.047994807
000340 e8 ef cd 3c 49 27 11 be 60 69 15 bd 07 48 34 3e
       0.02513881 -0.14175142 -0.036477447 0.17605601
000350 cc 82 ac bd 3b bb 1f 3e 41 ad 34 3e c5 66 2b be
       -0.08423385 0.15598767 0.17644216 -0.16738422
000360 50 67 02 be ed 72 1e 3e be b0 bd 3d 40 23 03 bc
       -0.12734723 0.15473528 0.092622265 -0.00800401
000370 36 27 dc 3d d6 d6 db bd e6 d9 da 3d fe ef bd 3d
       0.107496664 -0.10734336 0.10686092 0.092742905
000380 a8 a8 a4 bc 20 65 83 bc 3f 78 21 be 70 58 77 3c
       -0.020099953 -0.016039431 -0.15768526 0.015096769
000390 38 01 ae bd 4d 8f 2e 3e 1e b5 9c 3d 00 5e 1f bb
       -0.08496326 0.17046852 0.07651733 -0.0024317503
0003a0 87 73 c9 bd 0b 82 04 3e b2 f5 a0 3d 2c a5 3d 3d
       -0.09836488 0.12940232 0.07859363 0.0463001
0003b0 be 13 db 3d 46 5b 6d bd 28 35 12 be 22 d6 e0 3d
       0.10697125 -0.057948373 -0.1427809 0.109783426
0003c0 86 1d 30 be ca b5 f7 bd 21 9e ce bd 6a eb e5 bd
       -0.17198762 -0.120952204 -0.100887544 -0.11226542
0003d0 cd 7e 26 3e 5c 63 33 be 89 b1 1b 3e a2 84 fd 3d
       0.16259308 -0.17518371 0.15204443 0.12378813
0003e0 5e 04 99 bd 67 72 8e bd ee ee ec 3d 9c e5 06 bd
       -0.07471536 -0.06955414 0.1156901 -0.032933816
0003f0 8c 04 75 bd 5e 85 b7 bd 80 ff 1b 3b ec c4 7f 3d
       -0.05981879 -0.08960985 0.0023803413 0.06244366

weight_hh_l0 f4 [128, 32]
000000 a8 da 4d 3e 69 59 1e be 39 ab 56 3d 4f f1 19 bd
       0.20102942 -0.15463795 0.052409384 -0.037583645
000010 81 77 ad bd f5 c3 36 be 80 5c 33 bc 6b 53 60 be
       -0.08470059 -0.17848189 -0.010947347 -0.21906821
000020 28 57 d8 bd 7b 00 bf bc 0b 99 1a bd c1 f7 4f 3d
       -0.10563499 -0.023315659 -0.03774361 0.050773386
000030 ce e6 94 bd 2d 16 2b be 4a 8b 3b be 2f 0e fa 3d
       -0.07270585 -0.16707678 -0.18314853 0.122097366
000040 bf 6b db 3d 9b 75 d5 bd c9 6e d3 3d db 2a 23 be
       0.1071391 -0.10422822 0.10323865 -0.15934317
000050 33 3f 16 bd 21 f5 8b 3c a7 26 10 3e 26 d4 52 be
       -0.036681365 0.01708466 0.14077245 -0.2058874
000060 63 e5 21 3e 49 a0 9f bd cd 87 0d be f8 b4 b3 bd
       0.1581016 -0.07794244 -0.13821335 -0.087747514
000070 b3 61 11 be 19 0d b7 bd 6c 15 c4 3d 73 fc db bc
       -0.14197426 -0.08938045 0.095743984 -0.026853776
000080 b5 fe 0f 3e b2 fd b2 3c 0f 75 56 be 59 55 20 3d
       0.14062007 0.021849487 -0.20943092 0.039143894
000090 2b 16 8a bd 24 76 30 3d 2e 7c c2 3d f4 9e 9f bd
       -0.067425095 0.043081418 0.09496342 -0.0779399
0000a0 8a b7 0b 3e 73 57 8f bd ab a1 45 3e 86 f7 16 3e
       0.13644233 -0.069991015 0.19299953 0.1474286
0000b0 07 45 a5 bd 4e a0 33 bd fe ea ce bc c6 18 13 be
       -0.080698065 -0.04385405 -0.025258537 -0.14364919
0000c0 99 15 67 3d 01 73 c8 3d cd 41 17 be ed 60 ca 3d
       0.05641708 0.0978756 -0.14771195 0.098817684
0000d0 26 0b eb 3a da 9b b6 3d d1 fa 3e 3e d1 12 14 be
       0.00179324 0.08916445 0.18650366 -0.14460303
0000e0 a0 5e 1d bc 5f af b0 3d 17 14 9f 3d 71 27 b8 3d
       -0.00960508 0.086271994 0.07767504 0.08991898
0000f0 f7 3f 87 bc 2e be cb 3c 45 22 1b be e5 9a 61 3e
       -0.016509993 0.024870958 -0.15149792 0.22031744
000100 6a a3 c1 bc e6 e2 8f bd 4c 5a 02 3d a3 f4 1a 3e
       -0.023637492 -0.07025699 0.031824395 0.15132384
000110 c3 f1 cd 3b ee 46 08 3e a4 ff 8b be 9f ba 11 3e
       0.0062849238 0.13308308 -0.27343476 0.14231347
000120 86 11 c3 3d b1 df 30 bd 25 9a 10 bd c3 f1 87 3d
       0.09524827 -0.04318208 -0.035303254 0.06637909
000130 76 e2 3b 3e fa 22 94 be 48 ed 14 be a5 85 36 bd
       0.18348107 -0.28932935 -0.1454364 -0.044561047
000140 22 ef 34 be 9d 3e 05 3d c0 91 85 be 14 95 fa bd
       -0.17669347 0.032530416 -0.2608776 -0.12235466
000150 ba 78 72 be 9d d4 2f 3e d6 00 5e 3e 6e 9e f6 3d
       -0.23678866 0.1717095 0.21680006 0.12041937
000160 8a ec 2e 3e cf e9 73 3e 64 9b 8c bc 78 58 39 3d
       0.1708242 0.2381966 -0.01716394 0.045250386
000170 42 4d 98 bc 5f 91 02 3d 46 f4 9e bc 1d 44 da bd
       -0.018591527 0.031876918 -0.019403588 -0.10657523
000180 c2 4d fb 3c 3c 61 d9 bd 1c 49 08 be 5f f5 1e 3e
       0.030676726 -0.10614249 -0.13309139 0.15523289
000190 f7 68 61 3d b4 73 38 bc 50 bd 54 bd 14 fe fd 3d
       0.055031743 -0.0112580545 -0.051938355 0.12401977
0001a0 97 ce 1a be 8e 6a a3 bd 1b ed 00 3e f7 24 e5 bd
       -0.1511787 -0.07979308 0.12590449 -0.11188691
0001b0 f5 1d 91 bc ca e0 3c be 87 23 3e bd 55 b5 03 3e
       -0.01771448 -0.18445125 -0.0464206 0.12862141
0001c0 81 41 9c bd 31 6f 11 be d9 56 49 be 53 cd 8d be
       -0.076296814 -0.14202572 -0.19662036 -0.27695712
0001d0 3b 31 09 3e 02 3f a8 3d a3 8f bd 3d 9e 05 0e bd
       0.13397686 0.08215143 0.09255912 -0.034673326
0001e0 f1 fa d2 3d 4b 6a 2c 3c d1 60 1c be 88 10 31 bd
       0.103017695 0.010523389 -0.15271308 -0.043228656
0001f0 31 80 9e bd 43 f7 0c be 9e 99 07 be 8c d7 9d 3c
       -0.07739294 -0.13766198 -0.13242194 0.01926782
000200 a7 3c 64 bc 8f 28 b8 3c f8 5c 88 bc 37 ee 4c bd
       -0.013930476 0.022480277 -0.016645893 -0.050031867
000210 65 b3 3c be 71 c6 1d 3d 7f 48 72 bd 31 e0 08 bd
       -0.18427809 0.038519327 -0.05915117 -0.03341693
000220 69 f8 24 3e b8 64 29 3e 32 47 38 3b 86 86 eb 3c
       0.16110386 0.16542327 0.0028118608 0.02875067
000230 fb f8 86 3e 0b 9f b5 3d 90 3b 0c bd 14 dc 65 3d
       0.26361832 0.08868226 -0.03423649 0.056118086
000240 c8 74 06 3c 88 88 03 3d 23 4e 16 be ec 29 07 be
       0.008206554 0.03211263 -0.14678244 -0.13199586
000250 5a ef 1a be 00 bc f1 3d ea 53 d6 bc 50 b3 d0 3d
       -0.15130368 0.11803436 -0.02616306 0.10190451
000260 44 b6 b6 3c 28 96 03 bd 66 58 ac 3d 6a 92 aa bd
       0.022303708 -0.032125622 0.08415298 -0.083287075
000270 63 c4 cf bc f0 09 b5 bd 19 a8 8c 3d c3 ae e6 3c
       -0.0253622 -0.08839786 0.068679996 0.028159505
000280 3f 2b 9d 3b 7a 25 03 3e a1 3f 93 bd 8b bb e2 bd
       0.004796415 0.12807265 -0.071898706 -0.11070927
000290 21 f4 c2 bc 66 00 08 be c5 b4 f4 bd 61 e8 c2 bd
       -0.02379805 -0.13281402 -0.119485416 -0.09516979
0002a0 4e 6e 56 3c 82 80 a9 bc ea 0a 7c 3e 1a 58 b7 bd
       0.013087822 -0.02069116 0.24613538 -0.08952351
0002b0 c3 5e 17 bd 48 95 3d bc 62 4d e7 bc d9 95 ec 3d
       -0.036955606 -0.011571236 -0.028235141 0.11552019
0002c0 36 2a 1a be 26 d4 bd bd b0 65 61 be 7e 79 f2 3d
       -0.15055165 -0.0926898 -0.22011447 0.11839579
0002d0 d1 af b9 bd 48 4c 6d bb 23 b3 56 3e d1 51 a4 3d
       -0.090667374 -0.0036208797 0.20966773 0.08023418
0002e0 27 7b 22 3e e9 43 01 3e 30 7d 7f be 04 a2 8b bd
       0.15867291 0.12623562 -0.24950099 -0.068180114
0002f0 d6 19 6f bd 94 49 b7 3d 62 d0 1c be 8f bc bc 3d
       -0.05837425 0.08949581 -0.15313867 0.09215652
000300 a8 cb bc 3d 69 06 48 be 29 31 2c 3e ed ab 7d bd
       0.09218532 -0.19533695 0.16815628 -0.06193154
000310 84 3f e4 bd 67 f6 07 be d1 e8 b8 3d 77 5b 5a 39
       -0.11144927 -0.13277589 0.09028781 0.00020824173
000320 6a 7b fd bd d4 64 be 3d ee 4a 20 3e 43 46 cf bd
       -0.12377055 0.09296575 0.15653583 -0.10120823
000330 6c 03 98 bc df 45 4d be 86 cf a6 3d 7b d3 9f bc
       -0.01855632 -0.20046185 0.08145051 -0.019510021
000340 21 2a 40 bb ce 53 3d 3d 35 26 17 be 1a 40 2b 3d
       -0.0029321986 0.0462225 -0.14760669 0.04180918
000350 ff 2b 10 be 70 e7 13 3d 4c 69 1b be 45 25 cf 3d
       -0.14079283 0.036109388 -0.15176886 0.101145305
000360 0e 10 15 3d 17 b8 2e 3e f0 31 88 3d e9 8e 25 3e
       0.036392264 0.17062412 0.0665015 0.16167797
000370 55 f9 07 3c 22 f5 e2 bd d1 0a f1 3b 77 05 e0 3d
       0.0082991915 -0.110819116 0.0073560257 0.10938542
000380 5a 51 86 3e 37 92 df 3d fd 03 8b bd f5 0b 1b be
       0.2623394 0.1091656 -0.0678787 -0.1514128
000390 2d 4c 84 be 95 f2 d8 3d ff 46 03 be d6 75 e0 3d
       -0.25839368 0.10593144 -0.12820052 0.109599754
0003a0 2b 56 ba 3c 41 50 39 3e 9a 25 34 3c 25 4c 55 be
       0.022746166 0.1809702 0.010995293 -0.20829828
0003b0 d0 9b ef 3d b5 75 28 bd 98 3a d0 3c ac 24 63 bc
       0.11699641 -0.04112788 0.025418565 -0.013863724
0003c0 53 fe a8 bc 5a 03 c9 3d e9 65 89 be 27 40 90 3d
       -0.020629084 0.098150924 -0.26835564 0.07043486
0003d0 f1 b9 21 be 14 50 25 3d 27 ee f6 3c d8 13 74 3c
       -0.15793587 0.04035957 0.030142857 0.014897309
0003e0 aa 55 48 3e 2f 5d 2d 3c 04 08 12 be 58 0a 4c 3c
       0.19563928 0.010581299 -0.1426087 0.012453638
0003f0 1c f8 e9 3d 01 6e 86 3c 47 90 65 be d2 2a 69 bc
       0.11424276 0.016409876 -0.22418319 -0.014231401

bias_ih_l0 f4 [128]
000000 b9 91 4a bd b7 8d 75 bd dc 74 44 bd 3f 0c 5b 3d
       -0.04945538 -0.059949603 -0.04796301 0.053478476
000010 b1 3d 83 be a0 92 2b bc f8 eb 3e 3d 2f f6 cb bc
       -0.25633004 -0.01047197 0.046611756 -0.024897663
000020 77 6a fb bd 93 96 88 bd 0d f1 9e 3c 23 17 6b be
       -0.12276166 -0.06669345 0.019402051 -0.22958045
000030 74 c0 b1 bd 12 7b 62 bd 4d a2 2b bd ff b2 09 bd
       -0.08679286 -0.05529315 -0.04190283 -0.03361797
000040 66 f9 3d bd 1a 32 68 be 06 a8 4a be 03 f8 38 be
       -0.046380423 -0.22675362 -0.19790658 -0.18063359
000050 4f e2 8d 3d 95 75 e1 bd d4 c6 71 be 19 62 29 be
       0.069279306 -0.11008755 -0.23611003 -0.16541328
000060 6f 42 19 be e9 07 13 be 2d b1 1c bd 6f 1b bd bd
       -0.14966749 -0.14358486 -0.038254905 -0.09233748
000070 c3 2a a8 be 0e cb 78 be e1 f5 3c be 4d d1 7f be
       -0.32845125 -0.24296209 -0.1845317 -0.24982186
000080 ac c6 34 be d4 57 8d bd 58 9d 75 be 83 8c 69 3d
       -0.17653912 -0.069015175 -0.23985803 0.057018768
000090 be 7a 4e be cd 3f 6d 3d be 57 78 3d c4 5a 9d be
       -0.2016401 0.057922173 0.060630552 -0.3073331
0000a0 ad 22 91 bd 71 42 b8 bb 4c 67 dd 3d 7a a2 15 bc
       -0.07086692 -0.005623155 0.10810718 -0.009132976
0000b0 8d 26 8f be 93 3a e9 bd 0f 15 38 be 8d f0 42 bd
       -0.279591 -0.11388125 -0.17976783 -0.04759269
0000c0 32 1d 9a be 09 82 88 3d c1 9a 7a be 65 6a c6 bd
       -0.301004 0.06665427 -0.24473096 -0.09688262
0000d0 90 1a 16 be 41 47 88 bd f2 48 88 bd 70 89 e0 bd
       -0.1465857 -0.066542156 -0.06654538 -0.10963714
0000e0 66 b7 1b 3e ac ec 40 be c8 fa c4 3d ee c5 c1 bd
       0.1520668 -0.18840283 0.09618145 -0.0946158
0000f0 89 83 8f be ad 31 8d be ff 58 8c be ef 62 a0 bd
       -0.2803004 -0.27576962 -0.2741165 -0.0783137
000100 3b 87 26 be 71 57 49 3d 29 f9 a5 bd 6c 06 a6 bd
       -0.16262524 0.049155656 -0.08104164 -0.081066936
000110 31 95 7b 3b 92 81 bf bc bd b1 c6 3d 9b dd 90 bd
       0.0038388486 -0.023377214 0.0970187 -0.07073518
000120 32 92 8a bd 40 ff b9 3d 83 61 3d 3c 83 66 fd 3c
       -0.06766166 0.09081888 0.011558893 0.03093267
000130 16 8a bc bc 66 67 37 3c 34 ee 02 bd 96 70 4d 3b
       -0.023015063 0.011194086 -0.03196545 0.0031347624
000140 81 7e 34 3d 4b 8b 2c bb d1 40 71 3c 32 b0 5d bd
       0.044065956 -0.0026328142 0.014724926 -0.05412311
000150 b2 89 71 3c 97 e9 a4 bc 1d 80 1f bd f6 bf fb 3b
       0.014742302 -0.020130916 -0.038940538 0.0076827956
000160 93 9e 91 3c 75 2d a2 bd b1 ab cd bd 20 10 f6 3c
       0.01777581 -0.079188265 -0.10042513 0.030036986
000170 15 62 15 3e df c5 4d 3b 09 2f 85 3d 04 e7 8a bd
       0.14588197 0.0031398458 0.06503112 -0.06782344
000180 44 3a 00 3c 4b 55 bb bd f2 95 1d be c3 13 de 3c
       0.007826392 -0.09147128 -0.15389231 0.027109032
000190 82 29 d4 3c d6 e3 19 bd df fa be 3d e8 43 84 be
       0.025898699 -0.037570797 0.093251936 -0.25833058
0001a0 2d a9 bd be fa 95 e5 bd a8 ac ab 3c 69 08 84 3d
       -0.37043133 -0.112102464 0.020956352 0.064469166
0001b0 b4 8a 06 be a8 8d fc bd 2a 68 3b be 2a 18 8a be
       -0.13138849 -0.12331706 -0.18301454 -0.2697156
0001c0 6a 06 a2 be 14 e2 16 be 46 af 18 bd 71 9f 3b be
       -0.3164552 -0.1473468 -0.03727653 -0.18322541
0001d0 8e 9e db bb 41 30 79 bb f2 15 16 be e4 11 e2 3c
       -0.006702251 -0.0038023146 -0.14656809 0.027596422
0001e0 1d 0c 0c be 17 74 ce bd 61 d7 d4 3c 98 a4 20 be
       -0.13676496 -0.10080736 0.025981607 -0.15687788
0001f0 4e 7c a3 bd 80 68 66 be 01 8c 4c bd fb d6 38 bd
       -0.079826936 -0.22500801 -0.049938206 -0.045126896

bias_hh_l0 f4 [128]
000000 01 2f 7a be f6 77 85 be aa 04 76 be eb db 03 bb
       -0.24431993 -0.26068085 -0.24025217 -0.0020120095
000010 97 2f 93 be 8c 4a f6 bd 94 ce 56 be cc 95 02 be
       -0.28747246 -0.120259374 -0.20977241 -0.12752455
000020 7b e3 81 be 95 e4 d0 bd a4 2c 8b bc fc aa 3f be
       -0.25368866 -0.101998486 -0.01698906 -0.18717569
000030 95 7d ba be e5 f2 70 be c9 da 68 be b6 94 7c be
       -0.36423936 -0.23530157 -0.2273971 -0.24666104
000040 f7 c8 7e be 7b 75 d4 3d 2e 12 f3 bd 17 8e 37 3c
       -0.2488135 0.1037397 -0.11868702 0.01120331
000050 84 44 1a bc 09 dc 38 3d fc ec 33 be 60 41 e0 3d
       -0.009415749 0.045131717 -0.17570871 0.10949969
000060 b9 04 9a bd 34 0d 25 bd 34 e4 a0 3d de 6f 9f 3d
       -0.07520432 -0.040295795 0.07856026 0.07785009
000070 fe c6 4e bd 90 e7 9e bd 86 a8 49 be da 0a 8d be
       -0.050482742 -0.07759011 -0.19693193 -0.27547342
000080 c2 7b 3d be 8d b1 59 3d 37 53 86 be 92 11 96 bc
       -0.18504241 0.05314784 -0.26235363 -0.018318925
000090 d3 5d 3e bd aa 63 83 be 07 5d 20 be e3 74 37 be
       -0.046476196 -0.25661975 -0.15660487 -0.17915682
0000a0 b1 62 b6 be 15 2b 95 bd b1 cb e8 bd 62 6d 05 3d
       -0.3562217 -0.07283608 -0.11366976 0.03257502
0000b0 0c cb c3 bd f8 26 96 bd ac cb c8 bd 8a f7 7b be
       -0.095602125 -0.073316514 -0.09804472 -0.24606147
0000c0 c4 d3 88 be 27 1f 05 be a2 49 15 be 5d e0 83 be
       -0.26724064 -0.13000165 -0.1457887 -0.25757113
0000d0 15 2d 11 be 3c 05 46 be b3 b8 87 be c3 80 ce 3d
       -0.14177354 -0.19337934 -0.26508102 0.10083153
0000e0 f0 c7 11 3d 29 b2 04 be 3e f7 29 be 2a 9f bd ba
       0.035591066 -0.12958588 -0.16598222 -0.001446699
0000f0 11 93 66 be 7a 93 84 be 60 b7 92 bd a3 5d 15 bd
       -0.22517039 -0.25893766 -0.07163882 -0.036466252
000100 0b fc 09 3e b3 72 f5 bd 1f 41 e8 3d 26 4b a2 3d
       0.13475053 -0.11984768 0.11340546 0.0792449
000110 70 e2 90 3d bb f9 a1 bc 8e ef e9 3d be 11 73 3d
       0.070744395 -0.019772401 0.114226446 0.059343092
000120 bc 72 83 bc 50 51 17 be 03 aa 7e bd 27 66 ee 3c
       -0.01604592 -0.14777112 -0.062173855 0.029101444
000130 1c cf 0b 3d 48 71 c3 3d 61 da b7 3d b4 e6 a2 3d
       0.03413306 0.09543091 0.08977199 0.079541594
000140 12 50 e1 3c 2c e4 51 3d 77 b5 b5 3d 76 c6 44 3c
       0.027504 0.051242992 0.08872502 0.012010207
000150 b2 0c d4 3d 56 4e fd 3c 43 90 84 bd ad 58 35 3c
       0.10353984 0.030921143 -0.06472828 0.011068505
000160 38 14 a6 bd 97 89 4f bc 89 c5 11 3e 35 a6 a3 bd
       -0.08109325 -0.012667081 0.1423551 -0.07990686
000170 df 00 27 be 96 b4 bb bc 72 5d cc 3c 15 f3 5f 3d
       -0.16308926 -0.022913259 0.024946902 0.05467518
000180 18 25 21 be 21 e0 be bd d5 8b 01 be b6 32 01 be
       -0.15736806 -0.09320093 -0.12650998 -0.12617001
000190 7b 64 d8 bd eb 06 a9 3c 8b 21 05 bc 94 32 a5 be
       -0.1056604 0.020633182 -0.008125673 -0.3226515
0001a0 79 f4 c9 bd 4c b2 e2 bd aa c1 30 3d a8 f7 03 be
       -0.098610826 -0.11069164 0.043153442 -0.12887442
0001b0 6c 58 24 be 9b 7a 06 be 6f 4a 57 bd 2b e7 5b be
       -0.16049355 -0.13132708 -0.05256122 -0.21474902
0001c0 97 69 98 bd 77 1d 62 be 2f 50 e6 bd 85 27 83 bb
       -0.07442015 -0.22081552 -0.112457626 -0.004002514
0001d0 f4 bd 4e be a0 98 9f 3d 00 57 47 bd e7 3a 9d bd
       -0.20189649 0.07792783 -0.048666954 -0.0767725
0001e0 8d 6f 64 bd 7d 23 64 be 00 fb ce 3d 7c 7b d6 bd
       -0.055770446 -0.22279163 0.10106468 -0.104727715
0001f0 b6 28 af bd 8b 5c d5 bd 67 9a c8 bd c8 8d 42 be
       -0.08552687 -0.10418042 -0.09795075 -0.18999398

weight_ih_l1 f4 [128, 32]
000000 f9 2c 49 3e aa bd bf 3d 6b 33 93 be 1e 84 54 bd
       0.19646062 0.093623474 -0.28750166 -0.05188381
000010 69 50 7b be 16 82 07 bd 9b 7d 61 be 9a fd ca 3d
       -0.24542393 -0.033083044 -0.22020571 0.09911652
000020 44 fa 6c 3c 1c 07 3e 3e 85 ca a4 3d ea 60 27 be
       0.014463965 0.185574 0.0804644 -0.16345564
000030 a4 ab 91 bc 36 6b 22 be a6 40 ab bd 38 b4 e7 3d
       -0.01778204 -0.1586121 -0.0836194 0.11313671
000040 b9 0f 48 bc 58 de 17 3b c2 48 d7 bd e7 10 39 be
       -0.01221078 0.0023173299 -0.10511924 -0.18072854
000050 8c dd 87 be dd 47 bb 3d b4 2e 5e bc 2a 23 15 be
       -0.26536214 0.09144566 -0.01356094 -0.14564195
000060 20 da 33 3d ec 29 9c 3d 6f 02 ee bc 87 84 40 3d
       0.043909192 0.076251835 -0.029053895 0.047001388
000070 e9 ab c2 bd 01 4b 81 bd 53 b3 30 3d 61 d0 24 3e
       -0.095054455 -0.06313134 0.043139767 0.16095115
000080 d1 d4 94 3d 04 81 17 3e 34 76 8a bd 28 3f 18 bd
       0.07267154 0.1479531 -0.06760827 -0.037169605
000090 84 fd e4 ba d2 26 a0 3c 16 31 a4 bc d3 23 7f be
       -0.0017470573 0.019549761 -0.020042937 -0.2491601
0000a0 ee a3 a6 bc 23 5e da 3d 14 53 19 3d 4e be 31 3b
       -0.02034184 0.106624864 0.037432745 0.0027121487
0000b0 d7 67 8b 3b 97 4b 63 3c ee 87 03 be c2 12 6d 3b
       0.004254322 0.0138730025 -0.12844822 0.003617451
0000c0 84 09 09 be 78 8e 22 be c7 17 9e bd 66 0d e6 bd
       -0.13382536 -0.1587466 -0.07719379 -0.11233024
0000d0 f6 d4 78 be f8 e6 ab be b6 6c 4c 3e 5a 45 bb bd
       -0.24299988 -0.33574653 0.19963345 -0.09144087
0000e0 2b 87 17 3e c1 5c 3d 3e b2 2c 04 be 61 f5 65 3d
       0.14797656 0.18492414 -0.12907675 0.056142215
0000f0 76 18 64 be 33 fd 0f 3e 7c 95 9c bd 3a 04 0d 3d
       -0.22274956 0.14061432 -0.076456994 0.03442786
000100 04 da 18 3e e8 b2 23 3e fe 42 c3 3d 16 b8 a5 3b
       0.14926916 0.15986216 0.09534262 0.005057345
000110 cd 8f 11 bd 37 b6 af 3d 90 3b e2 bd 32 26 9d bd
       -0.03553753 0.085796766 -0.11046517 -0.07673301
000120 a1 e3 d6 3c 07 b6 18 bd a6 79 ed 3d 95 e4 cc bd
       0.026231589 -0.03728297 0.11595468 -0.10004536
000130 50 6c 44 3d d4 2f 53 be 5e d5 93 3d d9 48 24 3e
       0.047954857 -0.20623714 0.07218431 0.16043414
000140 90 db 45 be da d0 6c 3d cc 3f 90 bd c8 00 b1 bc
       -0.19322038 0.057816364 -0.07043418 -0.021606818
000150 ed 95 dd ba 49 29 18 be 50 ce 45 3d 17 b1 04 be
       -0.0016905643 -0.14859499 0.048292458 -0.1295818
000160 a6 4f f1 bc 60 7f c9 3d 6c 88 b7 bb 5a 31 0d bd
       -0.029456925 0.09838748 -0.0056009796 -0.034470893
000170 0b 2f c8 3d 30 bd e3 bc 63 d0 41 bd 21 b9 7b ba
       0.09774598 -0.027800173 -0.047317874 -0.00096024765
000180 56 2b 8f 3d 04 c0 43 bd bf 14 88 be cf 69 a6 3c
       0.069906875 -0.047790542 -0.26578328 0.020314125
000190 f6 f9 50 be ff 10 01 3d 80 99 3b be 3a a5 e6 3c
       -0.20407853 0.03151035 -0.18320274 0.028154958
0001a0 3f e5 16 be cb be 90 3d 86 41 41 3d ad db 7f bd
       -0.14735888 0.07067641 0.04718163 -0.06246536
0001b0 2c 65 9e 3e f5 75 39 be e6 9f c9 bd 98 0a d8 3d
       0.30936563 -0.18111403 -0.09844951 0.105488956
0001c0 88 5d 30 be cc 17 fb bd 8c 20 84 be 1b 99 46 be
       -0.1722318 -0.12260398 -0.2580608 -0.19394343
0001d0 53 61 45 be 16 0c ad bc 60 9d 71 3d 0d bb b8 3c
       -0.19275407 -0.021123927 0.058987975 0.02255013
0001e0 a1 73 10 3e 60 63 24 bb ac 11 03 be 98 15 7c bd
       0.14106609 -0.0025083646 -0.1279971 -0.06154403
0001f0 ca 8e 0f 3e b6 bc 95 3d 1c 8d aa bd e4 ff c8 bd
       0.14019313 0.073113844 -0.08327696 -0.09814432
000200 a5 51 3b bd a8 0a bf 3d c8 91 52 3d 09 d2 14 bd
       -0.04573216 0.093282044 0.05140856 -0.036333118
000210 ac 2b a3 3d a5 af 11 be 48 fe 9d bb ec 4b 21 3b
       0.07967314 -0.1422716 -0.0048215725 0.0024611903
000220 56 68 a5 3d 22 13 45 3e 58 26 b2 3d c2 36 17 3d
       0.08076541 0.1924558 0.0869872 0.036917455
000230 c0 50 a1 3e 6f fe 81 3d 52 52 11 be ce 5a 22 3d
       0.3150692 0.063473575 -0.14191559 0.03963738
000240 10 99 ca bd c6 d8 d0 bd 37 3e e8 bd 49 5a bd 3a
       -0.098924756 -0.10197596 -0.113399915 0.0014446463
000250 32 ee a7 bd 33 94 0d 3c 19 6e 5a 3e 56 b1 1a 3c
       -0.08199729 0.0086412905 0.21331061 0.009441694
000260 b1 3a ab 3d 26 28 0b bc 52 39 36 3d bb db 90 3b
       0.08360804 -0.008493459 0.04448826 0.004420725
000270 c0 aa 15 3e 94 ef 5f 3e 8b 42 be 3d 95 12 ec bd
       0.14615917 0.21868736 0.09290036 -0.11526982
000280 de be a5 39 b7 bf d5 3d 97 80 44 be e9 d8 39 be
       0.0003161346 0.10436957 -0.19189678 -0.18149151
000290 7a b3 82 be 18 19 53 3e f0 d6 21 bd ae 71 c6 bd
       -0.25527555 0.20615041 -0.03951162 -0.096896514
0002a0 47 c0 8c 3e ba e6 77 3c 5f 53 89 3e 04 82 fe bc
       0.27490446 0.015130693 0.2682142 -0.031067856
0002b0 03 53 88 3e 26 5c 85 be 79 e1 5b be e4 c9 55 be
       0.26625833 -0.26046866 -0.2147273 -0.20877796
0002c0 5f 1b 94 be 2d 94 9a bc 6a a4 7a be df 2d b2 3d
       -0.28927132 -0.018869484 -0.24476781 0.087001555
0002d0 b7 27 22 bb 12 3c fe bd b8 7c 0d 3e bd 67 b9 3d
       -0.002474291 -0.12413801 0.13817108 0.0905299
0002e0 c8 43 c7 3d 24 af ae 3e aa b0 e5 bd 61 a4 1c 3e
       0.09729725 0.34117997 -0.112153366 0.1529708
0002f0 98 bf 82 3c c8 a4 4d bc 48 23 4e bd 4e 4d d7 bc
       0.0159605 -0.012551494 -0.050326616 -0.026281979
000300 70 aa 63 3e 03 9a 0d 3c 2d 69 28 be d2 01 ac bd
       0.22232985 0.008642676 -0.16446371 -0.08398785
000310 52 11 ef bd 61 5f 23 3e 68 36 76 be 0b 66 f6 bd
       -0.116732255 0.15954353 -0.24044192 -0.12031182
000320 fc 8f 10 bd 88 10 11 3e 4f fd 84 3e 46 80 48 be
       -0.035293564 0.14166462 0.2597451 -0.19580182
000330 8f a6 7a 3e 26 e4 ba be 83 19 83 bd dc 1c b1 3c
       0.244776 -0.36502188 -0.0640135 0.021620207
000340 96 b5 ed bd c3 cb e1 3c 14 8c 61 be b0 a6 9e bd
       -0.116069004 0.027562981 -0.22026092 -0.07746637
000350 11 7d 2b be f2 97 fc 3d 6a 37 82 3d a5 ea c9 bd
       -0.16746928 0.12333669 0.06358226 -0.09859208
000360 a2 06 3a 3e da 68 2e 3e c4 67 cc be 61 fb a3 3e
       0.18166593 0.17032185 -0.39922917 0.32027724
000370 15 92 1f be 8f 79 51 bd b4 35 47 be aa 53 56 bc
       -0.1558307 -0.051141318 -0.1945408 -0.0130814705
000380 f6 d3 b5 3d 34 24 ae 3d fb cb 2a bd 8b f6 38 be
       0.08878319 0.08502999 -0.041698437 -0.18062799
000390 20 0c 86 3c 99 74 11 3e 38 26 82 be f5 31 9f bd
       0.016363204 0.14204635 -0.25419784 -0.077732004
0003a0 28 3a 18 be 84 e7 0a bd 4a 44 ba 3e 57 cb 25 be
       -0.14865935 -0.033912197 0.36380225 -0.16190849
0003b0 ae eb 82 3e 87 ce ba bd 1e 71 46 bd 4b 24 2d bc
       0.25570434 -0.09121423 -0.04844772 -0.010567735
0003c0 56 bd 1c be e0 2f e0 3d 94 64 54 be 58 42 aa bd
       -0.15306601 0.109466314 -0.20741493 -0.08313435
0003d0 ec ee 58 be 94 2b ed bc 8e e7 6c bc 6c b0 8e be
       -0.21184891 -0.028951444 -0.014459504 -0.27868974
0003e0 ce eb 76 3c 42 b1 b2 3d e6 f8 96 be 30 b7 65 3d
       0.015070869 0.087252155 -0.2948677 0.056082904
0003f0 22 7e 84 be bf 58 4d 3d 64 1a 4c be 31 de d2 3c
       -0.25877482 0.050133463 -0.19931942 0.025740715

weight_hh_l1 f4 [128, 32]
000000 a1 3b e3 bc 3c 89 0d 3e 5c 95 e8 3d 9e c1 46 be
       -0.027738394 0.13821882 0.11356613 -0.19409797
000010 86 18 a4 bb e6 d1 8b 3e 55 bc 11 3e 45 0b 97 3d
       -0.0050078062 0.27308577 0.14231999 0.07375196
000020 9b 68 d4 bd 31 0f 47 3d 2f 3e eb 3d d2 0d b5 bd
       -0.103715144 0.048598472 0.1148647 -0.08840527
000030 38 9d 3b bd 47 36 04 3d 82 61 51 3e ab ba 1f 3e
       -0.045804232 0.032278325 0.20447353 0.15598552
000040 98 07 9a bd 1b fa 26 be 07 c7 9c bd a8 51 1c 3e
       -0.0752098 -0.16306345 -0.07655149 0.15265524
000050 e7 e0 75 3e 88 e9 d6 bd 64 02 d9 3c 25 83 22 3e
       0.24011575 -0.10493761 0.026490398 0.1587034
000060 0d 1f 82 bd 8f 95 1b bd d2 88 25 3e 10 21 3e 3e
       -0.06353579 -0.037984427 0.16165474 0.185673
000070 79 09 27 3e e7 19 6c 3e 5f b2 48 be 6c b9 80 3e
       0.16312207 0.23056756 -0.19599293 0.25141466
000080 ba 18 4f bc 7c 31 d4 3d da 64 5d 3e 89 ec 7c be
       -0.012640173 0.10361001 0.21620503 -0.24699606
000090 fa fb 9b 3e ca 50 42 3e 76 8f bf bc a6 72 15 be
       0.3046568 0.18976131 -0.023383837 -0.14594516
0000a0 25 cb 2b be d8 b3 74 3e d2 fa 01 3e 6a 1a 88 be
       -0.16776712 0.2389673 0.12693337 -0.26582652
0000b0 6a a8 9f 3e cf 1f 4c 3e a1 00 e6 3c ff 47 a7 3d
       0.31183177 0.19934009 0.028076472 0.08168029
0000c0 c0 d9 8a 3d b7 02 47 bd 5c 0b 4a be 98 77 2d 3e
       0.06779814 -0.048586573 -0.19730896 0.16940153
0000d0 e7 19 4d 3d 25 21 35 be 00 3a df 3d 40 c0 af 3c
       0.05007353 -0.17688425 0.108997345 0.021453977
0000e0 67 64 13 bd af 3e 2c bc 8f c1 b7 3e 56 92 b6 3e
       -0.035984423 -0.010512992 0.3588986 0.3565852
0000f0 47 df c5 3d bd ef bc 3e 59 32 a9 3c c4 a2 70 bd
       0.096617274 0.36901656 0.02065389 -0.058748975
000100 63 31 88 3e 73 93 ab bc 23 1d 4e bd ee 66 4c be
       0.2660018 -0.020944333 -0.050320756 -0.1996114
000110 36 34 9f 3e 81 8b 8f bd b9 96 0f 3e 10 f2 bc bc
       0.3109452 -0.0700903 0.1402234 -0.023064643
000120 e1 91 9d bd 14 4f 76 bd 05 09 83 3e ee 03 88 bd
       -0.0769384 -0.06013401 0.2559282 -0.066413745
000130 d2 b1 6d 3e 45 95 30 3d 1f 3e e3 3d 19 bf 37 3e
       0.23212364 0.043111105 0.11095833 0.17943992
000140 c9 d7 43 be 8b 17 31 3d 71 10 4e be 35 8d 8e bd
       -0.19125284 0.043235343 -0.2012346 -0.06960527
000150 c6 c2 15 3e 37 6c 39 be 1f ce 18 bd 63 80 79 3d
       0.14625081 -0.18107687 -0.037305947 0.060913455
000160 9e 82 bc bd 33 b8 cc 3d f7 67 c8 3d f6 3e 58 3e
       -0.09204601 0.09996071 0.09785455 0.21117768
000170 87 49 bd bd ea 5f b9 3d 78 02 ee 3d 14 d8 4f 3e
       -0.0924254 0.09051497 0.116215646 0.20297271
000180 29 c2 4a 3e 4d a6 03 3e 31 e9 66 3c 12 e7 69 bd
       0.19800629 0.12856407 0.014093683 -0.05710513
000190 99 0b 06 be 64 1d 30 3e 5f 85 ef 3d fb c7 1c 3d
       -0.13090362 0.17198712 0.116953604 0.038276654
0001a0 55 1e 27 3e 8b 9a 45 bd 87 f3 13 3d 0b 10 58 3d
       0.16320165 -0.048243087 0.036120918 0.052749675
0001b0 43 4e 82 3d f7 ae 9c 3d 29 90 fe 3d 06 36 df 3d
       0.063625835 0.076505594 0.1242984 0.10898976
0001c0 bb 76 20 3d 8d fe 45 bd c6 cb 33 3e 99 e3 76 bc
       0.03917573 -0.04833846 0.17558202 -0.015068912
0001d0 48 6a 69 3e a4 0a df bd 99 70 77 3e 52 f5 8e 3d
       0.2279445 -0.108907014 0.24164046 0.06980385
0001e0 61 93 54 3d 82 c7 f2 3d 23 2d 91 bd ee ac 37 3e
       0.051898364 0.11854459 -0.07088687 0.17937061
0001f0 51 88 31 3c 14 f2 a5 bd d1 33 11 be 51 bb cf 3d
       0.010835723 -0.08102813 -0.14179923 0.1014315
000200 63 6a f2 bd c7 2e 39 be 64 72 08 3e 3d 22 23 be
       -0.11836698 -0.1808425 0.13324887 -0.1593103
000210 57 d4 36 be 0f f9 14 3e 02 e0 07 3e d8 70 95 3d
       -0.17854439 0.14548133 0.13269046 0.07296914
000220 0d f9 e3 3d 5c cf 16 3e 69 23 01 bd 46 6b ab 3c
       0.11131487 0.14727539 -0.03152791 0.020925175
000230 c4 f0 0b 3e 73 db fb bd 99 7f 89 bd ba 70 ac 3c
       0.13666064 -0.12297716 -0.067137904 0.021049846
000240 d9 87 a7 3d 2a 7d 96 bd 8a 12 b8 bd a3 10 3b 3d
       0.08180208 -0.07348092 -0.08987911 0.045670163
000250 d2 ee ac 3c 94 74 ed bd 4c 8c 87 3b d3 2d bd 3d
       0.021109972 -0.11594501 0.0041365977 0.09237256
000260 3b d9 1f be a3 7a e4 bd 26 8e 68 bd 66 61 38 3e
       -0.1561021 -0.111562036 -0.05677619 0.18005905
000270 ef db b9 3d a2 b8 c8 3d ef 1b da bd 22 2a f5 3d
       0.09075152 0.09800841 -0.10649859 0.11970927
000280 54 40 d5 3d e5 93 31 3d a6 fa b5 3d 03 5e c1 bd
       0.1041266 0.043353934 0.08885698 -0.094417594
000290 c5 5d 2f 3e 98 52 ce 3c b1 86 05 3e 37 26 c8 3c
       0.17125614 0.025185868 0.13039662 0.024432285
0002a0 f3 d8 46 bd 39 f0 26 3c ea f8 86 3e b3 6b 60 bd
       -0.048546743 0.0101891095 0.2636178 -0.05479021
0002b0 19 f7 52 3e 30 4c 67 bc 41 02 b5 3d 0d b8 cb 3d
       0.20602073 -0.014117286 0.088383205 0.09947214
0002c0 cc 48 f6 bc 25 b0 f9 bd cc 6e 6d be cc d2 3b 3d
       -0.03006401 -0.121918 -0.23186797 0.04585533
0002d0 d9 01 d3 3d bc e9 14 be 73 20 95 3e 83 e1 64 3d
       0.10303087 -0.14542288 0.2912632 0.055879127
0002e0 ee a1 86 be 30 0e af 3d 2b f8 df 3d 4e f9 9e 3e
       -0.26295418 0.08547628 0.10936006 0.3104958
0002f0 a9 95 1b 3d f1 8b 3c 3e 2f 38 9b bd f6 9a d4 3d
       0.037984524 0.18412758 -0.075790755 0.10381119
000300 f3 24 1a 3e 48 6a 85 3e 9d 55 9f 3d dc 81 53 3d
       0.15053158 0.2605765 0.07780001 0.051637515
000310 d2 aa 6c bd 14 4f 4b 3d 32 68 e6 3d b6 73 c4 3c
       -0.057780094 0.04963596 0.112503424 0.023980957
000320 68 fc 42 be 1a 07 8a 3e 97 78 00 3e 80 02 44 be
       -0.19041598 0.26958543 0.12546001 -0.19141579
000330 03 5b 88 3e 68 a2 30 be ab 59 63 3e 35 d7 a3 3e
       0.26631936 -0.17249453 0.22202174 0.32000127
000340 de c7 53 3d d6 4c 5e be 27 38 46 be ce e4 3e 3d
       0.05170428 -0.21708998 -0.19357358 0.046604924
000350 7b 0f 7e 3e 14 b4 9d bd e7 9b de bd a7 3b fb 3d
       0.24810593 -0.07700363 -0.1086958 0.12267237
000360 62 07 5d be 7d b2 43 bd 8d 5b b4 bc e1 8a a2 3e
       -0.21584848 -0.04777764 -0.022016311 0.3174658
000370 7c ad ad bd f5 6a 01 3e 9b 85 02 3d ac 9b 5c bd
       -0.08480355 0.12638457 0.031865697 -0.053859398
000380 21 e5 5a 3e b8 52 57 3d 35 67 a5 bd a2 ee f6 bd
       0.21376468 0.05256912 -0.08076326 -0.12057234
000390 5f 36 ee 3e 50 76 0f 3e 80 70 12 3d d3 5c f3 3d
       0.46525857 0.14009976 0.03575182 0.11882939
0003a0 75 5d c9 bd f6 3b 6f 3e 2e 8c 8c 3d 39 6d 9b bb
       -0.09832279 0.23362717 0.06862675 -0.004743245
0003b0 00 4d ab 3e 60 66 eb 3d 36 bf cd 3d cd 74 ac 3c
       0.33457184 0.11494136 0.10046236 0.021051789
0003c0 a7 c9 18 3d 50 59 e8 bd 9e 5e 0a be e6 ce 88 3d
       0.037301686 -0.1134516 -0.13512656 0.06680088
0003d0 e0 63 10 3e 64 ee fe be 0c 15 19 3d 17 e2 a5 3d
       0.141006 -0.49791253 0.037373587 0.08099764
0003e0 39 d3 77 3d 88 94 84 bd 9c 91 ae 3e 85 b6 52 3e
       0.060504172 -0.064736426 0.34095466 0.20577438
0003f0 70 47 39 3e 53 43 86 3e 02 1c af bd 42 3e 32 bb
       0.18093657 0.2622324 -0.08550264 -0.0027197753

bias_ih_l1 f4 [128]
000000 b2 a7 8f bd 26 b0 8f be fd 03 6f be 65 29 79 be
       -0.07014407 -0.28064078 -0.23341365 -0.24332197
000010 5b 25 b5 bb b7 fb e3 be 34 e6 93 be d5 3b ce be
       -0.0055281348 -0.4452798 -0.2888657 -0.40280023
000020 6a 66 61 be 06 e6 55 be bf 53 d6 bd 42 fc ba be
       -0.22011724 -0.20888528 -0.10465192 -0.36520582
000030 71 2c 3f be 55 d4 24 be d5 ae 24 3d 52 31 23 be
       -0.18669297 -0.16096623 0.040205795 -0.15936783
000040 90 52 56 be 3d d1 de bd 11 84 0d be 81 21 d2 bc
       -0.20929933 -0.10879753 -0.1381991 -0.025650742
000050 c7 91 40 bd 3b b0 0e be 41 ae 8a be dc f5 c0 be
       -0.047014024 -0.13934414 -0.2708607 -0.37687576
000060 5f 83 38 bc e9 9e ba be af 2a 83 3c e3 85 42 bc
       -0.01126179 -0.36449364 0.016011564 -0.011872741
000070 5b 44 da be 26 78 82 bd 22 55 14 be 57 5c 39 be
       -0.42630276 -0.06370573 -0.144856 -0.18101631
000080 f4 b8 d7 bd da 07 8f be 14 54 9e 3d 3c fc 4e be
       -0.10533324 -0.27935678 0.077308804 -0.20213407
000090 91 55 0c be 10 9b d2 be 00 57 6c be 7d 07 c0 bd
       -0.13704516 -0.41133928 -0.23080063 -0.09376428
0000a0 47 5a cc bd 80 6d 3e bd 2f 6e e8 3c aa 5e 16 be
       -0.099781565 -0.046491146 0.028372852 -0.14684549
0000b0 d1 ff d9 bd 8c 4c ab be 84 b8 11 3c 67 50 23 be
       -0.10644496 -0.33456838 0.00889409 -0.1594864
0000c0 3b a3 d1 bc 1e 7b c6 bd 49 40 33 be d1 1a 1c 3d
       -0.02559053 -0.096914515 -0.17504992 0.03811151
0000d0 da b5 73 be 18 e8 c8 bb ee 05 ba be 42 b0 d8 be
       -0.2379984 -0.0061311834 -0.3633265 -0.42321974
0000e0 6a 35 4d be 71 54 4f be b4 55 bc bd d4 61 78 be
       -0.20039907 -0.20247056 -0.09196034 -0.24256068
0000f0 50 56 b7 be d9 fb 3a bd 1e 6a 57 be ed 70 4d be
       -0.3580804 -0.045650337 -0.21036574 -0.20062609
000100 a9 2c bf bc 77 2f 9e bc 2f 8c 23 be 81 e5 ac bc
       -0.023336725 -0.019309742 -0.15971445 -0.02110553
000110 cf cc b0 bd bf 93 8c bd de 4c d0 bb 7b 26 33 3e
       -0.08632814 -0.06864118 -0.0063568195 0.17495148
000120 25 37 f8 bc e2 20 1a be 41 f7 d1 bd ff 4b 80 3c
       -0.030299732 -0.15051606 -0.10252238 0.015661238
000130 6a 18 68 bd 49 19 18 bd 7f de 7a be 73 9c 3d be
       -0.056663908 -0.03713349 -0.24498938 -0.18516712
000140 40 a9 b6 bd 4e fa ed 3d 01 cd cc 3d 24 b1 9a bd
       -0.089190006 0.116200075 0.10000039 -0.07553318
000150 5c 84 dd bd a9 2c ce 3d ff 70 82 bd 6d 8a f9 bd
       -0.10816261 0.10067112 -0.063692085 -0.12184606
000160 c9 ba d3 ba f2 46 c9 bc cd d1 05 bd ab 65 57 3a
       -0.0016153689 -0.024569962 -0.032670785 0.0008216749
000170 87 40 c6 bd 76 4a 0c 3d c1 d9 43 3e e9 7d 2f bd
       -0.09680276 0.0342507 0.19126035 -0.042844687
000180 db 07 88 bd 40 33 59 be d3 e5 f0 bd f8 bb 8b bd
       -0.06642123 -0.21210957 -0.117625855 -0.068229616
000190 77 af a1 3b d4 3d 01 bf ae 54 b7 be 07 d5 c8 be
       0.004934247 -0.5048497 -0.35806793 -0.39225027
0001a0 43 c6 b7 be be de 62 be 9b 75 1c be 14 65 a4 be
       -0.3589345 -0.22155282 -0.15279238 -0.32108366
0001b0 b1 5d 37 3d 83 47 47 be ac 4d 21 be 05 d3 bb bd
       0.044767085 -0.19460873 -0.15752286 -0.09171108
0001c0 2b bf 7b be b9 bb 85 be 3c 39 1c bd c8 1a 70 bd
       -0.24584644 -0.26119784 -0.03814052 -0.05861929
0001d0 f4 b8 75 be b8 06 3e be 9d ed bf be 72 1b f1 be
       -0.23996335 -0.1855725 -0.37485972 -0.47091252
0001e0 65 23 16 be db 5c 60 be 51 21 f9 3b f4 93 ca bd
       -0.1466194 -0.21910422 0.0076028486 -0.09891501
0001f0 25 89 b1 be 60 83 36 be 55 73 b0 be dd 12 9c bd
       -0.34674945 -0.17823553 -0.3446299 -0.076207854

bias_hh_l1 f4 [128]
000000 05 1e 2a be 52 02 22 bd 25 9c 68 be 54 49 97 be
       -0.16613014 -0.039552994 -0.22715814 -0.29548132
000010 08 c0 03 be 92 da fa be 0a bf 84 be d4 50 97 be
       -0.12866223 -0.4899488 -0.25927 -0.29553854
000020 b2 6c a1 be 3e ca 51 be 5a 1b e4 bd 83 65 9f be
       -0.3152824 -0.20487306 -0.111380294 -0.31132135
000030 a9 d0 f6 bd dc f4 59 be e3 04 15 bd 9e 0d 6f be
       -0.120515175 -0.21284813 -0.036381613 -0.23345038
000040 02 88 6c be 38 c5 96 be c8 e4 36 be ce c6 0a be
       -0.23098758 -0.2944734 -0.1786071 -0.135524
000050 0a e1 49 bd 3b 47 09 be 39 b3 ed bd d1 89 71 be
       -0.04928688 -0.13406079 -0.1160645 -0.23587729
000060 da c9 8f be 7f d0 bf be 14 4f c9 3d 78 4a 0e 3c
       -0.28083688 -0.37463757 0.09829536 0.008684747
000070 9d 1d d1 be c2 61 02 bd 7d e9 a7 be 58 32 c1 bc
       -0.40842906 -0.03183151 -0.32795325 -0.023583576
000080 13 bc 93 be 12 1d 47 be fc c7 9b 3c a8 88 8a be
       -0.28854427 -0.19444683 0.019016258 -0.27057385
000090 5f 2e 48 3d 15 22 e7 be 15 51 ca be 33 19 87 be
       0.048872348 -0.4514319 -0.39514986 -0.26386413
0000a0 1c 89 d8 bc 25 12 06 be c2 79 9f be c0 85 02 be
       -0.026432566 -0.13092859 -0.3114758 -0.12746334
0000b0 3d a5 37 be a9 65 77 be 56 76 5c 3d 11 1d 23 be
       -0.17934127 -0.24159874 0.05382379 -0.15929057
0000c0 de 88 6f bd 0a f7 e8 bd 65 00 a5 bc fd 46 19 3d
       -0.058480136 -0.11375244 -0.02014179 0.037421215
0000d0 99 c7 4a be 30 ab 0d bd 88 d9 b8 be 37 91 cc be
       -0.19802703 -0.034587085 -0.36103463 -0.3995454
0000e0 d2 5c 54 37 56 c4 52 be 47 f5 e8 bb 8f d8 47 be
       1.2657796e-05 -0.20582709 -0.0071093175 -0.19516204
0000f0 3a 2b 17 be 16 2f 32 be ab 10 67 be 45 e2 50 be
       -0.14762583 -0.17400774 -0.22564952 -0.20398815
000100 43 93 2c bd 2d 1b 0d be 8a 92 db 3c a6 e7 17 3e
       -0.042132627 -0.13779898 0.026803274 0.1483446
000110 dc 96 84 bd 5e 54 8a bd b4 5d 77 bd ad 41 e1 bd
       -0.06474087 -0.06754373 -0.060392097 -0.10998855
000120 ae 65 13 3e b8 25 b9 bd d8 72 24 bc e5 c7 ab bc
       0.14394256 -0.090403974 -0.0100371465 -0.02096934
000130 a0 cf c2 bd 5c 5d 2f 3c 2b f2 0d be 21 b0 1d bc
       -0.095122576 0.010703411 -0.13861911 -0.009624512
000140 13 a6 51 3e db c9 93 3d ab d3 c2 3d 00 e9 14 be
       0.20473509 0.07216235 0.09513029 -0.14542007
000150 b7 49 07 be 6f 94 d7 3d 29 29 b6 bd 41 ad d1 bc
       -0.13211714 0.10526358 -0.088945694 -0.02559531
000160 b1 84 44 3d 72 fd 11 3c 89 e6 14 be 21 ed 67 be
       0.047978107 0.008910524 -0.14541067 -0.22649051
000170 a0 83 02 3b 79 44 81 be a8 81 de bd 36 7d 1e be
       0.001991488 -0.25247553 -0.10864574 -0.15477452
000180 7a 1b 5a be 6d fb 0a be cf 06 32 be 1c 32 51 be
       -0.21299544 -0.13572474 -0.1738541 -0.20429271
000190 23 84 ae 3c e1 f2 73 be 9b 07 f4 be 10 7a c6 be
       0.021303242 -0.2382312 -0.47662053 -0.38765
0001a0 7f 92 c8 bd 26 33 21 3d 01 9d b5 bd df 94 dd be
       -0.09793567 0.03935542 -0.08867837 -0.43277642
0001b0 d7 e7 52 bd 94 5d d1 bd 1d 5c 86 bd ae bf bd 3d
       -0.05149063 -0.10222927 -0.06560538 0.092650756
0001c0 cf a9 f9 ba fa 62 8e be da 67 e1 bd 50 28 82 be
       -0.0019047799 -0.27809888 -0.11006136 -0.2542138
0001d0 9a e0 44 be 11 c7 3a 3d 64 be 0d be f7 28 7b be
       -0.19226304 0.0456 -0.1384216 -0.24527346
0001e0 8c a4 39 be 3e 9a e7 be 1c e6 1f be 08 91 0c bd
       -0.18129176 -0.45234865 -0.15615124 -0.034318
0001f0 93 54 fd be 57 92 5a be 87 c5 53 be 93 d7 1f be
       -0.49478588 -0.21344887 -0.2068082 -0.15609579

weight_ih_l2 f4 [128, 32]
000000 97 7d 6f 3e fb 5d 7d 3d 17 2e 98 3e 00 3e 4a be
       0.23387752 0.061857205 0.29722664 -0.19750214
000010 39 58 df 3d 31 da 99 3d af af 3e 3d 13 3d e5 3c
       0.10905499 0.0751232 0.046554264 0.027983224
000020 45 f4 e9 3c 3b 32 fa bc a9 a4 40 3d 3b 82 e0 bd
       0.02855886 -0.03054153 0.047032032 -0.109623395
000030 50 ed d6 3e 97 e5 d7 3d 50 45 c7 3e 16 c2 fb 3d
       0.4197793 0.10541838 0.3892007 0.12292878
000040 1a bf 98 bd f9 41 d6 be 4a bd 95 bd 89 59 05 3e
       -0.07458325 -0.41847208 -0.07311495 0.13022436
000050 de c5 e9 3d db d3 5b be b9 d5 8d 3e 5d 7e bf 3e
       0.11414693 -0.21467535 0.2770212 0.37401095
000060 4b 6b 80 be cc 41 88 be e2 7b e8 3e c1 04 7c 3e
       -0.25081858 -0.266127 0.45407015 0.24611188
000070 83 84 7f bd 1b 12 fb 3e 16 53 1f be 27 93 a5 3e
       -0.062382232 0.4903725 -0.15559039 0.3233883
000080 81 ca 26 bc 36 8a 6c 3b 29 13 2b 3e 65 b8 36 bd
       -0.010180117 0.0036093122 0.16706528 -0.044609446
000090 ee df a3 bd a7 af 00 3c 6f 1b 28 3d 6f 9d d7 bd
       -0.080016956 0.007854379 0.041041788 -0.10528075
0000a0 38 40 2c bc 96 bd eb 3e f9 d8 e4 3d 5d 11 5d bb
       -0.010513358 0.4604308 0.11174197 -0.0033732273
0000b0 bd 6f e0 3d 36 88 d9 bd 30 f5 a8 3d c6 d9 d0 3e
       0.109588124 -0.10621683 0.08249891 0.40791148
0000c0 69 0a 06 be 04 a7 82 be 63 15 70 bc 7b 9c cd 3e
       -0.13089909 -0.25518048 -0.0146535365 0.40158448
0000d0 e6 e6 6c 3d 58 9c 15 3d 5c 56 44 3e f7 2c 19 3e
       0.05783739 0.036526054 0.19173568 0.14958559
0000e0 c1 f6 9f be bb a2 04 3e 35 de 1d 3e 44 2d e5 3d
       -0.31242946 0.12952702 0.15416797 0.11190274
0000f0 f1 14 1b be 10 68 5e 3e 4e de 84 be c1 e7 ac 3e
       -0.15144707 0.21719384 -0.25950855 0.33770564
000100 47 c4 21 3d 30 ed d7 3d 0d 57 84 3e 0f a8 30 be
       0.039493825 0.10543287 0.25847664 -0.1725161
000110 ee 2f 98 3d b1 cc d4 3d 80 cf 6a bd a5 9e 30 be
       0.07431017 0.10390604 -0.057326794 -0.17248018
000120 c7 db 03 3e 34 f4 a5 3e ee f4 3d 3e dc a1 d9 3c
       0.12876807 0.32412875 0.18550465 0.026566438
000130 38 fd 12 3e 60 65 37 3e 46 b7 a3 3e df 9f 74 3e
       0.14354408 0.17909765 0.31975764 0.23889111
000140 55 f1 c0 be fd 31 f1 bd 39 ec ba bd 6a b8 3c 3e
       -0.37684122 -0.11777113 -0.09127087 0.18429723
000150 86 c2 bf 3d 26 5e 82 be a5 f0 89 3e d7 62 49 3e
       0.09363274 -0.25462455 0.2694141 0.1966661
000160 70 e0 be be 54 c1 10 3d e0 2d 6c 3e 44 db 5f 3c
       -0.37280607 0.035340622 0.23064375 0.013663117
000170 b1 43 81 bc c7 ed 58 3e de ea c5 be f0 29 b0 3d
       -0.015779348 0.21184455 -0.38655752 0.08601749
000180 76 67 43 3d b5 fe 07 3e a0 58 5e 3e 84 11 eb bd
       0.04770609 0.13280757 0.21713495 -0.1147795
000190 40 17 ea 3e 73 05 cd 3d b8 a9 27 bd 40 e0 d0 3d
       0.45720863 0.10010805 -0.04093334 0.10199022
0001a0 84 92 72 bd b5 2b a3 3d 19 19 09 3e 2b 3b 3f be
       -0.05922176 0.07967321 0.1338848 -0.18674915
0001b0 77 f9 15 3f bd 03 9e 3e 1f 12 f5 3e 17 8b 43 3e
       0.5858378 0.30862227 0.47865388 0.19096027
0001c0 08 d5 66 be 08 88 fd bd dc 98 5f bd cd 67 1e 3d
       -0.22542202 -0.123794615 -0.054589137 0.03867321
0001d0 9c 9b 9f 3c 49 40 07 bf 06 32 6d 3d 98 63 8c 3e
       0.01948338 -0.52832466 0.057909034 0.27419734
0001e0 f4 e3 67 3d 59 70 32 be d1 4b ed 3e 90 0e ea 3e
       0.056613877 -0.1742567 0.46346906 0.45714235
0001f0 c6 ab 52 bc 03 8d 18 3f 88 6c d2 bd 5a 51 80 3e
       -0.012858337 0.59590167 -0.10274607 0.25062066
000200 c1 5f 22 3e f6 11 e3 3d 92 eb 51 3e 65 f6 c0 be
       0.1585684 0.1108741 0.20500019 -0.37687984
000210 c6 d6 0f 3f c9 69 45 3e 2f 32 e3 bc ff 1a 90 3c
       0.56187093 0.19278635 -0.02773389 0.017590998
000220 da 56 56 3e 42 66 86 bc 46 b1 55 3e 7f 56 a5 be
       0.20931569 -0.016406182 0.20868406 -0.32292554
000230 1d d8 21 3f d5 03 a0 3e 78 66 08 3f d6 d0 4f 3e
       0.6322039 0.31252924 0.53281355 0.20294508
000240 66 5f 24 be 01 ee f1 be 74 c4 5e be 76 e3 a8 3e
       -0.16052017 -0.47251895 -0.21754628 0.3298604
000250 55 0a fd 3d 30 d1 00 bf ad 62 e6 3c e7 4f 1a 3e
       0.12355486 -0.50319195 0.028123224 0.15069543
000260 e6 0a 38 bd 50 46 ee be 49 ea 09 3f d1 fe 1d 3f
       -0.04493227 -0.4653802 0.53873116 0.61716944
000270 ce e3 b3 3e 98 dc ad 3e 97 d8 17 be da 74 cc 3e
       0.3513474 0.33957362 -0.14828716 0.399329
000280 18 be 8d 3e da ce 97 3d 73 05 a2 3e f2 4e ae bd
       0.27684093 0.07412501 0.31644782 -0.085111514
000290 22 bb 6b 3e f0 08 5a 3e d8 c7 b7 be 03 7e 64 bd
       0.23020604 0.21292472 -0.35894656 -0.055784237
0002a0 6e 14 87 3e 97 d0 6d 3e 16 f5 dd 3e 07 5b 28 be
       0.26382774 0.23224102 0.43351048 -0.16440974
0002b0 37 39 66 3e 3f 43 b5 ba 08 56 08 3f 0c 01 08 3f
       0.22482763 -0.0013829245 0.53256273 0.531266
0002c0 0d d1 b5 be 60 71 c9 be a6 24 fd bb 95 66 e0 3e
       -0.35511056 -0.3934431 -0.007725316 0.43828264
0002d0 69 4b ea 3e 1c e7 e7 be 16 e5 e8 3e e7 85 89 3e
       0.45760658 -0.4529351 0.4548728 0.26859972
0002e0 7a ca b7 bd 57 ac 4b be 74 67 04 3f 39 2c e9 3e
       -0.08974166 -0.19889961 0.51720357 0.45541552
0002f0 d3 58 f7 3d 90 10 af 3e 91 f6 c0 be f9 a9 f2 3e
       0.12077489 0.34192324 -0.37688115 0.47395304
000300 fd 74 9a 3e d7 b8 04 3c 44 85 00 3e b4 a1 7b be
       0.3016738 0.00810071 0.12550837 -0.24573404
000310 c3 b0 20 3e 68 4c 0e be 81 a3 08 3d ce 49 00 3e
       0.15692429 -0.13896334 0.033359054 0.12528154
000320 b2 8b b5 3d 26 a1 6c 3e af 77 03 3b 78 ed 40 be
       0.088645354 0.23108348 0.002006035 -0.18840587
000330 4c 27 3c 3e 15 83 fa 3d 73 68 3c 3e a7 d2 44 3e
       0.18374366 0.12232033 0.18399219 0.19220982
000340 b8 fe af 3d 80 64 59 be f4 ea 7f bd 91 ae 83 3e
       0.085935056 -0.21229744 -0.062479928 0.2571912
000350 5c c7 4d 3d 35 33 47 be ad 9a 89 3e b7 9a 64 3e
       0.050238952 -0.19453128 0.2687582 0.22324644
000360 0a 21 89 bd 83 6f 88 be ed 13 18 3e 95 3b 8e 3e
       -0.06695755 -0.26647577 0.14851351 0.27779832
000370 3a b0 6e 3d 3f 9c ac 3e 71 1c 2d be 1b 56 6f 3e
       0.05827353 0.33712956 -0.16905381 0.2337269
000380 ef 24 26 3e 87 92 30 3e 1f 88 81 3e a6 c4 d1 be
       0.16225027 0.17243396 0.25299165 -0.40970343
000390 bf 19 d8 3e 53 a9 3d 3e 39 f3 c5 bd dd d7 af 3d
       0.42207143 0.18521623 -0.09665532 0.085860945
0003a0 e1 c4 70 3e bc 8e 62 3e 03 1a 14 3e 0c ec 6a be
       0.23512603 0.22124761 0.14463048 -0.22941607
0003b0 53 36 c7 3e 1e 73 ee 3d ce 17 9b 3e 75 a3 32 3e
       0.38908634 0.116430506 0.302916 0.17445166
0003c0 95 3d 44 be 36 62 eb be a8 f4 70 be e5 e3 60 3e
       -0.19164117 -0.45973366 -0.23530829 0.21961935
0003d0 5a e6 9b 3e ff bf c5 be 70 d3 af 3e 6b a4 9e 3e
       0.30449182 -0.38623044 0.34341002 0.30984816
0003e0 db 20 dd bd 89 0c a1 be 40 25 d6 3e 14 0b e8 3e
       -0.10797282 -0.31454876 0.41825294 0.45320952
0003f0 42 1f 2b 3e c0 c1 b8 3e c2 fe fb bd c6 d7 89 3e
       0.16711143 0.3608532 -0.123044506 0.26922435
