models/UCF101_lstm_angles_model.pth (torch, 301271 bytes, 42 tensors)

weight_ih_l0 f4 [128, 16]
000000 95 ab ea 3d 86 25 07 3c f0 7e f8 3d 6f 31 d3 bd
       0.11458508 0.008248692 0.121335864 -0.10312163
000010 41 a8 a8 3c b6 cb bd 3c 1e 02 42 3d d9 2e f1 bd
       0.020588042 0.023168426 0.0473653 -0.117765136
000020 5a 84 09 be 44 38 82 3c eb dc 6f 3a 41 b0 14 be
       -0.13429394 0.01589597 0.0009150046 -0.1452036
000030 5e c8 f3 bd a6 5f ac 3c 08 ed 1c be d3 79 cc bd
       -0.119034514 0.021041702 -0.15324795 -0.099841736
000040 c2 e0 07 bd a5 f1 9d be d1 b5 e2 bc 84 e5 a6 be
       -0.03317333 -0.30848423 -0.027674587 -0.32596982
000050 ec 30 9b be 64 d7 c7 bc 6f eb 40 be 0e 8a 98 be
       -0.30310762 -0.024394698 -0.18839811 -0.29792827
000060 23 ff ce bd 4c 3d 2f be 99 6e 18 bd ae 00 ac be
       -0.10107257 -0.17113227 -0.03721485 -0.3359427
000070 ff 15 51 bd cd 6e 19 be c4 a2 54 be cf 0b 83 be
       -0.051046368 -0.14983673 -0.20765215 -0.25594947
000080 e6 21 98 3d 7c 78 65 3d 02 70 dc 3d 3c 1d 81 3d
       0.074283406 0.056023106 0.10763551 0.06304404
000090 0b ae 2a 3e 4e 14 a0 3d 80 1e df bb 26 ae e8 3d
       0.16667955 0.07816373 -0.006809056 0.11361341
0000a0 5e f1 88 3d 91 f1 ca bd 7e 02 de 3d 55 4e 24 3e
       0.06686662 -0.099093564 0.10840319 0.16045506
0000b0 e3 8b 21 be 00 a7 e1 3a 00 74 cc bc 90 40 95 bc
       -0.15776019 0.0017215908 -0.024957657 -0.018219262
0000c0 08 6c 40 3e 25 16 0e 3e 49 ae 86 3e bc 46 7e 3e
       0.1879121 0.13875635 0.26304844 0.2483167
0000d0 f4 c6 2a bd 12 9d 2e 3e 25 6c e8 3d 02 7a f7 3c
       -0.041693643 0.17052105 0.11348752 0.030209545
0000e0 d4 aa 34 3e dc 16 1a 3e 1e d7 3e 3e 4d 66 70 3d
       0.17643291 0.15047783 0.18636748 0.05869131
0000f0 8c 95 10 bd 62 03 bf 3d 66 75 a4 bd 7c 69 c7 bc
       -0.03529887 0.09326817 -0.080302045 -0.024342291
000100 8d 5b 18 3e 1a 5c 5c bb d0 dc 14 bc 32 57 cc 3d
       0.14878674 -0.0033624233 -0.009085849 0.09977569
000110 b3 b9 50 3e 05 80 5a 3e 1f 5c 39 3e ac 63 64 3a
       0.20383339 0.21337898 0.18101548 0.0008712362
000120 60 29 b6 3d f7 2d 04 3e 68 d5 50 3e 15 94 64 3e
       0.088946104 0.12908159 0.20393908 0.22322114
000130 ef 32 91 3d 84 30 c2 3d 5e d4 0a 3e 02 a4 f5 3d
       0.07089793 0.0948191 0.13557574 0.11994173
000140 15 80 2e be 77 22 93 bd f8 f6 2f be 6d c3 b7 bd
       -0.17041047 -0.07184308 -0.17184055 -0.089728214
000150 88 71 1e be 4d da ae bc c5 52 20 be 89 c1 70 bc
       -0.15472996 -0.021344328 -0.15656574 -0.01469458
000160 fc e4 84 be 9b 45 81 be 2e 89 57 3c 57 18 57 be
       -0.2595595 -0.25248417 0.013155265 -0.21005379
000170 57 59 90 be dd b0 31 be 8d 41 ca 3c 5c d3 67 be
       -0.2819316 -0.17352624 0.02468946 -0.22639221
000180 13 bd ff bd e8 c6 54 bc 23 58 5f be 32 98 e4 bd
       -0.12487235 -0.012986876 -0.21810965 -0.111618415
000190 ad 7e 4b be 21 b5 d7 bd 65 e9 47 be be 32 b0 bd
       -0.19872542 -0.105325945 -0.19522627 -0.08603428
0001a0 43 2c 0a be d0 e9 02 3c 77 d3 17 be 16 41 e9 bd
       -0.13493447 0.007990316 -0.14826761 -0.11389367
0001b0 b1 10 70 be 98 66 ee 3c e9 c4 7c be a3 6b 59 be
       -0.23443867 0.029101655 -0.2468449 -0.21232466
0001c0 77 15 9c be 88 07 52 be 50 1d 1f bd bc 9b 15 be
       -0.30485126 -0.20510685 -0.038846314 -0.14610189
0001d0 3f ad b5 be 96 e8 67 be 3c a9 36 be 83 e2 f3 bd
       -0.3548374 -0.22647318 -0.17837995 -0.11908438
0001e0 17 ad ec bc c5 b4 49 bd 84 92 63 bd eb fe 1b be
       -0.02889113 -0.04924466 -0.05555965 -0.15233962
0001f0 79 c8 62 be 1d 43 a3 bd ec 58 ab be a0 c2 d6 bc
       -0.22146787 -0.07971785 -0.3346628 -0.026215851
000200 6c de 26 3e f5 97 10 3d b3 62 99 3e 9a 93 35 3d
       0.16295785 0.035301168 0.29958114 0.044330217
000210 48 35 67 3e c4 72 25 bc a6 e7 54 3c bc b2 72 3e
       0.22578919 -0.010098163 0.012994682 0.23700994
000220 2d 3b f8 3d c8 d9 a2 3e c9 f3 a3 3e e1 8f 4e 3e
       0.12120662 0.3180678 0.3202193 0.20172073
000230 50 50 04 3e bc ee 76 3e 67 15 ff 3d 8c eb e3 3d
       0.12921262 0.24114507 0.12455254 0.111289114
000240 24 5c a4 bd 37 c9 0c 3e 35 f8 5c 3d 70 5a a0 3d
       -0.08025387 0.13748632 0.053947646 0.078297496
000250 ee 73 08 3e 58 57 23 3e 45 c5 1b 3e cf 8b fb bd
       0.13325474 0.15951288 0.15211971 -0.12282526
000260 c8 0a 96 bd 88 53 29 bd 4d 35 9d bd 69 bd c3 ba
       -0.07326275 -0.041339427 -0.07676182 -0.0014933768
000270 f5 c4 06 3c 06 dc cf 3d 50 a9 a5 3d c6 cc 28 bd
       0.008225669 0.10149388 0.080889344 -0.041210912
000280 42 34 9f be c0 35 36 bc 5c f0 53 be 0f 85 57 bc
       -0.31094557 -0.011121213 -0.20697159 -0.013154282
000290 c5 a7 ad 3b 3c 63 d8 bd bb 52 7a be 00 ee 90 be
       0.0052995407 -0.105658025 -0.24445622 -0.2830658
0002a0 00 16 47 be 4f 86 21 bd a0 9e e2 bd 7b fb fc bd
       -0.19441986 -0.039434727 -0.110654116 -0.123526536
0002b0 e6 c6 a7 be 2d 84 40 bd 40 6f e3 bd 5b f8 a0 bd
       -0.32768935 -0.047001053 -0.11105204 -0.0785987
0002c0 c0 5c 8e bd e3 5e 2a be f2 c2 99 bc 5f 71 db 3d
       -0.069512844 -0.16637759 -0.018769715 0.10714983
0002d0 dc c9 c1 bc a3 96 12 bc 86 18 31 bd 06 c4 24 3e
       -0.023655824 -0.008947047 -0.043236278 0.16090402
0002e0 31 a1 93 3d b1 a4 e8 bd 95 2c f1 bd 96 b1 e0 3d
       0.07208479 -0.113595374 -0.117760815 0.10971372
0002f0 24 86 88 3d 09 db 2f be 41 cf 19 be f6 97 bb bd
       0.0666621 -0.17173399 -0.15020467 -0.091598436
000300 a8 87 52 3b 5d 81 32 3e b9 3c ad bd 91 17 31 bd
       0.0032124314 0.1743216 -0.084588476 -0.043235365
000310 d6 e0 70 3d dc 97 32 bd 5a a3 18 3e 02 5b d1 3d
       0.05880817 -0.043601856 0.14906064 0.102224365
000320 23 8d 05 3d 56 7b 86 3d 31 1e d4 3d 8c 0a 0d 3e
       0.0326053 0.06566493 0.10357321 0.13773555
000330 b8 94 7b 3e f8 6a b1 3d c9 32 77 3e ab 81 61 3e
       0.2456845 0.08662981 0.24140467 0.2202212
000340 cf aa 84 be 3b ea 61 be 3b 49 d1 bc a7 86 15 be
       -0.25911567 -0.22062008 -0.025547614 -0.14602147
000350 3d 4b 8b be c3 dc 84 be a9 93 88 3b 0a 18 97 bc
       -0.2720584 -0.25949678 0.004167993 -0.01844408
000360 e5 15 83 be a9 f9 79 bd 1e b9 80 be 55 27 1d 3d
       -0.25602642 -0.06102911 -0.25141233 0.038367588
000370 b0 84 89 bd 47 e2 17 3a 95 10 99 be c8 e6 8f be
       -0.06714761 0.0005793911 -0.29895464 -0.2810576
000380 62 d3 09 bd 84 08 d7 bd e0 d2 a6 3d 17 1f 12 3e
       -0.033648856 -0.10499671 0.0814569 0.14269672
000390 40 ad 04 be 8c 34 98 bd f8 ba 4e bd 92 98 06 be
       -0.12956715 -0.074318975 -0.050471276 -0.13144138
0003a0 71 bf af 3d b5 52 0c 3d d4 09 e3 bd 5f 74 51 bc
       0.085814364 0.034258563 -0.11085859 -0.012784093
0003b0 53 99 94 3d 12 43 10 be 3e f4 aa 3d 8e a1 c6 bd
       0.07255807 -0.14088085 0.08347367 -0.09698783
0003c0 aa 80 7e 3e 22 03 32 3e 41 17 72 3c d6 d7 9f bc
       0.24853769 0.17384008 0.014776052 -0.019512098
0003d0 00 e7 48 3e 2c c8 69 3d 79 ad 4d 3e 0c 03 64 bc
       0.1961937 0.057075664 0.20085706 -0.013916742
0003e0 b0 7f 54 be 55 de 5f 3e 81 ce 22 3e 54 b1 4f 3e
       -0.20751834 0.21862157 0.15899087 0.20282489
0003f0 97 19 aa 3d 88 68 b6 bd 0d c3 77 3e 88 0b 75 3e
       0.08305662 -0.089066565 0.241955 0.2393018

weight_hh_l0 f4 [128, 32]
000000 c1 d1 8a bd 92 0f ad bc c0 28 df 3c ca a1 ad 3e
       -0.06778289 -0.021125589 0.02724111 0.33912498
000010 eb 6e 8c bd 03 5c 4d be 6b e8 0b be 6e 18 3d 3e
       -0.068570934 -0.20054631 -0.13662879 0.1846635
000020 cd e1 91 3e 82 d9 bd bd 73 15 8c 3d 31 f6 d7 3c
       0.28492585 -0.09270002 0.068400286 0.02636251
000030 0f aa 13 be 98 f8 b3 bb c6 ff ad be 7b 5c 34 bd
       -0.14420341 -0.005492281 -0.33984202 -0.04403351
000040 e8 d3 34 3e 49 f5 91 3e 53 39 b7 bd bd 8c c4 bd
       0.17658961 0.2850745 -0.089464806 -0.09597156
000050 bf 3e dc 3d b3 30 07 3e eb 81 81 bd 11 9f 7e bd
       0.10754155 0.13202171 -0.06323608 -0.062163416
000060 3f 49 db 3d 53 03 36 be cd 14 68 3d 4a f1 84 bd
       0.1070733 -0.17774706 0.056660462 -0.06491335
000070 09 e2 86 3d 73 be f4 3c d9 e7 26 3e 8c 1f 44 be
       0.065860815 0.02987597 0.1629938 -0.19152659
000080 62 27 74 3d 8c 3f 09 be f9 d7 bd bd 45 c7 ba 3e
       0.05960787 -0.13403147 -0.09269709 0.36480156
000090 a5 89 14 3e 79 18 ff 3d d3 ee 24 be 0f 3c f0 3d
       0.14505632 0.1245584 -0.16106729 0.11730205
0000a0 36 f5 42 3e be 2a a8 be 80 f4 61 be c4 2b 4c 3e
       0.19038853 -0.3284511 -0.22065926 0.1993857
0000b0 ae 01 ca be d5 3f 87 be 34 0f 27 3e 53 c0 de 3e
       -0.39454406 -0.26415887 0.16314393 0.43506107
0000c0 37 8e 3d 3e 43 4b a2 3e ff 49 f4 bc 85 1e e0 bb
       0.18511282 0.31698045 -0.02982044 -0.0068395757
0000d0 78 a6 04 3c 82 51 64 3c a2 42 ea bc 42 93 24 bd
       0.00809633 0.013935449 -0.028596226 -0.0401795
0000e0 17 1b 6a bd 17 7c 45 3c 61 0c 54 3e 9b 4d 98 3e
       -0.05715474 0.012053511 0.20707847 0.29746708
0000f0 a0 f8 95 be 5f 52 68 3e d8 4d 81 3d 85 66 d1 3d
       -0.29291248 0.22687672 0.06313676 0.10224632
000100 ec 36 ac be 2a 76 d7 bd 79 81 39 bc 89 02 63 3e
       -0.33635652 -0.10520585 -0.011322373 0.22168936
000110 9c d3 db be e8 38 54 be 2e 02 53 bd e1 82 74 3e
       -0.42934883 -0.20724833 -0.05151575 0.23878051
000120 29 b2 93 3e d4 38 ca bd 10 11 89 be 01 99 d7 3e
       0.28846863 -0.0987412 -0.2677083 0.4210892
000130 2e 00 19 3e 84 79 2f 3e 79 5f 02 3d 88 ae 88 bd
       0.14941475 0.17136198 0.03182933 -0.06673914
000140 99 dd 73 be 2f 94 c7 bd a6 4a a0 3e 0e 19 66 3d
       -0.23815002 -0.09745061 0.31306952 0.056176238
000150 b8 a6 3f 3e ff 70 73 be 27 dd 92 3e e8 c0 69 3d
       0.18715942 -0.23773573 0.2868435 0.057068735
000160 25 da 1d be c7 74 da be 33 57 4e bd f8 db 1d be
       -0.15415247 -0.4266722 -0.05037613 -0.15415943
000170 c0 83 10 bd 77 bc e3 bd 9a fb 62 be 95 7a d7 bd
       -0.035281897 -0.11119931 -0.22166291 -0.105214275
000180 12 7e 02 be a3 32 6a bc 7c 32 e2 3c be 8a f9 3e
       -0.12743405 -0.014294299 0.027611963 0.48738664
000190 52 f8 26 3e 83 10 45 3a a3 6f 19 3e 8e 73 e3 bd
       0.16305664 0.0007517414 0.14983992 -0.11106025
0001a0 0f b7 20 3e 18 15 4e 3e 6a fa 48 3d 41 b5 8c 3e
       0.15694831 0.20125234 0.04906694 0.27482036
0001b0 1e 3d 57 be 55 ca 69 3c b3 e9 73 3d 03 b3 50 3d
       -0.21019408 0.014269431 0.059549045 0.05095197
0001c0 6b 95 67 3e 32 07 88 3e 7e 1e 76 3d f1 7f 20 be
       0.22615592 0.2656799 0.060087673 -0.15673806
0001d0 a5 89 c8 bd af cd 97 3e 66 22 bb 3d a6 99 11 3d
       -0.097918786 0.29649112 0.0913742 0.03554692
0001e0 42 9e 54 be ff 34 dc 3d ff 8d 1e 3e f6 64 83 3e
       -0.20763496 0.10752296 0.15483855 0.25662965
0001f0 74 93 e1 bd b5 75 6d 3e 2f bb 33 3d 8d d1 fc 3d
       -0.110144526 0.23189433 0.043879684 0.12344656
000200 49 f5 a2 3c 04 5a 99 be 36 24 84 be 25 97 3e 3e
       0.019892352 -0.2995149 -0.25808877 0.18612345
000210 1e ec 57 3e cb d9 7c bd 5c 7e 16 be 80 e5 06 be
       0.21086165 -0.06173114 -0.1469664 -0.13173485
000220 bc 91 67 3d d4 61 05 be 43 c2 d4 bd 6b cc 7c 3d
       0.056535468 -0.130256 -0.10388615 0.061718386
000230 0e ec 45 3d 29 1d dc 3d 32 09 02 bf 03 a2 99 3e
       0.048320822 0.10747749 -0.5079528 0.30006418
000240 b3 c0 69 3e cd 7e 07 3e 21 41 b3 3d fb be 84 be
       0.22827415 0.13231964 0.08752657 -0.25926957
000250 35 2b 33 be 24 ae a6 3d 3c bd 05 3e b8 a7 b1 be
       -0.17496951 0.081386834 0.13060468 -0.34698272
000260 f2 25 f5 3c 8f 76 14 be 98 92 29 be e3 10 68 3e
       0.02992532 -0.14498352 -0.16559827 0.22662692
000270 a1 c1 a1 3d 20 db 4b bd 66 13 61 3e 53 76 6f be
       0.0789826 -0.04976952 0.21980056 -0.23384981
000280 f4 45 22 be 8e 30 c9 be 26 5d 00 be c9 95 07 3f
       -0.15846997 -0.39294857 -0.12535533 0.5296293
000290 7f e4 8b 3e ac dc c1 bd 98 75 5d be 85 3a 4d 3a
       0.27322766 -0.09465918 -0.2162689 0.00078288495
0002a0 79 41 7f 3e e3 82 d3 bc 5e 2b 81 be 4f f7 8a 3e
       0.2492732 -0.025819248 -0.252284 0.27141806
0002b0 dd 3c d4 3d dc d1 76 be e3 de 7b be e0 13 a1 3d
       0.10363171 -0.24103492 -0.24596743 0.07865119
0002c0 5c 94 60 3d 01 e3 85 3d 78 83 62 3d 11 2b 83 be
       0.054828987 0.06537438 0.05530116 -0.25618795
0002d0 48 a1 e0 3c a2 da cc 3d 71 86 92 bd 37 41 13 be
       0.027420655 0.100026384 -0.07154549 -0.14380346
0002e0 2a 72 b7 3e ae e7 6e bd 3c 34 c4 bc 52 8c cf 3c
       0.35829288 -0.058326416 -0.023950689 0.025335465
0002f0 31 69 1a be 30 1f 05 bd 14 7e f1 bb c8 4e d9 bd
       -0.1507919 -0.032500446 -0.007369766 -0.106107295
000300 17 e4 2b be 75 73 21 3e 4c b7 db be 1b 67 18 3f
       -0.16786228 0.157667 -0.42913282 0.59532326
000310 43 d8 68 3e 0d 29 48 be 15 ac c5 3d 98 ed 91 3e
       0.22738747 -0.1954691 0.09651963 0.28501582
000320 3e 41 26 3f e5 c8 c9 be 37 15 db be f1 a5 b3 3e
       0.649433 -0.39411083 -0.42789623 0.3508754
000330 0c 7d 68 bd 77 a2 11 3e 66 97 4d 3c d9 9b 15 3e
       -0.05675988 0.14222132 0.012548303 0.14610232
000340 ed b9 06 bd 57 d9 cc be e3 c8 5e 3e 23 a1 6a 3d
       -0.032892156 -0.40009567 0.2175632 0.05728258
000350 72 bf 36 3d ed 09 5b 3e cc cc 15 3e bf 76 fd bd
       0.04461617 0.21390505 0.14628905 -0.12376165
000360 d2 c4 b9 3d a2 b1 bd 3d 38 3a 40 3e 78 36 84 bc
       0.090707436 0.092623964 0.18772209 -0.016139254
000370 70 d8 62 3d 62 28 c6 3d d9 d5 fd bd 26 6a 59 bd
       0.055382192 0.09675671 -0.12394304 -0.053079747
000380 7f 2e fb bd d1 c0 46 bc a1 4a ab 3d 9d f5 12 3e
       -0.12264728 -0.012130932 0.08363844 0.14351507
000390 6f b4 fd bd 64 82 a2 bc 1d 0a a6 3d 19 14 99 be
       -0.123879306 -0.019837566 0.08107398 -0.29898146
0003a0 78 b9 6d 3e 32 1f 9a 3d 80 6f f5 3b 94 67 8e 3e
       0.23215282 0.07525481 0.0074900985 0.278134
0003b0 19 11 a7 bc ea 0a 66 be 4a cf 39 bd 78 4a 17 3e
       -0.020393895 -0.22465101 -0.045363702 0.14774501
0003c0 73 47 5a 3e 2f 15 9e 3e a7 35 b6 bd bd 01 83 bc
       0.21316318 0.30875537 -0.08896952 -0.01599204
0003d0 82 60 ba bd f2 8f da bd 16 a1 33 bd ae 22 c1 3d
       -0.09100439 -0.10671987 -0.043854795 0.09430443
0003e0 52 7d 57 bc e7 a4 75 be 77 b4 80 bd c0 80 82 3e
       -0.013152437 -0.23988687 -0.06284421 0.25488853
0003f0 82 4d 99 be e0 e2 b2 3a 7e 49 b7 bc 45 ae dd 3c
       -0.29941946 0.0013647936 -0.022373911 0.027060637

bias_ih_l0 f4 [128]
000000 d8 92 7f bd 01 5c 28 be 34 bf db be 81 a8 f4 be
       -0.0623959 -0.16441347 -0.42919314 -0.47784808
000010 a6 02 87 be 5c 60 ea be d7 a2 67 be 61 1e 7e be
       -0.26369208 -0.4577664 -0.22620712 -0.24816276
000020 bd 4e be be 21 c9 82 bd 42 40 98 be 4f fd 5f be
       -0.37169448 -0.063860185 -0.29736525 -0.21873973
000030 39 97 51 bd d3 44 f9 be a5 bc 95 be 37 7f dd be
       -0.051169608 -0.4868532 -0.29245487 -0.4326112
000040 4f 09 51 be c5 79 f1 be ce 7d 88 be ae be 33 be
       -0.20413707 -0.47163215 -0.2665848 -0.17553207
000050 2c f3 69 be 74 ec d1 3c 22 24 97 be 76 b4 76 bc
       -0.22846669 0.025625445 -0.29519755 -0.015057674
000060 c6 3f 87 be c4 db e7 be 9e 5a 7f be 16 5b 0c be
       -0.26415843 -0.45284855 -0.24936911 -0.13706622
000070 f4 60 a3 be 62 d8 0f be 9c 68 0b bf b6 9d b3 be
       -0.31909907 -0.14047387 -0.54456496 -0.3508126
000080 06 eb 57 be 86 61 13 be 01 08 45 be 7b e9 f7 be
       -0.21085748 -0.14392671 -0.19241334 -0.4842032
000090 c8 70 b2 be 85 73 ba be 13 6a ec bd c3 6d ef bd
       -0.3485167 -0.3641626 -0.115436696 -0.11690857
0000a0 9a 39 1c be 48 63 72 be d1 1a fe be 2c d0 c7 be
       -0.15256348 -0.23670685 -0.49629834 -0.3902601
0000b0 c2 45 27 be 7b a4 87 be 54 27 b3 be 34 97 fc be
       -0.16335204 -0.26492676 -0.34990942 -0.4933411
0000c0 bc 07 9c be 6f aa 1e bf 19 c7 82 be 2f ad b3 bd
       -0.3047465 -0.6197881 -0.25542524 -0.087732665
0000d0 cf 48 56 be 52 f0 ab bd 03 e2 98 be ea a1 b3 bc
       -0.20926212 -0.08395447 -0.29859933 -0.021927793
0000e0 30 28 19 bd 9c 5d fd be 67 c2 87 be 58 b8 aa be
       -0.03739184 -0.4948548 -0.26515505 -0.33343768
0000f0 6b cb b7 be bd 78 34 be 81 bf af be d6 92 ab be
       -0.35897383 -0.17624183 -0.34325793 -0.33510464
000100 33 1d 1d 3e 57 47 9b 3c 59 d5 e7 bc 61 20 f8 bc
       0.1534317 0.018954916 -0.028299974 -0.030288877
000110 dd f1 58 bd 1e 48 a3 3c f7 d9 71 bc 26 e7 c8 bc
       -0.052965034 0.01993185 -0.0147614395 -0.024524283
000120 4d 50 4f 3e cf 67 17 be 94 97 da 3c c4 1b 3f bd
       0.20245476 -0.14785694 0.026683606 -0.04665734
000130 00 bf b5 bd a5 ca 66 bd 8b a7 cb 3c a2 cf 83 bd
       -0.08874321 -0.0563456 0.024860164 -0.06436087
000140 cd 27 3c be ac 66 ff bc 1b 59 04 be 03 8c 02 be
       -0.18374558 -0.031176887 -0.12924616 -0.12748723
000150 48 a0 01 3e a0 39 5d 3e d8 f1 c4 3b 29 3d 93 3d
       0.12658799 0.21604013 0.0060102753 0.071894
000160 83 86 cd 3b 68 8d 15 3c 86 7a 2b 3e ca ce 40 bd
       0.0062721386 0.009127952 0.16745958 -0.04707221
000170 72 d0 3c be 90 f8 71 3c 95 b4 06 3d 84 54 fd 3c
       -0.1843889 0.014768735 0.03288706 0.03092409
000180 f3 50 ae be 43 93 f4 be 8c 57 d9 be 84 16 f1 be
       -0.34046134 -0.47768602 -0.42449605 -0.4708749
000190 45 34 a0 be 71 0b c1 be 29 b3 2f be 33 f3 98 be
       -0.31289878 -0.37704042 -0.17158188 -0.29873046
0001a0 d5 84 a9 be be 38 96 be 5a 85 17 bf 4a 23 c8 be
       -0.33109155 -0.29340166 -0.59187853 -0.39089423
0001b0 76 09 bc bd 71 03 00 bf 7a a2 e6 be da bf a5 be
       -0.09181492 -0.5000525 -0.45045835 -0.32372934
0001c0 3b 51 69 be 66 94 37 bf 06 ab 86 be e1 a6 31 be
       -0.22784893 -0.71710813 -0.26302356 -0.17348816
0001d0 fc 30 d4 be ba 0b 14 be 28 c6 cc be d2 f2 7f be
       -0.41443622 -0.14457598 -0.3999493 -0.24994972
0001e0 6e 83 ad be b2 80 27 bf ad a2 d1 be 6e d7 b1 be
       -0.33889335 -0.6543075 -0.40944424 -0.34734672
0001f0 5a c8 0f bf 93 b0 b8 bd dc 55 1c bf f9 22 db be
       -0.5616509 -0.09018054 -0.6106851 -0.4280012

bias_hh_l0 f4 [128]
000000 54 b2 1d be dd a2 e3 be ff ec 7c be eb b5 ff be
       -0.15400058 -0.44460192 -0.24699782 -0.4994348
000010 db 9e 3a be 42 c7 c8 be e2 31 96 be bf f8 bc be
       -0.18224661 -0.39214522 -0.29334933 -0.36908528
000020 00 5f 0d bf 6f fa c5 bd c7 17 ca be cf 2c d4 be
       -0.55223083 -0.09666907 -0.39471266 -0.41440436
000030 4e 71 3c be cd 41 ac be fd 21 b1 be 6a 38 20 bf
       -0.18402597 -0.33643952 -0.34596244 -0.6258608
000040 31 d2 de bd 18 de 31 bf 01 6a 76 bd 0a c4 a4 be
       -0.108799346 -0.69479513 -0.060159687 -0.32180816
000050 f8 9f f4 be 00 c8 52 be e1 46 75 be 9d cb 58 bc
       -0.47778296 -0.20584106 -0.2395282 -0.013232139
000060 50 61 ea bd e2 61 c7 be 39 04 d4 be ea a3 5a be
       -0.11444342 -0.38941866 -0.41409472 -0.21351591
000070 a5 ec ab be 51 95 49 bd 3c 88 13 bf 9d b8 ca be
       -0.33578983 -0.049214665 -0.5762975 -0.39593974
000080 cd fd 83 be 78 fc cf be 47 1a 65 be 73 93 d8 be
       -0.25779572 -0.40622306 -0.22373305 -0.42299995
000090 db d8 b1 be da d1 1e bf d5 cf db bd b4 51 c1 bd
       -0.3473576 -0.6203896 -0.10733 -0.09439412
0000a0 0a 48 f7 be 9e 29 d7 bd e1 5e 8f be 8d fd db be
       -0.4829715 -0.10505985 -0.28002074 -0.4296688
0000b0 ce 3e 20 be f6 a3 84 be 4b b1 3d be 68 71 af be
       -0.15648958 -0.25906342 -0.18524663 -0.3426621
0000c0 2b 88 a5 be f1 47 21 bf c1 54 84 be 3b 07 6d be
       -0.3233045 -0.630004 -0.25845912 -0.2314729
0000d0 f4 6b 7b be 87 3e 88 bd 18 8b 9b be 4c fe 80 be
       -0.245529 -0.06652551 -0.30379558 -0.25194013
0000e0 1c 4b b6 be 05 ec da be 66 8e 74 be b4 93 b5 be
       -0.3560418 -0.42758194 -0.23882446 -0.3546425
0000f0 e0 ed ba be de 2d 70 be 83 c1 d7 be b6 37 61 be
       -0.3650961 -0.23454997 -0.42139825 -0.21993908
000100 f2 27 e6 bb 1c 31 3f bd 13 66 e4 bd 3d 93 40 3e
       -0.007023805 -0.046677694 -0.111522816 0.18806167
000110 d1 ab 87 3e 76 ff 70 3d bc 62 65 3e c7 94 c5 3d
       0.26498273 0.058837377 0.22400945 0.09647518
000120 12 53 9a 3d 8d 33 e9 3c da 2b 05 be 3e 95 f5 bd
       0.07535376 0.028466964 -0.1300501 -0.11991356
000130 7f d0 99 be 75 c8 cb 3c dd bc fa bc 77 2f bb 3d
       -0.30041882 0.024875859 -0.030607635 0.091399126
000140 5f 58 69 3d 21 34 c8 3d aa 5a b3 3d ce 45 d1 3d
       0.056969043 0.09775568 0.08757527 0.10218392
000150 ae 4f f1 3b 5f de 3a 3e bb f7 76 3d 7a 7a dc bd
       0.007364235 0.1824889 0.060294848 -0.10765548
000160 05 13 da bc d7 97 68 3c fc 57 1b 3e 5e f1 c1 3d
       -0.026620397 0.014196358 0.15170282 0.09469865
000170 da f6 13 ba c7 88 34 3e 75 20 0e be ef 10 de 3d
       -0.0005644389 0.17630301 -0.13879569 0.108430736
000180 ad 46 85 be 8f 66 44 be 27 c2 82 be ca c0 94 be
       -0.26030484 -0.19179748 -0.2553875 -0.29053336
000190 a0 9b c4 be 70 d9 2a bf f4 55 8b be 62 0d bc be
       -0.38399982 -0.66738033 -0.27214015 -0.3672896
0001a0 e7 b8 8f be a5 ce 53 be d1 a2 a5 be 57 3f e8 be
       -0.28070757 -0.20684297 -0.32350782 -0.45360824
0001b0 e8 f5 7f bd 25 da da be 54 8c ed be 61 27 c9 be
       -0.062490374 -0.42744556 -0.46396124 -0.39287856
0001c0 fc 51 84 be f6 36 06 bf 1f e2 7f be 10 e6 b5 bd
       -0.258438 -0.52427614 -0.24988602 -0.088817716
0001d0 f6 88 96 be e6 95 7c be 44 dd ca be 97 90 b4 bd
       -0.29401368 -0.24666557 -0.39621937 -0.08816641
0001e0 32 b7 b2 be 38 e5 e2 be 15 93 d9 be 48 75 71 be
       -0.34905392 -0.44315505 -0.42495027 -0.23579895
0001f0 21 40 f8 be af 13 99 bd 95 37 c2 be a2 1d b0 be
       -0.48486426 -0.074744575 -0.3793303 -0.34397608

weight_ih_l1 f4 [128, 32]
000000 54 8f c5 3d f2 90 6e be e0 43 53 be 23 a6 a0 3e
       0.09646478 -0.2329748 -0.20631361 0.31376752
000010 49 27 84 be e3 1b 32 be e3 79 4b be 1e ae bf 3c
       -0.25811222 -0.1739345 -0.19870715 0.023398455
000020 dd 9d 82 bc c5 bf 58 be b0 c3 8f be 52 f8 4e 3e
       -0.015944416 -0.21166904 -0.28078985 0.20211914
000030 06 5b 73 3e 97 51 40 3e 1a 64 ca be dc b4 50 3d
       0.23765191 0.18781124 -0.39529496 0.05095373
000040 de 31 b4 bc 98 0c a9 3d c3 b9 23 be ce 60 bb bc
       -0.021996435 0.08254355 -0.15988831 -0.022873309
000050 c8 06 b0 be 77 91 03 be 38 b2 ec 3d 37 ee c7 bd
       -0.34380174 -0.12848459 0.1155743 -0.09762233
000060 a0 35 f0 3d 94 65 cb be 15 4f 2a bf fe 65 54 3d
       0.11728978 -0.39725935 -0.6652692 0.05185508
000070 dc 2f ac bd 02 62 21 be d1 f9 85 3c 88 c8 cd be
       -0.08407566 -0.15760043 0.016354473 -0.40192056
000080 21 36 27 3d fc fb 0e bf da ab 74 3e f3 14 94 3e
       0.040823106 -0.5585325 0.23893681 0.28922233
000090 26 5b d2 3d 8f 2a c3 3d d0 50 b9 3d 9a ea 30 3d
       0.102712914 0.09529602 0.09048617 0.043192483
0000a0 5f da cf 3d 21 1f 41 be 5c f9 15 3e ef 55 89 3e
       0.10149073 -0.18859531 0.14645904 0.26823375
0000b0 4b 86 02 be 8c 3f 3c be b7 86 9f be 43 c6 80 be
       -0.12746541 -0.18383616 -0.31157467 -0.25151262
0000c0 e1 94 a9 3e 91 98 09 3e 65 66 69 3e 0c 90 8b 3d
       0.33121398 0.13437106 0.22792967 0.06814584
0000d0 67 c8 f3 3b 55 fa a2 bd 81 53 92 be ce 04 da bd
       0.0074396613 -0.07957903 -0.28579333 -0.10645448
0000e0 84 f2 1e be d8 45 db be 06 85 3c be 26 0e 95 3d
       -0.155222 -0.42826724 -0.1841012 0.07278089
0000f0 23 29 8d bd ad 59 17 3e c2 9f dc 3c fa 94 07 be
       -0.06892612 0.14780302 0.026931647 -0.13240424
000100 48 a5 bb 3e 62 1a 03 bf cc 5f fe 3e ea 05 e4 3e
       0.36649537 -0.5121213 0.49682462 0.44535762
000110 31 28 d9 3e f1 e7 d5 3e 25 5b 9d bc d8 3d f4 be
       0.42413476 0.4177852 -0.0192085 -0.47703433
000120 0f b9 83 bd 2c 8d ee bc b2 49 9f 3e 44 64 8a 3c
       -0.064317815 -0.02912005 0.31110913 0.016893514
000130 cb 6e 25 be 17 ed bd be 8c d4 83 be d9 b1 15 3e
       -0.16155545 -0.37094948 -0.25748098 0.14618625
000140 b2 6f da 3e 4c 1a a0 3e bb 45 26 3e 1c b6 38 3e
       0.42663342 0.31270063 0.16237538 0.18038219
000150 8d 93 53 bc ff 30 1a bd 21 bc c0 be 89 dc 6d be
       -0.012913597 -0.037644383 -0.3764353 -0.23228659
000160 37 67 93 bd 5d 91 f6 be 93 2e 5b bd e7 87 ea 3e
       -0.07197421 -0.48157778 -0.053511214 0.4580681
000170 42 f0 d3 be 54 ff 66 3e 4d b4 7a 3e 0e dc d6 be
       -0.4139424 0.22558337 0.24482842 -0.41964763
000180 0f 75 d6 3e 40 d7 8a be b7 de 12 3e 60 e0 76 3e
       0.41886184 -0.27117348 0.14342771 0.2410903
000190 60 32 c3 be 57 92 ac bd 25 da 51 3e 3b 57 0e 3e
       -0.3812437 -0.084263496 0.20493372 0.13900463
0001a0 e2 2b 92 3d 69 9e be 3e dc 88 60 3d 51 82 71 be
       0.07137276 0.37230232 0.05481802 -0.23584868
0001b0 e0 7a 7a be e5 74 14 be d1 80 77 3e 99 0f 9b bd
       -0.24460936 -0.14497717 0.24170233 -0.075713344
0001c0 20 49 d6 bd e6 8a 42 bd 78 7c d6 bd 81 b2 fe 3e
       -0.10463166 -0.047495745 -0.10472959 0.49745563
0001d0 ee 99 53 3e 7b 90 02 3e ce 3d 34 3d 64 62 b9 3e
       0.20664188 0.12750427 0.044004254 0.3620788
0001e0 01 c6 07 bf 0f 66 28 3e dc df b3 3e f4 43 41 3d
       -0.53036505 0.16445182 0.3513173 0.047183946
0001f0 52 52 f5 3d 9d 3b 07 3f 87 a7 07 be fa aa 58 3e
       0.11978592 0.5282534 -0.132475 0.21158972
000200 81 62 2e 3e 51 44 c2 be 85 3a 0f 3e 39 a8 99 bd
       0.17029764 -0.37942746 0.13987167 -0.07502789
000210 f4 5b e5 3b 99 7b 9f 3d ff 46 91 3b df fd 6c be
       0.006999487 0.07787246 0.004433512 -0.23143719
000220 25 ee 8b be c0 ae 38 be 4a d5 6c be 26 85 7f be
       -0.27330127 -0.18035412 -0.23128238 -0.24953136
000230 08 29 d2 3d b7 17 f6 bd 42 ad be 3d 67 81 93 3e
       0.10261732 -0.12016242 0.0931039 0.28809664
000240 49 d6 b1 3e 3f b6 64 bd 81 6a a3 be 74 81 98 3d
       0.347338 -0.055837866 -0.31917194 0.07446566
000250 c1 ab aa be b1 e9 be be 21 14 95 bc 42 20 33 3e
       -0.33334163 -0.37287667 -0.018198075 0.17492774
000260 4f 3f 90 be 41 86 d3 bd 93 84 5a be d9 a1 9f 3e
       -0.281733 -0.10328341 -0.21339636 0.31178167
000270 37 2c 50 be 31 16 cf 3d 2c 1b 05 be 85 50 40 3e
       -0.20329367 0.101116545 -0.12998646 0.18780716
000280 ae 25 e2 3b 09 d1 8f be 0c 1a 8b 3c 5b 41 14 be
       0.0069014644 -0.2808917 0.016980194 -0.14478056
000290 3a bb c7 be f8 61 92 bc c3 36 73 bc 3d cc 97 3c
       -0.3901003 -0.01786898 -0.014844599 0.018530006
0002a0 4e fc ee bd a1 49 45 3e f6 e1 83 bd 05 65 11 3d
       -0.11669217 0.19266368 -0.06439583 0.03549673
0002b0 0f a7 5c 3e 52 96 26 3e 5b ac 4d 3b d9 c7 51 be
       0.21548103 0.1626828 0.003138325 -0.20486392
0002c0 25 de 9d bd 2b 49 18 3f e4 38 b8 3d dd 4a b1 bd
       -0.07708386 0.59486645 0.08995226 -0.08656857
0002d0 8c a4 e6 be 91 95 0d 3c 41 20 50 3e 09 12 0b 3e
       -0.45047414 0.008641616 0.20324804 0.13581099
0002e0 71 3c af 3d 63 b5 7f be 0d 58 dd be 70 11 08 bd
       0.0855645 -0.24971537 -0.4323124 -0.033219755
0002f0 8f 42 2d be de 4a de bd 9b 3f 8d 3e e2 cc 74 3c
       -0.16919921 -0.108541235 0.2758759 0.014941426
000300 97 7f ad 3e 8b ac 57 bd 6b 00 8c 3e 3c b2 9b 3e
       0.33886406 -0.052654784 0.2734407 0.3040942
000310 89 6a 91 be e2 b8 f7 3d b2 f1 c3 3e 07 9c bd bd
       -0.28401592 0.120958105 0.38270336 -0.092582755
000320 1a ba 60 be 41 53 13 3e e3 d1 5c 3e 8f 95 cb bd
       -0.21945992 0.14387228 0.2156444 -0.099406354
000330 8c 70 a3 be b0 6c 71 3d 74 be 01 3f f7 1a 03 3f
       -0.31921804 0.058941543 0.50681233 0.5121302
000340 88 6c c4 bb ce 2b 64 bd f5 27 7d bd 55 96 15 3f
       -0.0059943832 -0.055705838 -0.061805684 0.58432513
000350 e8 c0 a6 3d 7f e0 1c 3e 6e 99 a5 bd 17 6c b9 3e
       0.08142263 0.15320013 -0.08085905 0.36215279
000360 4c 0c 21 bf fb 5b 9f 3e 2f fa a0 be a5 82 99 3e
       -0.6290939 0.31124863 -0.31440875 0.29982486
000370 5b e4 88 3d e5 2e 80 3e 2b 82 42 be a9 b4 c4 3e
       0.0668418 0.25035778 -0.18994968 0.38419083
000380 38 db 3d 3d bc 48 ff bd 15 03 13 be 0d 1a 8a 3e
       0.04635164 -0.12465045 -0.14356644 0.26973
000390 32 c9 7d 3e c1 98 50 bc 28 29 4f be ac 38 38 3e
       0.24783781 -0.012731732 -0.20230544 0.17990369
0003a0 ab 44 d9 3e 34 ae e5 be c4 7e 2c be 8c 1c 9c 3e
       0.42435202 -0.4485947 -0.16845232 0.3049053
0003b0 3f bf 0a be 47 0f 28 3e 50 2d 35 bb c0 0f ec 3c
       -0.13549517 0.16412078 -0.0027645417 0.028816104
0003c0 64 23 c4 bd 7a 1a cd 3d 42 98 44 be ba f8 05 be
       -0.09577063 0.10014816 -0.19198707 -0.13083163
0003d0 ce 2a 12 3d 2b 1f b1 bd 75 d3 a0 3e 82 a8 33 bd
       0.035685353 -0.08648523 0.3141133 -0.043861873
0003e0 c3 27 83 3e 10 5b a1 be f3 1c 81 be 93 8f 09 be
       0.25616273 -0.31514788 -0.252174 -0.13433675
0003f0 5d 49 31 3e a3 b0 1c be 90 4d 34 3e e8 7e d5 bd
       0.17313142 -0.15301757 0.17607713 -0.10424596

weight_hh_l1 f4 [128, 32]
000000 43 8c 1b 3d 5a e4 22 3d 36 62 09 3d c5 6c f1 3e
       0.03797556 0.039768554 0.033540927 0.47153297
000010 a8 18 69 3d d4 7f 14 bf 67 64 67 3e 4c 1b 42 3e
       0.05690828 -0.5800755 0.22596894 0.18955725
000020 74 af cd be af b2 12 3f 89 86 0e 3e 99 e2 25 bc
       -0.40172923 0.573039 0.13918509 -0.010124826
000030 01 92 a2 3b 0d 13 80 3d c2 26 b8 bd aa b6 01 3d
       0.0049612527 0.06253634 -0.089917675 0.031668343
000040 16 e3 0e 3e 69 86 64 3e b6 60 e8 3e 7c d4 da bd
       0.13953814 0.22316898 0.45386285 -0.106850594
000050 c3 a2 53 bd 6f e6 9f 3e 9f 6d 04 be 80 b4 cd be
       -0.051668894 0.31230494 -0.12932442 -0.40176773
000060 d9 23 d6 be 16 3e ba 3e 5e 7b e2 3d 64 73 c8 be
       -0.41824225 0.36375493 0.11058687 -0.39150536
000070 a5 bf 80 be e4 b5 da 3d 42 f8 84 3e 78 ec a6 bd
       -0.25146213 0.10679224 0.25970656 -0.081505716
000080 94 69 22 ba a9 5e 8a 3e a7 2e f4 bd 5a 8e 52 3e
       -0.0006195542 0.27025345 -0.11922961 0.20562115
000090 1c f2 77 3e a3 e2 14 3d 22 83 15 be cd 06 b6 be
       0.24213451 0.03634895 -0.14600804 -0.35552064
0000a0 db e7 a0 be 7f 39 97 3e ad 53 0c bd 10 25 8d bb
       -0.31426892 0.29536054 -0.034259487 -0.0043073967
0000b0 86 dd c3 3e 42 32 49 bd f8 84 05 3e 45 ba 7e be
       0.38254946 -0.049120195 0.13039005 -0.24875744
0000c0 59 08 c0 3d 46 a0 43 bb 64 29 81 3b 57 2f 46 3e
       0.09376592 -0.002985017 0.0039417017 0.19353996
0000d0 d9 b0 8d 3e 8e 2f cb 3d 6d 4c 68 3e 45 06 53 bd
       0.27673987 0.0992118 0.22685404 -0.05151965
0000e0 f2 1e b4 bd 75 f9 6a be 4c 3c 15 be ab a2 80 be
       -0.08794965 -0.22946723 -0.14573783 -0.25124106
0000f0 9f 00 6a 3d 49 e2 76 3e 9c be 14 3e 3b 66 58 be
       0.0571295 0.24109758 0.14525837 -0.21132748
000100 ef 86 eb be 12 1c 95 3e 35 72 5d 3e 91 d5 39 3e
       -0.46001384 0.29122978 0.21625598 0.18147875
000110 a3 84 d6 bd 4e 92 16 bf cb f6 1b 3e 0a 1e d6 3d
       -0.10474517 -0.58816993 0.15230863 0.10454948
000120 9d 95 f6 bd 25 c7 85 3e 5e 40 7b be c0 5d fb 3e
       -0.12040255 0.26128498 -0.24536273 0.49094963
000130 26 50 69 be 66 1a db bd 72 43 82 bd 40 bf 2a 3e
       -0.2278448 -0.106983945 -0.063605204 0.16674519
000140 92 df 2b be 62 4f 24 3d e8 f1 8c 3e 8b 93 68 3e
       -0.16784504 0.040114768 0.2752831 0.22712533
000150 30 a2 7a be 5b 81 d2 bd ac f3 05 3e 69 82 bd be
       -0.24475932 -0.10278579 0.13081235 -0.37013558
000160 06 84 ee 3d d4 c7 12 3e dc 8f 86 3e cc 21 0a be
       0.11646275 0.14334041 0.2628163 -0.13489455
000170 4d 57 84 3d 12 fb f8 3c 1a 8f 79 3d a8 12 49 3d
       0.06461964 0.030393157 0.060927488 0.049090058
000180 a5 79 6b 3d 8e ce 5c be 0c f9 ae be f0 a5 37 bd
       0.057489056 -0.2156317 -0.34174383 -0.044835985
000190 ff a4 bf 3e e5 1c 2b 3f fc 5a 29 be 17 8d 50 be
       0.3743057 0.66840965 -0.16538614 -0.20366322
0001a0 1c 22 0f be 7a b9 62 be 1b ca 05 be 96 55 d7 3c
       -0.13977855 -0.22141066 -0.13065378 0.026285928
0001b0 d3 62 95 3d 42 b2 a4 3c 14 a2 f9 3d 3f 66 a1 3e
       0.0729424 0.020104531 0.12189117 0.3152332
0001c0 c2 9d 75 3e 75 2c ab bd 00 61 b4 bd 91 69 f2 3d
       0.23985961 -0.08358089 -0.08807564 0.118365414
0001d0 62 fe 9d bd 6e f5 24 bd d0 d2 9b 3d b4 a3 2e 3d
       -0.07714535 -0.040273122 0.07608569 0.04263659
0001e0 99 b3 23 3e 0f 9e 3b bf f8 68 c5 be b4 d4 11 3e
       0.1598648 -0.73288053 -0.38556647 0.14241296
0001f0 b9 8a 42 3d 5a 6f f1 bd d5 33 1d 3e 5c 49 dd bd
       0.047495577 -0.11788817 0.15351804 -0.10805008
000200 5f c6 a1 3c 72 07 2c ba 1c 16 8f 3e 17 48 84 3e
       0.019747911 -0.0006562389 0.27946556 0.2583625
000210 d5 17 74 3e 08 58 a7 be 15 53 9c 3e 42 db f5 3d
       0.23837216 -0.3268435 0.30532137 0.12004711
000220 20 64 df be cd 34 d1 3c b0 03 2a 3d a4 6e 06 bd
       -0.43631077 0.025537873 0.041507423 -0.03282036
000230 33 b7 85 3d 44 14 2c bb 79 23 88 3e 6a ad e9 bc
       0.06529083 -0.0026257196 0.26589563 -0.028525073
000240 70 1f ba be f3 7a 65 3e cb 67 83 3e 07 02 86 ba
       -0.3635211 0.22410183 0.25665125 -0.0010223993
000250 4d 46 28 be aa 76 9d be 8e ab a4 3e 00 de b3 be
       -0.16433068 -0.30754596 0.32162136 -0.3513031
000260 d4 19 3b bd 22 e7 c5 3e 82 8d b5 3e b5 7d 9c 3e
       -0.04567893 0.38652903 0.35459524 0.30564657
000270 c7 53 3b bb b1 05 2f 3e b2 f6 af bd 8a e0 72 be
       -0.002858387 0.17092015 -0.08591975 -0.23718467
000280 40 12 f6 be e7 70 8f 3e 64 e9 35 be 41 7c a4 3e
       -0.480608 0.28015825 -0.17764813 0.32126048
000290 1e a1 65 3d ef 2e 01 3e 33 09 32 be da 54 52 3e
       0.056061856 0.1261556 -0.17386322 0.20540181
0002a0 61 ac 82 3e 0d 71 4b 3e 4e fd 43 3c b5 4b fd 3e
       0.2552214 0.19867344 0.011962248 0.49471822
0002b0 3a 66 2c 3e 8f f1 88 3d f9 a1 98 ba ca c8 87 bd
       0.16835871 0.06686699 -0.0011644951 -0.06630094
0002c0 ad 65 96 3d d3 4f d6 bd 57 5c ee bd 5b b7 2a bd
       0.07343612 -0.10464444 -0.11638706 -0.041678768
0002d0 ef f6 0c bd 86 2a ad 3b a5 98 cf bd f3 f8 11 3e
       -0.03441518 0.00528461 -0.101365365 0.14255123
0002e0 05 33 83 3e b4 90 ec bd dd 7b 6a 3d 50 91 19 3e
       0.25624862 -0.115510374 0.05724703 0.14996839
0002f0 a5 32 02 3e ad 64 9b 3d 4d 5e 0d 3e 2d a9 09 3c
       0.12714632 0.07587562 0.13805504 0.008402151
000300 4a 76 83 3e aa 0e 42 be d4 f1 de bd 1a 4e ee 3c
       0.25676185 -0.18950906 -0.10885969 0.029089976
000310 5d 2b aa 3d f9 85 82 be 6a 9e 94 bd 81 0b 57 3e
       0.08309052 -0.25492838 -0.072567776 0.21000482
000320 7d dd 0e 3e f3 60 92 be 5b 7b 3d 3e 6a be 1d bf
       0.13951679 -0.2858959 0.18504088 -0.61618674
000330 6a ae a3 be 21 0f c2 3d 84 f2 aa be a8 75 05 3e
       -0.31969005 0.09475542 -0.3338815 0.13033164
000340 0d d4 1b 3e d2 a6 8b bd 63 f2 7d be a8 9a 59 3e
       0.1521761 -0.06818928 -0.24799494 0.21250403
000350 18 d3 a8 3c 67 56 f6 3e e3 14 83 be 72 9b 56 bb
       0.02060847 0.48112795 -0.25601873 -0.0032746461
000360 1b bd 87 be f5 52 b7 3d 8c cc 63 be 34 4f c0 bd
       -0.26511464 0.0895137 -0.22245997 -0.09390107
000370 f9 38 48 be 16 23 35 be a4 d0 93 be 79 b4 66 3e
       -0.19552983 -0.17689165 -0.28870118 0.22529782
000380 e3 70 9d be 23 8d 24 be e6 7f ec 3c ea 61 a6 3d
       -0.30750188 -0.16069464 0.02886958 0.081241444
000390 72 d5 41 be 80 63 0b bd ad f4 a3 3e 69 99 1b bd
       -0.18929079 -0.034030437 0.3202261 -0.0379881
0003a0 3f 4c 61 be 77 c5 ba 3d 32 ec 6a 3d 8f 48 23 bc
       -0.22001742 0.09119695 0.05735416 -0.00996603
0003b0 20 2b cf bc 9d f3 b3 be 0c ea 9a 3e ab 65 a0 3e
       -0.025289118 -0.351468 0.3025669 0.31327567
0003c0 46 7c 8f be 35 8d 7c 3d e6 aa 20 be bc f0 a8 bd
       -0.280245 0.061658103 -0.15690193 -0.082490414
0003d0 1c a4 07 be 3c 5d c9 3d a3 15 0b 3f 21 c1 f2 3c
       -0.13246197 0.09832236 0.5432989 0.029633107
0003e0 0b b8 59 3e b6 5b db bd dc f0 55 3d 32 7b 9f 3d
       0.21261613 -0.10710852 0.052231655 0.077871695
0003f0 69 b0 8c be ae d0 7d 3e 94 1f 17 3e d0 f5 a0 3d
       -0.2747834 0.24786636 0.1475814 0.07859385

bias_ih_l1 f4 [128]
000000 5c 1b c8 be df 3a 14 be 9b 86 02 bf ef eb 5e 3e
       -0.39083374 -0.14475583 -0.5098664 0.21769689
000010 e7 0c a2 3d e3 cd 4a be 6e 98 69 3d 0a 6b 6a be
       0.07912617 -0.19805102 0.057030134 -0.22892395
000020 55 19 0a be d4 e1 e8 be 58 78 42 be 88 e9 8f bd
       -0.13486226 -0.45484793 -0.1899122 -0.070269644
000030 a0 7b 1e 3e b8 86 e4 be 33 f8 38 be 81 61 01 3d
       0.15476847 -0.44634032 -0.1806343 0.031587128
000040 a5 f5 f9 3b 98 81 e3 be 11 37 31 be 55 44 02 3e
       0.00762816 -0.4443481 -0.17306162 0.12721379
000050 7d fa d1 be c3 77 fc be fa f9 48 3e f4 fd 7c be
       -0.4101142 -0.4931012 0.19626608 -0.2470625
000060 1b 2e eb be 97 3d ab 3d 94 d9 ee bd b3 f1 10 bf
       -0.45933613 0.08361357 -0.116625935 -0.56618804
000070 65 17 01 3b 0d 0b b8 3c 5d 6f 13 be 17 7f 89 be
       0.0019697782 0.022466207 -0.1439795 -0.26854774
000080 9e fa 9a be 46 2f 8d 3d 33 5a 2d be 44 83 5d 3e
       -0.3026933 0.06893782 -0.1692894 0.21632105
000090 ef 42 ac 3e 4c 06 e4 3d 95 38 00 3e 37 9e 4e 3e
       0.33644816 0.111340135 0.12521584 0.20177542
0000a0 d0 01 42 bd 62 20 84 be 44 13 fb 3d 18 6e 8f 3e
       -0.04736501 -0.25805956 0.12259534 0.28013682
0000b0 4e e4 9b 3e 4a cf 87 3e c3 1d c5 3d 97 89 e4 3e
       0.3044762 0.26525337 0.09624817 0.44636223
0000c0 9f 61 2e 3d 95 01 b3 3d 02 bf 9a bd 1b c9 95 3e
       0.042573567 0.08740536 -0.07555963 0.29254994
0000d0 7b 9b 20 3e aa fa e5 be 2e b0 c4 3e 1a 6a e2 bb
       0.15684311 -0.44917804 0.38415664 -0.006909621
0000e0 4c 29 0e 3e 9f bb 88 3e 7d 40 a3 3b ca 35 db 3c
       0.13882941 0.26705644 0.004982053 0.026759047
0000f0 ae 74 0a 3e b0 94 83 3e 8a 37 be 3d ea c7 b3 3e
       0.13521072 0.25699377 0.09287937 0.3511346
000100 a5 0f e2 3d 20 1f 8f 3c 87 50 18 3b 0e 63 9c 3e
       0.1103814 0.017470896 0.0023241357 0.30544323
000110 2b 9d df 3e d4 dc c6 3b 59 87 66 be 5c 71 26 3e
       0.43674597 0.006068805 -0.22512569 0.1625418
000120 61 74 99 3e 83 fc fc bc bd 00 eb bd cd 75 04 3e
       0.29971603 -0.030882126 -0.1147475 0.12935562
000130 1c 79 2d be e1 74 3e 3e cc 0f 8b be 79 22 35 be
       -0.16940731 0.18599273 -0.2716049 -0.17688932
000140 f4 bb 0f 3e 8b b6 7e 3e cf f5 17 be ff 84 2d 3e
       0.14036542 0.24874322 -0.14839862 0.16945265
000150 a3 48 35 3e 4c 87 39 be cb 4f 67 be b4 e9 f7 bd
       0.1770349 -0.18118018 -0.22589032 -0.12105122
000160 ad 82 71 3e d8 9d 48 3e 4e 43 45 bd 8c 7c 49 bd
       0.23585005 0.19591463 -0.04815989 -0.049191043
000170 6d 07 41 3d 5c e9 02 3c 3d a1 28 3e f2 e3 cc 3d
       0.047126222 0.0079902075 0.16467758 0.100044146
000180 ca c8 43 bf 46 5a 85 bd 99 1c e3 be 99 ad 9e 3e
       -0.76478255 -0.06511359 -0.44357756 0.3099182
000190 b8 35 a1 3e 3d 8f f4 be 73 00 76 be b7 e9 bc be
       0.31486297 -0.47765532 -0.24023609 -0.3689706
0001a0 29 a7 1a bf 7c c5 95 be 3d 5f 9c be 2a 61 51 bd
       -0.60411316 -0.2925223 -0.3054141 -0.051118053
0001b0 e7 f3 4d bd b3 85 63 be 1d ec 3d be 48 cb c4 3d
       -0.05028143 -0.22218971 -0.18547101 0.09609085
0001c0 22 29 8b be a1 01 74 be 75 8d 7f be b1 f0 1f 3e
       -0.2717982 -0.23828746 -0.24956305 0.1561916
0001d0 22 be 00 bf 4a d3 af be e5 fd 47 3e 29 22 f1 be
       -0.5029012 -0.34340888 0.19530447 -0.47096375
0001e0 4e 0f 12 be b0 54 d4 be 2e 47 2f be 44 0c 09 bf
       -0.14263651 -0.4147086 -0.17116997 -0.5353434
0001f0 c7 9a 54 be ae 26 2e be 22 f9 78 bd 00 c7 d5 bd
       -0.20762168 -0.17006943 -0.060784467 -0.10438347

bias_hh_l1 f4 [128]
000000 dc fc f0 be a7 11 a2 3c 53 13 f3 be 18 57 89 3d
       -0.47067916 0.019783808 -0.4747568 0.06706065
000010 da 6e e4 bb b8 d6 69 be 3c 01 32 be 98 fa 4f be
       -0.0069712223 -0.22835815 -0.17383283 -0.20310438
000020 eb 9e a1 be fb ca 83 be 43 85 94 be da 4a 7a be
       -0.31566557 -0.257408 -0.2900792 -0.24442616
000030 4e ae a7 3e 79 ec 88 be 1a a2 2b be fe fd 46 3c
       0.3275017 -0.26742914 -0.16761056 0.012145517
000040 37 62 ac bd 16 fc a5 be 9d 4d 98 be 1b 44 88 3e
       -0.084171705 -0.3241889 -0.29746714 0.2661446
000050 cf a9 17 bf 05 5e e0 be 8f c2 50 3e 70 0d c3 be
       -0.5924348 -0.4382173 0.20386718 -0.3809619
000060 1e 04 92 be b0 2e b1 bd 92 ce dd be 6f 86 fa be
       -0.28518766 -0.08651483 -0.43321663 -0.4893069
000070 c8 de 86 3d 23 20 32 3e 11 c2 43 be 2c dc 0f be
       0.06585461 0.17395072 -0.19116999 -0.14048833
000080 ec 8c 6f be 7b 0c 47 3d 20 0f 88 be df 92 99 3e
       -0.23393601 0.048595887 -0.2657404 0.29994866
000090 ab 22 b4 3e c8 fa 53 3e f5 d3 81 bd fb d1 2b 3e
       0.351827 0.20701134 -0.06339256 0.1677932
0000a0 cf 61 3c 3d c5 3b f0 bd 16 f3 84 3e 21 e8 ce 3d
       0.045991715 -0.1173015 0.2596671 0.10102869
0000b0 6c 81 85 3e 26 c9 96 3e ba 65 f4 bd f3 72 97 3e
       0.26075304 0.2945034 -0.11933465 0.29579887
0000c0 51 cf 8a 3e 86 32 88 3e c0 48 b4 3d eb 51 64 3e
       0.27111295 0.26601046 0.088029385 0.22296874
0000d0 76 6f d9 3d 34 3b 43 be 1a c1 dc 3e 0e 06 4d 3e
       0.106169626 -0.19065553 0.43116075 0.20021841
0000e0 fe 85 81 3e a3 ca bb 3e 82 31 cc bc ed 50 3b 3d
       0.2529754 0.36678037 -0.02492595 0.045731474
0000f0 39 10 1a 3d a2 01 e8 3e 08 32 d8 3d d6 6d 31 3e
       0.037613127 0.45313746 0.10556418 0.17327055
000100 47 5d 1b 3e b9 89 6f 3e 55 67 c5 bd 0e 4c a2 3e
       0.15172301 0.23392381 -0.0963885 0.3169865
000110 e1 24 c3 3e 0f 0f 86 3d a1 8b 11 be 90 a8 62 3e
       0.38114074 0.06545841 -0.1421342 0.22134614
000120 0b 52 6c 3e a2 06 52 be bc 16 f3 bd f0 28 89 3e
       0.23078172 -0.20510343 -0.118695706 0.26789045
000130 66 bc 62 be d8 ca f6 3c 29 ff 1e be 27 28 6a be
       -0.22142181 0.03012602 -0.15527023 -0.2286688
000140 ff 96 ad 3e be 95 c8 3d 2e c3 af be 99 8d d5 3d
       0.33904263 0.09794186 -0.34328598 0.10427398
000150 c7 e5 4d 3e e1 50 78 be 4f 58 08 bc 77 73 15 be
       0.20107184 -0.24249603 -0.008321836 -0.14594828
000160 64 a3 11 3f 55 3c b3 3e 9b 65 6e 3e b2 c1 4e bd
       0.5688994 0.35006967 0.23280947 -0.05047769
000170 50 0b e5 bc 58 2b 27 bd 38 28 8a 3e 9e 67 22 bd
       -0.027959496 -0.04081282 0.2698381 -0.0396496
000180 2f bb ea be 02 cd 0a be ae c9 be be 59 18 3b 3e
       -0.45845935 -0.13554767 -0.37263244 0.18271007
000190 06 dd 82 3e 27 2c 73 be 68 39 79 be b0 ee ed be
       0.25559253 -0.23747312 -0.24338305 -0.46471167
0001a0 40 20 0e bf fe cd e2 be c9 ef aa be 93 7c 5d 3d
       -0.5551796 -0.44297785 -0.33386067 0.05407388
0001b0 f5 9e 81 3e d4 36 a9 be d0 6e 90 be 21 9f 80 3d
       0.25316587 -0.33049643 -0.28209543 0.062803514
0001c0 2f 4e 8a be 1b c2 ab be 00 08 cc be b2 95 03 be
       -0.27012774 -0.33546528 -0.39849854 -0.12850073
0001d0 c0 7e 00 bf 22 73 77 be 00 7e 8d 3e 8c 04 b6 be
       -0.50193405 -0.24165013 0.27635193 -0.35550344
0001e0 ea 0a 32 be a9 d7 63 be 8e 2b e0 be fe fc a0 be
       -0.17386976 -0.22250237 -0.4378323 -0.31443018
0001f0 83 b6 1b bd 3c f6 33 be c7 25 99 be 1a 7f 75 bd
       -0.038015854 -0.175744 -0.29911634 -0.059935667

weight_ih_l2 f4 [128, 32]
000000 9d ce ea be 0d f3 ae bd d4 3c f4 3d 03 3b 8e 3e
       -0.45860758 -0.08542452 0.119256645 0.27779397
000010 1b d8 28 bd 19 0c 88 be 91 47 13 3e 31 29 a3 3e
       -0.04122172 -0.2657173 0.14382769 0.31867364
000020 08 20 06 bf f4 bb e2 3d 88 8a b1 3d 10 6b 79 bd
       -0.52392626 0.110710055 0.08669001 -0.06089312
000030 45 ed de 3c 36 30 c7 bc 5f 7f fd 3e d8 fc 07 3e
       0.027212748 -0.024314981 0.4951124 0.13280046
000040 36 b4 c7 3d d6 e9 06 be 8a 31 c6 3e 79 49 87 be
       0.097511694 -0.13175139 0.3870967 -0.26423243
000050 0b bb d6 3d cb e1 89 3e b4 5a f7 bd f1 c8 8c be
       0.10484894 0.2693008 -0.12077847 -0.27497056
000060 93 2a 83 be fa 5f ae be 16 de 50 be 1e a0 c3 be
       -0.2561842 -0.340576 -0.20397219 -0.38208097
000070 2b a9 06 bb 52 df 98 3e 2c 32 0f be 70 0a 09 3f
       -0.002054761 0.2985788 -0.13983983 0.5353155
000080 21 ce 22 be 1d 28 8f be 8b 8a 3c be 91 d3 93 3e
       -0.15898944 -0.27960292 -0.18412225 0.2887235
000090 52 1f 2e be a7 3c b3 be 18 d5 a5 bc 61 be 24 3e
       -0.17004135 -0.35007212 -0.020243213 0.16088249
0000a0 8a 18 91 bc cc e3 b7 3e 88 f5 8e 3e ad 9a 19 bf
       -0.017711896 0.35915983 0.279217 -0.6000164
0000b0 a9 9a ac 3d 07 44 10 3e 1f bf dd 3d 40 05 ce 3e
       0.084279366 0.1408845 0.10827469 0.4023838
0000c0 7d 6d 17 be 64 6f 07 3d a9 6f a8 bd 10 e3 ad bd
       -0.1478786 0.033065215 -0.082244225 -0.08490574
0000d0 ab d7 2b 3e 3e bd 98 3c 23 51 51 3e c5 31 d5 3d
       0.1678149 0.018644925 0.20441107 0.104098834
0000e0 ca 23 96 be 48 e5 91 be d2 de 37 bf e1 b1 51 be
       -0.2932418 -0.2849524 -0.7182437 -0.20478012
0000f0 13 22 16 be 20 4a 6d 3e 20 a5 72 bd 3a 6b 56 3e
       -0.14661436 0.23172808 -0.059239507 0.20939341
000100 ef 98 82 be 27 f4 d7 be 11 18 d5 bd 2a 34 89 3d
       -0.25507304 -0.4217846 -0.10404981 0.06699403
000110 e4 0b 9c bd 3a 7f 36 be ed 84 2b 3e 19 c1 a7 bd
       -0.076194555 -0.1782197 0.16749926 -0.08191127
000120 4d b8 99 bd 69 1e ef 3e 5c ba b1 3e b8 a3 30 bf
       -0.07505856 0.4670289 0.34712493 -0.68999815
000130 10 90 55 be 72 74 0a 3e 6e 14 0a 3f a7 15 00 3e
       -0.20855737 0.13520983 0.53937423 0.1250826
000140 1b 06 19 be 0c 83 c6 be fe eb a1 3e 8b 6e 2a bd
       -0.14943735 -0.38771856 0.3162536 -0.04160933
000150 a6 a5 38 bd c7 0e 5a 3e 6d 48 66 bd 98 07 53 be
       -0.04507985 0.212947 -0.056221414 -0.20608366
000160 7f 11 db be 4b 62 be bd 48 52 08 bf 11 53 2f be
       -0.42786786 -0.09296092 -0.5325055 -0.17121531
000170 c3 3c 31 be 9d 2d ac 3c 2e 2d c9 bd 0f b1 35 3e
       -0.17308335 0.021017844 -0.098230705 0.17743324
000180 14 c4 75 be b9 a1 9c be 65 67 f3 bc 46 6f 38 be
       -0.24000579 -0.30592135 -0.029712388 -0.18011197
000190 a5 d6 72 3e 28 92 5d bd 72 1a 04 3e d9 16 a4 3d
       0.23714693 -0.054094464 0.12900713 0.0801217
0001a0 b4 1c 89 be 6a 1b fe 3d ac d9 75 3e 81 5b 6b be
       -0.2677971 0.124075726 0.24008816 -0.22984125
0001b0 ee 81 1f be eb d0 9f bd 3f 50 59 3e 3b 51 ef 3d
       -0.15576908 -0.0780352 0.21222018 0.11685415
0001c0 ce 8c 28 be de f0 18 be 88 1a 77 3e 27 83 cd bd
       -0.16459963 -0.14935634 0.24131215 -0.10034781
0001d0 4e 02 b8 3d 12 12 cb 3d b8 c3 35 be d4 d4 21 bd
       0.089848146 0.09915556 -0.17750442 -0.03950961
0001e0 e8 78 a5 be be 2f f8 3c 55 dd a8 be 07 06 1c be
       -0.32318807 0.030296203 -0.32981363 -0.15236674
0001f0 e1 b4 50 be dd f4 1b be 69 45 d7 be 99 03 b5 3e
       -0.203815 -0.15230127 -0.42045143 0.35354307
000200 79 cb 44 be 8b 28 bc be 8c 00 98 3e 12 54 61 be
       -0.19218244 -0.36749682 0.29687917 -0.22004727
000210 21 7c 12 bf 36 4e 91 bc 6a d4 34 3e b2 84 03 3f
       -0.57220656 -0.01773749 0.17659155 0.5137435
000220 dd d8 7d bc 68 2f 85 be da a8 c4 3e 32 34 4d be
       -0.015493599 -0.2601273 0.38410074 -0.20039442
000230 92 b5 45 be 07 d2 82 be 29 74 1b be 14 e1 0b 3f
       -0.19307545 -0.25550863 -0.1518103 0.54640317
000240 25 be 13 bf bb 71 2c bf 78 7e 2e be e8 3b 83 bd
       -0.5771201 -0.6736104 -0.17040431 -0.064079106
000250 b8 6f c5 be 6a 54 39 3e 42 1b 58 3e 71 0a 6a 3e
       -0.38561797 0.18098608 0.21104148 0.22855546
000260 12 76 b6 3d ca fa 29 bf cb 32 36 bf 66 2a 40 3e
       0.08909239 -0.663983 -0.71171254 0.18766174
000270 00 11 4c be 20 fc be be 0f b6 3c 3c 34 97 29 3f
       -0.1992836 -0.3730173 0.0115180155 0.6624634
000280 90 c5 86 bc 2a 40 24 3c 44 36 6e bd 62 95 39 3e
       -0.016451627 0.0100250635 -0.05815722 0.18123391
000290 d0 de 0d be f3 5c bb bd 11 9c 8d 3e c2 28 21 3e
       -0.13854527 -0.09148588 0.27658132 0.15738204
0002a0 2f fe 5b bd 0b ff 8b 3e d1 9c 88 3e 87 ee 34 be
       -0.053709205 0.2734302 0.2668214 -0.17669116
0002b0 56 72 5f bd 72 cc 41 be f5 38 32 3e f3 16 70 3e
       -0.0545524 -0.18925646 0.1740454 0.23446254
0002c0 c6 89 0b be dd d8 d4 bd 90 4a 57 3e ca e5 48 be
       -0.13626775 -0.10392926 0.21024537 -0.19618908
0002d0 1c 5d a0 bd e5 9d 4c 3e 06 56 b7 3d b7 94 6c be
       -0.07830259 0.19982107 0.089519545 -0.23103605
0002e0 db 88 15 be 19 c1 fb be 32 5d c8 be 5c 76 d2 3d
       -0.14602987 -0.4917076 -0.39133602 0.102764815
0002f0 89 6b d9 be a8 ea 3c 3e 38 d2 f2 bd 70 a1 d0 3e
       -0.42464855 0.1844889 -0.11856502 0.40748167
000300 5f b9 68 bd 93 10 55 be 3b bf df bd c9 d2 7d 3d
       -0.05681741 -0.20807104 -0.10925146 0.0619686
000310 9e 4e 0a 3d 53 42 a6 be 2a 82 ee 3d 14 8a b3 3d
       0.03376638 -0.32472476 0.116459206 0.08766571
000320 d7 d1 88 bd 2d 8e 43 3d 8d a8 66 3e 66 0d dc be
       -0.06680649 0.04774301 0.22525235 -0.42978972
000330 3c d8 7e bd d8 b6 d4 3d 89 cc e9 3e 3b 48 12 3e
       -0.062217936 0.10386437 0.4566386 0.14285366
000340 34 85 01 bd c1 32 40 be 9b b0 23 3e bb e4 81 bd
       -0.031621173 -0.18769361 0.15985338 -0.06342455
000350 68 b2 22 be 90 b2 be 3e 1a 95 d3 bd f8 a8 af 3d
       -0.15888369 0.37245607 -0.10331173 0.0857715
000360 c5 67 e6 be 13 47 cc be ab ca 84 be b8 c1 89 be
       -0.45001045 -0.39897975 -0.25935873 -0.26905608
000370 bd 02 7b be f2 b9 17 bb 13 b6 93 be 86 0d e5 3d
       -0.24512763 -0.0023151604 -0.2884985 0.1118422
000380 f1 5f 00 be b2 fb 7e be 8f 7a 51 3e cf de 9c 3d
       -0.12536599 -0.24900702 0.20456909 0.07659685
000390 76 53 e3 3d 8b b3 08 bf d1 c6 7b 3e 92 79 6a 3c
       0.11099903 -0.5339896 0.24587561 0.014311211
0003a0 c1 82 2d bd b4 b3 8d 3e 7d 86 07 3e 3b 3c 7e be
       -0.042361025 0.27676165 0.13234897 -0.24827664
0003b0 84 f2 4d 3e fc ea f9 bd 73 f4 b1 3e d0 3c b7 3d
       0.20112044 -0.12203023 0.34756812 0.08947146
0003c0 79 b8 03 be 25 44 8f be 97 b1 b7 3e 56 1c 99 be
       -0.1286334 -0.27981678 0.35877678 -0.2990443
0003d0 1c 95 53 bd d6 60 d1 3d 83 9a 0b bd 52 c1 b1 bd
       -0.051655874 0.10223548 -0.0340829 -0.08679451
0003e0 dc 4b 7e be c5 8e a3 be 73 14 b7 be a1 11 ac be
       -0.24833626 -0.31944862 -0.3575779 -0.336072
0003f0 3e 59 b6 be 12 7c b4 3e d0 7d b8 bd 9f c8 d7 3e
       -0.3561496 0.35250908 -0.09008372 0.4214525
