models/UCF101_lstm_joints_model.pth (torch, 318359 bytes, 42 tensors)

weight_ih_l0 f4 [96, 132]
0.079380006 -0.20287098 -0.14322102 0.09092915 -0.12686914 -0.022694632 0.14966968 0.19391328
-0.051194027 0.03867787 0.05677855 -0.0372182 -0.13541576 -0.123847365 0.028464258 -0.1773034
0.15267009 -0.06131348 -0.18206197 0.088615686 0.0051019043 0.012645975 0.15234566 -0.05692999
-0.16150676 -0.06603505 0.018376023 0.024838224 0.087246686 0.032962635 -0.1813859 -0.009376034
0.14416915 -0.021852985 -0.0419527 0.13023558 -0.08665447 0.149436 0.18304875 0.14694107
-0.053930014 -0.114117794 0.1254532 0.18723404 -0.14100379 0.08387196 0.1771695 0.13933197
0.008651823 0.12544236 0.043860108 0.04423116 -0.18537627 -0.1354135 -0.042710274 -0.12675855
0.1826435 0.10604957 -0.024223685 -0.19931407 -0.14720131 -0.03642802 -0.028081432 0.12609938
0.15615922 -0.14357999 -0.056899235 -0.11750623 0.097682685 -0.08114293 -0.14990032 0.1370585
-0.14139216 -0.16939437 -0.13491994 0.036631808 -0.04146184 -0.1755429 -0.17510556 -0.047238857
0.08862656 0.18286148 0.12656683 0.10048813 -0.10439435 0.09888843 -0.06298038 0.12123445
-0.12815145 -0.19852884 0.18677986 -0.16897921 0.17287675 -0.0720799 0.0025600344 0.19044688
0.058551878 -0.08962732 0.13556495 0.059921622 -0.014891908 0.0782125 0.08056018 0.17208308
-0.06476067 0.18827793 0.1950436 -0.121254146 -0.18313842 0.14470327 0.07154819 0.13470665
0.042004526 -0.088909045 0.091192245 0.08201492 -0.18540603 -0.19319242 -0.15312615 0.104055405
0.17034349 -0.063482106 0.17445335 0.1792796 -0.06238751 0.11682269 -0.11196912 -0.09291706
-0.02564919 0.020605817 -0.08246714 0.13459879 0.03194356 -0.06994283 -0.10402346 0.1296041
-0.06643416 -0.20096664 -0.012891114 -0.15354334 0.15022138 0.0021312982 -0.0056071877 0.050087184
-0.09651861 0.094824284 -0.20194818 -0.11595183 0.13434738 -0.040110633 -0.12458587 0.05439487
-0.11058208 0.09909195 -0.06829716 0.023256332 -0.14170434 0.13910717 -0.06790091 0.08830649
-0.09955801 0.08207503 -0.06813705 -0.024291322 0.037996024 0.11717221 0.025054455 0.10463759
-0.040864363 0.02092287 0.075253636 0.17927998 0.15836638 0.10077825 -0.15662843 -0.11740795
-0.11816155 -0.035233513 -0.11185346 -0.12379247 0.061538428 -0.08671205 0.12181234 0.05445987
-0.16573876 0.20157385 0.15831369 0.08455977 0.20251194 -0.20033485 -0.1818621 0.0070617944
-0.1649926 0.0022051036 -0.028003111 -0.063886136 -0.025140345 -0.024144128 -0.032310575 0.018773288
-0.075112 0.037309676 -0.12681362 -0.07240018 0.08980876 0.050601274 0.081650406 -0.092843674
0.1103068 -0.1982104 -0.12967105 0.1357488 -0.18806411 0.056335866 -0.056513667 0.070557535
-0.021947846 0.14176482 -0.20233983 -0.13442275 0.0733909 0.16012901 -0.037025362 -0.009789243
0.011538193 0.035866737 0.04819995 0.063457936 -0.1405893 0.078608304 -0.1737406 -0.1251577
0.0248463 0.15235522 -0.14488038 -0.14873591 -0.19174442 0.016528577 -0.12736142 -0.18197705
-0.122712724 -0.0664448 0.035849348 0.14367285 0.1985304 -0.09581126 -0.13214363 -0.19912693
0.11236438 -0.1702658 -0.17855415 -0.0009662658 -0.1666339 -0.017728388 0.13050705 0.116832346
00000000: fc91 a23d 69bd 4fbe 88a8 12be 1039 ba3d
00000010: fce9 01be 18ea b9bc 0243 193e 3491 463e
00000020: d4b0 51bd b06c 1e3d a090 683d 1c72 18bd
00000030: 6eaa 0abe b0a3 fdbd e02d e93c 068f 35be
00000040: 8c55 1c3e d823 7bbd 746e 3abe 247c b53d
00000050: e02d a73b 1031 4f3c 8000 1c3e 6c2f 69bd
00000060: 0762 25be 623d 87bd 5089 963c 8879 cb3c
00000070: 64ae b23d d403 073d 3abd 39be f09d 19bc
00000080: 14a1 133e 0805 b3bc 98d6 2bbd 7a5c 053e
00000090: e677 b1bd c005 193e 2271 3b3e b877 163e
000000a0: b8e5 5cbd 97b6 e9bd ce76 003e 48ba 3f3e
000000b0: 4c63 10be 10c5 ab3d ec6b 353e 0aad 0e3e
000000c0: 60c0 0d3c f673 003e a8a6 333d bc2b 353d
000000d0: 47d3 3dbe d6a9 0abe f8f0 2ebd fecc 01be
000000e0: e606 3b3e 8430 d93d c070 c6bc fd18 4cbe
000000f0: f1bb 16be 8c35 15bd 080b e6bc 3220 013e
00000100: 34e8 1f3e a206 13be 2c0f 69bd 1ba7 f0bd
00000110: dc0d c83d 442e a6bd 787f 19be 1059 0c3e
00000120: 1bc9 10be b875 2dbe 7428 0abe 3c0b 163d
00000130: e4d3 29bd 85c1 33be df4e 33be 887d 41bd
00000140: d881 b53d 0a40 3b3e bc9a 013e b8cc cd3d
00000150: b4cc d5bd 0486 ca3d dcfb 80bd c449 f83d
00000160: 223a 03be 254b 4bbe 3843 3f3e e308 2dbe
00000170: 9a06 313e a09e 93bd 40c6 273b 8204 433e
00000180: 18d4 6f3d 878e b7bd 8ad1 0a3e 6070 753d
00000190: 30fd 73bc e02d a03d bcfc a43d 8c36 303e
000001a0: 3ea1 84bd eecb 403e 82b9 473e 1854 f8bd
000001b0: a388 3bbe 182d 143e dc87 923d 8af0 093e
000001c0: f00c 2c3d f215 b6bd 00c3 ba3d 70f7 a73d
000001d0: 14db 3dbe 3cd4 45be 1acd 1cbe 001b d53d
000001e0: 866e 2e3e e802 82bd e6a3 323e 1295 373e
000001f0: 0c8a 7fbd bc40 ef3d 1150 e5bd 4d4b bebd
00000200: 401e d2bc 88cd a83c 88e4 a8bd 44d4 093e
00000210: 40d7 023d 303e 8fbd 400a d5bd f0b6 043e
00000220: a20e 88bd 33ca 4dbe 4035 53bc 773a 1dbe
00000230: a2d3 193e 40ad 0b3b 80bc b7bb 3828 4d3d
00000240: 8dab c5bd 3c33 c23d 81cb 4ebe 2778 edbd
00000250: 5c92 093e 0c4b 24bd e026 ffbd 28cd 5e3d
00000260: dc78 e2bd b8f0 ca3d 62df 8bbd 1084 be3c
00000270: f11a 11be 1c72 0e3e a20f 8bbd 08da b43d
00000280: 12e5 cbbd f416 a83d 708b 8bbd 98fe c6bc
00000290: b8a1 1b3d fcf7 ef3d 003f cd3c 3c4c d63d
000002a0: 6461 27bd 7066 ab3c 941e 9a3d 2c95 373e
000002b0: cc2a 223e d464 ce3d 3463 20be 9473 f0bd
000002c0: affe f1bd 0451 10bd 6d13 e5bd e886 fdbd
000002d0: b80f 7c3d 1696 b1bd c078 f93d 5011 5f3d
000002e0: 6cb7 29be 6069 4e3e fc1c 223e ac2d ad3d
000002f0: 4a5f 4f3e 9424 4dbe 0f3a 3abe a066 e73b
00000300: d2f3 28be 8083 103b c866 e5bc bcd6 82bd
00000310: 20f3 cdbc e8c9 c5bc 1858 04bd 70ca 993c
00000320: 52d4 99bd 08d2 183d 6edb 01be 8c46 94bd
00000330: a8ed b73d 4843 4f3d 5438 a73d d324 bebd
00000340: 88e8 e13d abf7 4abe 7dc8 04be bc01 0b3e
00000350: e193 40be 70c0 663d e07a 67bd 7880 903d
00000360: f8cb b3bc cc2a 113e 2c32 4fbe 1ea6 09be
00000370: f84d 963d dcf8 233e e8a7 17bd 1063 20bc
00000380: b00a 3d3c 00e9 123d 506d 453d 3cf6 813d
00000390: a4f6 0fbe 64fd a03d 0ee9 31be 5729 00be
000003a0: 788a cb3c 0203 1c3e 865b 14be 3a4e 18be
000003b0: a658 44be f066 873c 086b 02be 3158 3abe
000003c0: cf50 fbbd 3614 88bd c4d6 123d fa1e 133e
000003d0: 8e4b 4b3e b238 c4bd a950 07be eee7 4bbe
000003e0: 4c1f e63d 285a 2ebe e6d6 36be 004d 7dba
000003f0: 14a2 2abe 203b 91bc a4a3 053e cc45 ef3d

weight_hh_l0 f4 [96, 24]
0.1323453 -0.1783262 0.23660874 -0.004213332 -0.21920195 0.27015206 -0.21500322 0.20679234
-0.13749327 -0.06844632 0.22402601 0.15192959 0.08653879 -0.10878698 -0.0044798707 -0.07391191
0.02586129 0.032807574 -0.26435977 0.04822551 -0.047185782 0.018850327 0.06798791 -0.193398
0.04271867 -0.03631793 0.10852061 -0.10449658 -0.32084057 0.030634811 0.08281659 0.054926712
0.051772684 -0.009138329 0.1571445 0.17031512 0.039790057 -0.10008479 0.1952132 0.086664766
-0.06388237 -0.037836626 -0.06765553 0.22691987 -0.2480884 -0.07608034 -0.01476596 -0.28701037
0.042679552 0.16198437 -0.07494316 0.20406534 0.028050698 -0.026326073 0.16725269 0.020216493
0.052183498 0.08777482 0.06582598 -0.041128796 -0.11897578 0.053345796 -0.09664916 -0.016622828
0.12548506 0.17465441 0.016360719 0.23585922 -0.05125539 0.17815036 0.23711422 0.006391523
0.13401672 0.020829212 0.026142843 0.23057495 -0.08060324 0.30443114 0.18483146 0.0760419
0.03657263 0.24701813 0.25096083 0.23627685 0.2870613 -0.20074166 -0.049323093 0.17970054
-0.17174612 -0.08726405 -0.1846765 -0.064165145 -0.11665408 -0.14555167 -0.17328778 -0.1447601
0.1303335 0.08467736 0.18441924 0.13060656 -0.34341174 0.046302516 -0.2167219 0.2667693
-0.06156501 0.116611175 0.109205626 0.11737998 0.15604247 0.060694467 0.0056461818 -0.0004739128
-0.14983347 0.05004897 -0.35153386 0.1766385 0.11230647 0.057279784 0.15927422 -0.16686994
0.033119876 0.15389282 0.16565403 0.22767979 -0.2634828 0.23687324 0.28979504 0.38224426
0.15628895 0.33089775 -0.1330437 0.015035776 0.39359486 -0.014328268 -0.2635805 -0.0071434774
-0.09179374 0.11747825 -0.1234833 0.12012151 -0.2539629 0.07392396 0.017228631 -0.13624403
0.09431001 -0.22702466 0.156073 0.31626225 -0.07370151 0.25448763 -0.021842739 0.109422274
-0.09713984 0.03813851 0.26306137 0.048760194 -0.105831355 0.05815814 -0.17428371 -0.13753618
-0.34917423 0.06777829 -0.19961177 0.18813176 0.1309057 0.30142587 0.11377143 -0.034839105
0.1737071 -0.27206108 0.23836756 0.010257772 -0.14410143 0.098223366 -0.19171064 0.21865362
0.14559183 0.10572361 -0.10401531 0.110007964 -0.14776717 0.015102648 0.06084478 -0.0170038
-0.05101477 0.26764402 0.03179067 0.2512165 -0.11603864 0.21245767 0.18128383 -0.10312973
0.09552133 -0.036958102 0.17708991 0.058563374 -0.32620308 0.30499145 -0.09905664 0.36369196
-0.10257875 -0.09037176 0.14289063 0.005795344 0.11709597 -0.015881842 -0.076082006 0.15253194
-0.061194345 0.24780029 -0.15654235 -0.10054163 -0.028844362 0.04226816 0.029731557 -0.2776477
-0.07556554 -0.04522604 -0.015870914 0.21011308 0.01212258 0.20746593 -0.08751424 0.044639893
-0.21407323 0.06896552 0.07803253 0.12823695 0.00421376 0.07814359 -0.014921535 0.026959883
0.06397815 -0.14783743 0.049385823 0.08226097 -0.05141993 0.0854715 -0.17568433 -0.11430409
-0.12432432 0.0023738286 -0.032310937 -0.068058774 -0.2645174 0.1362098 -0.054325253 -0.011298953
-0.07932513 0.26255697 0.0021950922 0.005143256 0.17858143 0.020834966 0.12130309 0.13944247
00000000: 8785 073e 259b 36be 9049 723e fe0f 8abb
00000010: 7a76 60be 5f51 8a3e ce29 5cbe 5fc1 533e
00000020: 09cb 0cbe 962d 8cbd 1367 653e 6e93 1b3e
00000030: 403b b13d b5cb debd e1cb 92bb 215f 97bd
00000040: 0edb d33c 3c61 063d 2a5a 87be 1d88 453d
00000050: e145 41bd 006c 9a3c 3f3d 8b3d 200a 46be
00000060: c6f9 2e3d 1cc2 14bd 0e40 de3d 4e02 d6bd
00000070: 3745 a4be dbf5 fa3c bf9b a93d d5fa 603d
00000080: 980f 543d eeb8 15bc 7dea 203e 1667 2e3e
00000090: e6fa 223d 41f9 ccbd f8e5 473e 4c7d b13d
000000a0: c3d4 82bd 94fa 1abd fc8e 8abd af5d 683e
000000b0: e30a 7ebe 02d0 9bbd edec 71bc 06f3 92be
000000c0: c1d0 2e3d 3bdf 253e cd7b 99bd 81f6 503e
000000d0: 94ca e53c c7a9 d7bc 4a44 2b3e 0f9d a53c
000000e0: 5dbe 553d 49c3 b33d c5cf 863d ab76 28bd
000000f0: 93a9 f3bd 1f81 5a3d ffef c5bd 992c 88bc
00000100: 287f 003e 9bd8 323e ea06 863c 1485 713e
00000110: 2cf1 51bd 0c6d 363e 12ce 723e fb6f d13b
00000120: ae3b 093e 06a2 aa3c 8429 d63c d71b 6c3e
00000130: 5013 a5bd 66de 9b3e 7544 3d3e dbbb 9b3d
00000140: 2fcd 153d 52f2 7c3e f07d 803e 8ff2 713e
00000150: b3f9 923e 398f 4dbe 0307 4abd 6b03 383e
00000160: 37de 2fbe 7fb7 b2bd d61b 3dbe 0469 83bd
00000170: 56e8 eebd 7f0b 15be 5a72 31be fe3b 14be
00000180: 2576 053e 536b ad3d 66d8 3c3e babd 053e
00000190: aad3 afbe b5a7 3d3d 59ec 5dbe fc95 883e
000001a0: 982b 7cbd d7d1 ee3d 33a7 df3d ea64 f03d
000001b0: 99c9 1f3e c39a 783d 9b03 b93b 8077 f8b9
000001c0: f26d 19be 2600 4d3d 3ffc b3be b9e0 343e
000001d0: ef00 e63d 359e 6a3d c818 233e f4df 2abe
000001e0: b5a8 073d 1496 1d3e 36a1 293e e424 693e
000001f0: 38e7 86be e68e 723e 0460 943e 85b5 c33e
00000200: 360a 203e 6e6b a93e 9c3c 08be 9e58 763c
00000210: 4485 c93e 1dc1 6abc 06f4 86be d513 eabb
00000220: 5bfe bbbd 7098 f03d d0e4 fcbd 4402 f63d
00000230: 6d07 82be 7265 973d 0f23 8d3c 8e83 0bbe
00000240: 9b25 c13d 2779 68be 9ad1 1f3e 20ed a13e
00000250: d1f0 96bd 344c 823e 8bef b2bc c918 e03d
00000260: 41f1 c6bd 2037 1c3d fbaf 863e c5b8 473d
00000270: 1cbe d8bd 3b37 6e3d 6e77 32be 49d6 0cbe
00000280: f7c6 b2be 58cf 8a3d 0767 4cbe 9da5 403e
00000290: 250c 063e 7e54 9a3e ff00 e93d 73b3 0ebd
000002a0: 46e0 313e 974b 8bbe a016 743e 3710 283c
000002b0: 538f 13be 5529 c93d cb4f 44be bce6 5f3e
000002c0: 0616 153e 9f85 d83d fb05 d5bd db4b e13d
000002d0: 4750 17be 1971 773c 6038 793d 8e4b 8bbc
000002e0: ddf4 50bd a308 893e ef36 023d 739f 803e
000002f0: aba5 edbd 818e 593e 78a2 393e ae35 d3bd
00000300: b0a0 c33d 6161 17bd 0f57 353e 26e0 6f3d
00000310: 1704 a7be d727 9c3e 35de cabd d535 ba3e
00000320: cf14 d2bd d414 b9bd ec51 123e dee6 bd3b
00000330: 03d0 ef3d a31a 82bc e2d0 9bbd 5531 1c3e
00000340: eca6 7abd 5cbf 7d3e a34c 20be c5e8 cdbd
00000350: 034b ecbc 6121 2d3d 988f f33c d727 8ebe
00000360: 1bc2 9abd f13e 39bd b803 82bc e227 573e
00000370: c99d 463c f371 543e aa3a b3bd 52d8 363d
00000380: 0336 5bbe cb3d 8d3d 85cf 9f3d 8c50 033e
00000390: 9513 8a3b bf09 a03d 7479 74bc f9da dc3c
000003a0: fa06 833d b262 17be ca48 4a3d 7078 a83d
000003b0: b49d 52bd af0b af3d 98e6 33be 4318 eabd
000003c0: c09d febd 3c92 1b3b 7958 04bd 6662 8bbd
000003d0: d36e 87be 957a 0b3e 2884 5ebd 3e1f 39bc
000003e0: 3775 a2bd de6d 863e 89db 0f3b c288 a83b
000003f0: 0dde 363e 17ae aa3c c16d f83d 02ca 0e3e

bias_ih_l0 f4 [96]
-0.2878505 -0.0500396 -0.13745993 0.03663252 -0.30556682 -0.11819513 -0.07959721 -0.05029152
-0.24846211 -0.1990638 0.113635466 -0.21122696 -0.38126096 -0.08418296 -0.03416038 0.034276728
-0.3267989 0.013035692 0.0241085 -0.09454576 -0.05863405 -0.25330943 -0.08627753 -0.40111268
-0.32385352 -0.08711662 -0.025866944 0.06363594 -0.18508859 -0.4243504 -0.36266258 -0.037961356
0.05130063 -0.0064032082 -0.2627612 -0.33032304 -0.106659435 -0.3014794 -0.19070458 0.03509556
0.06460075 0.036248017 -0.26978895 0.05167311 0.02981206 -0.012909108 -0.16057074 -0.19785827
0.18132879 0.018428229 -0.07130314 -0.047326803 0.015098481 0.096078746 -0.04562005 0.026037842
0.13251118 -0.10234571 -0.16150743 0.029607011 0.051538534 0.05941945 0.098341204 -0.120834775
0.10617879 -0.13426079 0.08361623 0.047839183 0.14167525 -0.049154866 -0.15796426 0.13058972
-0.0366339 -0.21292461 0.0087120375 -0.25115347 -0.0029208441 -0.34769657 -0.11262392 -0.16685328
-0.14986107 -0.069642335 0.033114705 -0.16184992 -0.3711338 -0.32178718 -0.16657554 -0.16606365
-0.061127655 -0.14598407 -0.2450993 0.09134763 -0.19409244 -0.27477306 -0.13590316 -0.13119915
00000000: 2461 93be 53f6 4cbd 4cc2 0cbe fb0b 163d
00000010: 4173 9cbe 4a10 f2bd dd03 a3bd 7bfe 4dbd
00000020: da6c 7ebe 61d7 4bbe b6b9 e83d e14b 58be
00000030: a334 c3be 1e68 acbd c1eb 0bbd c165 0c3d
00000040: 2f52 a7be a893 553c 307f c53c 35a1 c1bd
00000050: 422a 70bd c6b1 81be 46b2 b0bd a45e cdbe
00000060: 21d0 a5be 336a b2bd eae6 d3bc 8f53 823d
00000070: dd87 3dbe 7544 d9be e9ae b9be 5e7d 1bbd
00000080: 9c20 523d 01d2 d1bb a388 86be 1a20 a9be
00000090: 4370 dabd 825b 9abe 1048 43be 5dc0 0f3d
000000a0: 664d 843d cd78 143d c721 8abe 2fa7 533d
000000b0: 6c38 f43c b980 53bc a86c 24be 5c9b 4abe
000000c0: 41ae 393e ccf6 963c 6107 92bd c0d9 41bd
000000d0: 9f5f 773c efc4 c43d 17dc 3abd 504d d53c
000000e0: 03b1 073e a19a d1bd 3462 25be 678a f23c
000000f0: 121a 533d cf61 733d 1d67 c93d 3978 f7bd
00000100: 4474 d93d a97b 09be fc3e ab3d 05f3 433d
00000110: 5113 113e 9d56 49bd 62c1 21be 50b9 053e
00000120: 6e0d 16bd e908 5abe efbc 0e3c 3097 80be
00000130: a26b 3fbb 4905 b2be 5fa7 e6bd 96db 2abe
00000140: 2e75 19be a4a0 8ebd 49a3 073d fcbb 25be
00000150: 4005 bebe 4ac1 a4be c792 2abe 970c 2abe
00000160: fe60 7abd d97c 15be 50fb 7abe 7714 bb3d
00000170: 2bc0 46be 0eaf 8cbe 332a 0bbe 1259 06be

bias_hh_l0 f4 [96]
-0.15653834 -0.1444701 0.11581135 -0.2848564 -0.10178345 -0.35099044 -0.14263761 -0.0794635
-0.07336377 -0.014162937 -0.129306 -0.31379983 -0.3224177 -0.2098688 -0.17386323 -0.06161137
-0.035806987 -0.17272952 0.027528033 -0.084302805 0.035586607 -0.13321301 -0.37707782 -0.2088382
-0.002428137 -0.06543345 -0.056943253 -0.17372191 -0.0369174 -0.18874909 -0.1010697 -0.07010889
0.10819225 -0.06452329 0.057389006 0.040738508 -0.22541456 0.03536261 -0.22878578 0.052399803
-0.14046906 -0.18166693 -0.23908211 -0.08046997 -0.04215797 -0.23736338 -0.24912395 -0.3177878
-0.13459314 0.008138215 -0.019103607 -0.067548946 0.05135097 -0.05942604 0.03705052 -0.05427871
-0.10619199 -0.06722845 0.12304483 -0.122943036 -0.090871334 0.026605813 -0.07790819 0.05105051
-0.041616626 0.009687878 0.062735245 -0.14868763 -0.08835656 -0.018863007 0.19411868 -0.08559703
-0.16935633 -0.33531678 -0.08357791 -0.11235553 -0.2803983 -0.19266458 0.0050642793 -0.16211395
-0.26003557 0.038780153 -0.10537708 -0.083550565 -0.13425744 -0.2372027 0.05510417 -0.19243181
-0.25626397 0.015190818 -0.31458682 -0.17605777 0.072947115 -0.03226117 -0.2233425 -0.19238925
00000000: 964b 20be f8ef 13be 802e ed3d b3d8 91be
00000010: d773 d0bd 05b5 b3be 980f 12be c2bd a2bd
00000020: bf3f 96bd aa0b 68bc cb68 04be 5faa a0be
00000030: ef13 a5be d9e7 56be 3409 32be 345c 7cbd
00000040: 59aa 12bd 02e0 30be 7882 e13c f3a6 acbd
00000050: 43c3 113d fe68 08be 5810 c1be aed9 55be
00000060: 6121 1fbb f901 86bd 543d 69bd 28e4 31be
00000070: b336 17bd 7147 41be a2fd cebd 4095 8fbd
00000080: e693 dd3d c924 84bd bc10 6b3d 6cdd 263d
00000090: 13d3 66be 62d8 103d d246 6abe 2da1 563d
000000a0: 1fd7 0fbe e506 3abe f1d1 74be 71cd a4bd
000000b0: d6ad 2cbd 630f 73be 591a 7fbe 15b5 a2be
000000c0: c9d2 09be 2656 053c 2b7f 9cbc 1a57 8abd
000000d0: 6555 523d b868 73bd 49c2 173d 5a53 5ebd
000000e0: 307b d9bd 12af 89bd eefe fb3d 8fc9 fbbd
000000f0: c01a babd 6ff4 d93c 548e 9fbd 571a 513d
00000100: 3276 2abd e8b9 1e3c 567b 803d 9241 18be
00000110: 49f4 b4bd 9886 9abc 0cc7 463e 7f4d afbd
00000120: bf6b 2dbe a4ae abbe e52a abbd a81a e6bd
00000130: 5e90 8fbe dd49 45be 41f2 a53b 3301 26be
00000140: 6223 85be f0d7 1e3d f0cf d7bd 8f1c abbd
00000150: c87a 09be 44e5 72be e9b4 613d d80c 45be
00000160: 0835 83be e9e2 783c 8611 a1be 7d48 34be
00000170: 4c65 953d 4a24 04bd e5b3 64be b001 45be

weight_ih_l1 f4 [96, 24]
-0.037647594 -0.0007391102 -0.14185333 0.101267904 0.063870296 -0.03687578 0.12514058 0.10004026
0.14171743 0.17553344 -0.1671709 0.16339089 0.08832459 0.14024086 0.07306409 -0.0762188
0.032613043 0.0799431 0.050972413 0.07558861 0.11064617 -0.20099522 0.08642102 0.053675324
0.11206004 -0.11350231 0.14072259 -8.9232075e-05 -0.45516253 0.40420872 -0.1434371 0.30391
-0.090157725 0.3914934 0.21481302 0.057861704 0.23427801 -0.17674746 0.11980346 0.23344144
-0.09680614 0.15199967 -0.047849793 0.2109647 -0.2296748 0.09632294 -0.19458565 -0.1763419
0.01202584 -0.16339797 0.31656197 -0.0032668775 -0.1907628 0.06818861 -0.035469394 0.10302348
-0.009530722 -0.105494924 0.13049506 0.17321254 0.124415 -0.10986398 -0.12377054 -0.084827684
0.04461324 -0.16333261 -0.028029127 -0.09292993 0.17271675 -0.14541022 -0.13834503 -0.09481249
0.052152205 -0.23159775 -0.09313413 0.18375964 -0.3306942 0.069886476 -0.06579701 0.34786734
0.029800512 -0.019030483 -0.038330264 -0.07214215 0.027385166 -0.038840216 0.08516013 0.16808733
-0.13832903 -0.062688105 -0.1806237 0.016476218 -0.12348331 0.22216213 0.016295863 -0.16933168
-0.17192982 -0.29797417 0.008117791 0.15996504 -0.13479239 -0.08535388 0.044457644 0.07098863
-0.07739168 0.024601528 0.13079599 0.2772655 -0.14858773 -0.31439582 -0.13723437 -0.107863806
-0.20627213 0.24267866 -0.05330029 0.08430898 0.03404328 0.18336324 -0.10978959 0.039669737
0.054729365 0.05748269 0.2917042 -0.06854743 -0.019010682 0.2668973 -0.05564975 0.3307225
0.11610707 0.17036901 -0.05861228 0.032746546 -0.044411734 -0.10209431 0.013322352 -0.10203294
0.037657194 0.21718489 -0.072146155 -0.047042064 0.14830603 -0.07405486 0.074100375 -0.3734589
-0.0035648518 -0.05353607 -0.04355371 0.32139304 -0.31716743 0.3524847 -0.058405913 0.29025355
-0.27923167 0.32484794 0.13637173 0.29879132 -0.09076908 -0.18525785 0.123614684 0.14128399
-0.0837 0.36736143 -0.2798876 0.34526062 -0.119749874 -0.05088106 -0.22213179 -0.30554467
0.12645495 -0.00019814997 0.2494674 0.002939146 -0.24811128 0.47706679 0.15451208 0.1005626
0.107472405 0.20702617 -0.033977456 0.12111963 0.34809983 -0.017589744 -0.09523878 -0.19343318
-0.19712734 -0.11421055 0.04339733 0.16108803 0.1474076 0.15711986 -0.12306531 -0.17530169
0.11138413 -0.24757494 0.2561345 0.29863268 -0.31474873 0.24666786 -0.20561981 0.15749778
0.17948428 0.318123 -0.07352711 0.11202341 -0.031430192 0.017446421 -0.096912004 0.10853842
-0.11167964 0.058286656 -0.3643906 -0.08236522 -0.06007145 -0.07187716 -0.20439352 -0.048477557
-0.049686555 0.020440731 0.2885706 0.02964602 -0.19554383 0.32244223 -0.07566541 0.25640053
-0.06895442 -0.113799684 0.0190789 0.25052905 0.034667015 -0.23011672 -0.0003084334 -0.19102116
0.00437007 0.22494896 -0.16787623 0.07451066 -0.14326973 0.17913713 -0.21721962 -0.043646578
-0.23455784 0.049121615 -0.0038542773 0.26360163 -0.36740673 0.20991874 -0.13721845 0.18191552
0.15711583 -0.03446658 0.1291151 0.27720773 0.11249331 -0.16029656 0.041775804 0.16257921
00000000: 5d34 1abd d9c0 41ba 0042 11be 8c65 cf3d
00000010: 6ece 823d 0f0b 17bd da24 003e e8e1 cc3d
00000020: 601e 113e 0abf 333e d92e 2bbe f14f 273e
00000030: 86e3 b43d 4d9b 0f3e a0a2 953d 9a18 9cbd
00000040: 4195 053d 35b9 a33d 73c8 503d 33ce 9a3d
00000050: 769a e23d b1d1 4dbe 81fd b03d a8da 5b3d
00000060: bc7f e53d e673 e8bd 9519 103e 1b22 bbb8
00000070: 100b e9be 72f4 ce3e 2de1 12be 179a 9b3e
00000080: 9da4 b8bd d371 c83e f2f7 5b3e 6500 6d3d
00000090: 93e6 6f3e 49fd 34be 845b f53d 460b 6f3e
000000a0: 4c42 c6bd cda5 1b3e 25fe 43bd 2107 583e
000000b0: df2f 6bbe f644 c53d 7641 47be f992 34be
000000c0: 0708 453c cc51 27be 6914 a23e 1c19 56bb
000000d0: 5357 43be 78a6 8b3d 5b48 11bd f9fd d23d
000000e0: bf26 1cbc b90d d8bd 7fa0 053e a15e 313e
000000f0: 4bcd fe3d 5e00 e1bd 697b fdbd 23ba adbd
00000100: 5fbc 363d aa40 27be 579d e5bc 0c52 bebd
00000110: a9dc 303e 6be6 14be 52aa 0dbe 0d2d c2bd
00000120: 8d9d 553d f627 6dbe 1bbd bebd 7d2b 3c3e
00000130: c050 a9be a420 8f3d 95c0 86bd ab1b b23e
00000140: 3420 f43c d1e5 9bbc 3200 1dbd 43bf 93bd
00000150: db56 e03c eb16 1fbd 6f68 ae3d 161f 2c3e
00000160: 20a6 0dbe 9f62 80bd 6bf5 38be 22f9 863c
00000170: d1e4 fcbd 787e 633e e77e 853c 4965 2dbe
00000180: 5f0e 30be 1290 98be 7c00 053c e0cd 233e
00000190: 0407 0abe 04ce aebd 3819 363d 7d62 913d
000001a0: 877f 9ebd 2589 c93c 62ef 053e bef5 8d3e
000001b0: 6227 18be 7df8 a0be 2b87 0cbe b3e7 dcbd
000001c0: 0039 53be c180 783e 6851 5abd 30aa ac3d
000001d0: f770 0b3d 93c3 3b3e 5dd9 e0bd bc7c 223d
000001e0: e62b 603d f872 6b3d 415a 953e 9862 8cbd
000001f0: 4abc 9bbc c3a6 883e fef0 63bd 7654 a93e
00000200: 8bc9 ed3d 3775 2e3e 6e13 70bd 3e21 063d
00000210: 14e9 35bd d216 d1bd ff45 5a3c a5f6 d0bd
00000220: 6e3e 1a3d b765 5e3e 5dc1 93bd 2eaf 40bd
00000230: 89dd 173e 13aa 97bd f0c1 973d 0136 bfbe
00000240: 4aa0 69bb a348 5bbd 6065 32bd a18d a43e
00000250: c563 a2be e078 b43e 0a3b 6fbd 1d9c 943e
00000260: 74f7 8ebe 7852 a63e 08a5 0b3e 2dfb 983e
00000270: 24e5 b9bd 3cb4 3dbe b229 fd3d c0ac 103e
00000280: e86a abbd cc16 bc3e 6d4d 8fbe 00c6 b03e
00000290: 6c3f f5bd a968 50bd 8476 63be 5a70 9cbe
000002a0: 687d 013e 7ac6 4fb9 6274 7f3e b09e 403b
000002b0: e210 7ebe 1942 f43e 6a38 1e3e c4f3 cd3d
000002c0: 7e1a dc3d abfe 533e f22b 0bbd 920d f83d
000002d0: 243a b23e 5e18 90bc 8d0c c3bd 5913 46be
000002e0: c0db 49be 39e7 e9bd 66c1 313d 43f4 243e
000002f0: 05f2 163e 07e4 203e aa09 fcbd 4982 33be
00000300: 5d1d e43d 4984 7dbe 1024 833e 62e6 983e
00000310: bf26 a1be 8096 7c3e 008e 52be 1947 213e
00000320: baca 373e 05e1 a23e 6295 96bd 886c e53d
00000330: f2bc 00bd cceb 8e3c cd79 c6bd 6449 de3d
00000340: 4cb8 e4bd fdbd 6e3d 6891 babe 19af a8bd
00000350: 7b0d 76bd 5534 93bd 894c 51be 6790 46bd
00000360: 2184 4bbd 5273 a73c 87bf 933e 36dc f23c
00000370: a43c 48be 2617 a53e 77f6 9abd ee46 833e
00000380: fa37 8dbd cf0f e9bd 5a4b 9c3c 5845 803e
00000390: 00ff 0d3d b8a3 6bbe 3bb5 a1b9 0d9b 43be
000003a0: ce32 8f3b 0559 663e bfe7 2bbe 0b99 983d
000003b0: 4db5 12be b96f 373e d26e 5ebe c1c6 32bd
000003c0: ee2f 70be bf33 493d 0b98 7cbb cbf6 863e
000003d0: bc1c bcbe f0f4 563e fe82 0cbe 1048 3a3e
000003e0: f9e2 203e d42c 0dbd c036 043e 2cee 8d3e
000003f0: e462 e63d c824 24be 1b1d 2b3d 2a7b 263e

weight_hh_l1 f4 [96, 24]
0.2043551 -0.044513457 -0.1949514 -0.13598827 0.011545723 0.07947264 0.0024430011 0.008378992
0.02126023 0.1668069 -0.0007238209 -0.15921973 0.13634905 -0.10238078 -0.17514275 -0.088673785
0.093507715 0.1284375 -0.09803879 -0.2270652 0.041311603 -0.0391517 -0.11264935 -0.25070584
0.45236444 -0.15776664 -0.28041708 -0.07696171 0.037186816 -0.28544995 -0.015915237 -0.020424467
0.03522019 -0.21719907 -0.14769654 0.06627205 0.29278833 0.107997864 0.1021266 0.038999762
-0.010047112 0.28972414 -0.14846434 -0.26258162 -0.15172456 0.03826307 0.21477997 0.046797805
0.28821132 -0.15657902 0.066263705 0.01563754 -0.13213907 0.122035444 -0.18696143 0.041918922
0.1494609 0.00875338 0.04498838 0.08379746 -0.16733457 -0.1465994 0.042174187 0.15155165
-0.05027702 -0.07488632 -0.09972962 -0.06266827 -0.10075373 0.107017525 -0.12814032 0.17876758
0.37057525 -0.03165423 -0.09489075 0.10110084 0.07850548 -0.09147269 -0.16267043 0.0009825438
0.26081115 -0.27434936 0.0978322 -0.059443474 0.032275498 -0.0788934 0.17531507 0.028411848
0.1662981 0.21139488 -0.22891125 -0.15072139 -0.1395091 0.32694557 0.24113783 -0.14176916
-0.01918709 -0.08257245 -0.31161496 -0.08033389 0.121056415 -0.15754 0.07961723 0.24385177
-0.07198267 -0.0546135 0.048461184 0.013870973 0.05980636 0.01503887 -0.025143934 -0.013172256
0.16784267 0.16552737 -0.24783689 0.0050885146 -0.2697564 0.30236083 0.25173908 0.17630135
0.36523008 -0.20543419 -0.25565568 -0.0667927 -0.17457774 -0.26209617 -0.17657024 -0.057518367
-0.032832216 -0.1587883 -0.050258838 0.04689627 -0.080449454 -0.06216008 -0.0970396 0.106293656
0.016356861 -0.11395396 -0.045687374 0.06606107 -0.2015738 0.1185304 -0.14624679 0.21850641
0.339147 -0.015805382 -0.081131026 -0.19304788 0.14683585 -0.13853502 -0.15476549 0.20875008
0.0061908285 0.08835122 0.043913197 0.038658537 -0.13055173 -0.021037174 0.153358 -0.036804747
0.03236881 -0.017067397 -0.37547404 -0.19559734 -0.26979828 0.2611866 0.25293738 0.05973137
0.24020457 -0.18334037 0.020803774 -0.06396107 -0.11657264 0.12623002 0.014069539 0.19843388
-0.1383585 0.14387563 -0.24299778 0.3350433 -0.2919295 0.080130875 -0.056249544 0.124060676
-0.13957101 0.2640534 -0.22685617 -0.092534505 -0.13287011 -0.03263619 -0.04879619 -0.14708062
0.4429534 0.22343509 -0.23685548 -0.1745915 0.085865 0.041017454 0.0017600744 0.32453203
0.3752015 0.03719572 0.15857928 0.114731826 0.06752355 0.0651186 -0.07381296 0.06268528
0.17957143 0.29217786 0.05874672 0.09637239 0.08087479 0.16414699 0.28929898 0.12270495
0.24232724 -0.043608226 -0.16143663 -0.100113176 0.17208947 -0.1245215 -0.28948286 0.18685384
0.08857735 0.019087454 -0.09303706 0.32569182 0.10020008 -0.09818998 -0.107643865 -0.13871448
0.037602514 -0.11585838 0.16045035 -0.0598781 -0.18652509 -0.06809698 0.12768307 -0.08012876
0.2052847 0.20774795 -0.3070045 -0.23514338 0.0039903116 -0.3036837 0.041661628 0.100350425
0.13390054 -0.22271964 -0.083806425 0.20584485 -0.08070803 -0.045954343 0.029093176 -0.0653825
00000000: 7742 513e be53 36bd 57a1 47be 8240 0bbe
00000010: 462a 3d3c 8dc2 a23d c21a 203b 0a48 093c
00000020: ef29 ae3c 6ecf 2a3e ccbe 3dba 7f0a 23be
00000030: 169f 0b3e 04ad d1bd 9f58 33be 9a9a b5bd
00000040: f980 bf3d 1f85 033e 90c8 c8bd c883 68be
00000050: 5b36 293d 885d 20bd b4b4 e6bd 845c 80be
00000060: 509c e73e 948d 21be d492 8fbe 1a9e 9dbd
00000070: 3451 183d 7f26 92be ac60 82bc 3651 a7bc
00000080: 0c43 103d 6f69 5ebe c33d 17be a4b9 873d
00000090: 5ae8 953e fc2d dd3d c027 d13d 37be 1f3d
000000a0: a49c 24bc b956 943e 0907 18be 1971 86be
000000b0: af5d 1bbe bdb9 1c3d 48ef 5b3e 0eaf 3f3d
000000c0: 6f90 933e 4056 20be 44b5 873d 4c1a 803c
000000d0: 774f 07be b8ed f93d d172 3fbe 2db3 2b3d
000000e0: 470c 193e 566a 0f3c bc45 383d 019e ab3d
000000f0: c159 2bbe 271e 16be d7be 2c3d 5b30 1b3e
00000100: 47ef 4dbd 005e 99bd 0b3f ccbd 3958 80bd
00000110: f957 cebd 012c db3d 3737 03be d90e 373e
00000120: 0abc bd3e dea7 01bd 1556 c2bd f50d cf3d
00000130: 7bc7 a03d 0956 bbbd 1493 26be b3c8 803a
00000140: 0a89 853e 8577 8cbe 405c c83d 007b 73bd
00000150: 5033 043d dd92 a1bd cb85 333e f7bf e83c
00000160: 0d4a 2a3e e677 583e b667 6abe b556 1abe
00000170: 79db 0ebe 6965 a73e d6ec 763e ef2b 11be
00000180: 3f2e 9dbc bf1b a9bd ff8b 9fbe 1886 a4bd
00000190: 6dec f73d 2a52 21be 5c0e a33d 47b4 793e
000001a0: a66b 93bd 68b2 5fbd 3c7f 463d 1443 633c
000001b0: 84f7 743d 9865 763c a7fa cdbc 72d0 57bc
000001c0: f3de 2b3e 0280 293e f4c8 7dbe 8ebd a63b
000001d0: 831d 8abe 0acf 9a3e f2e3 803e 5788 343e
000001e0: 70ff ba3e 575d 52be 4de5 82be 9cca 88bd
000001f0: 82c4 32be 7831 86be d4ce 34be 6198 6bbd
00000200: 137b 06bd 6699 22be 36dc 4dbd 4e16 403d
00000210: afc2 a4bd 919b 7ebd b3bc c6bd 7db0 d93d
00000220: d3fe 853c b260 e9bd af22 3bbd 074b 873d
00000230: 5d69 4ebe 11c0 f23d b8c1 15be 25c0 5f3e
00000240: ada4 ad3e 4a7a 81bc 0628 a6bd 58ae 45be
00000250: 235c 163e 20dc 0dbe d87a 1ebe 95c2 553e
00000260: 6fdc ca3b 7cf1 b43d 53de 333d 6a58 1e3d
00000270: 5aaf 05be 2756 acbc e109 1d3e 93c0 16bd
00000280: 2895 043d edd0 8bbc 223e c0be ab4a 48be
00000290: 0023 8abe 40ba 853e 0281 813e e2a8 743d
000002a0: 30f8 753e 94bd 3bbe ad6c aa3c 05fe 82bd
000002b0: a3bd eebd 7142 013e ec83 663c 4032 4b3e
000002c0: daad 0dbe 2254 133e 69d4 78be cc8a ab3e
000002d0: c977 95be a81b a43d ec65 66bd 8613 fe3d
000002e0: b4eb 0ebe 0232 873e fc4c 68be bb82 bdbd
000002f0: 1a0f 08be 87ad 05bd 84de 47bd 4d9c 16be
00000300: caca e23e 2bcc 643e 3e8a 72be 1dc8 32be
00000310: fdd9 af3d eb01 283d 4cb2 e63a 1029 a63e
00000320: 691a c03e 8a5a 183d 9b62 223e 85f8 ea3d
00000330: c949 8a3d e75c 853d 402b 97bd 2461 803d
00000340: 93e1 373e 5698 953e 67a0 703d e35e c53d
00000350: afa1 a53d 2616 283e ff1e 943e bc4c fb3d
00000360: a224 783e 8a9e 32bd a54f 25be 2308 cdbd
00000370: 3938 303e 2105 ffbd 1937 94be 9d56 3f3e
00000380: 0b68 b53d 4b5d 9c3c 378a bebd 14c1 a63e
00000390: b335 cd3d d417 c9bd 6374 dcbd 2b0b 0ebe
000003a0: 1805 1a3d 2947 edbd 194d 243e bd42 75bd
000003b0: 6f00 3fbe 6e76 8bbd 5abf 023e 8c1a a4bd
000003c0: 2736 523e e1bb 543e b22f 9dbe 6dc9 70be
000003d0: 29c1 823b 6e7c 9bbe 62a5 2a3d 8684 cd3d
000003e0: 391d 093e 9e10 64be b4a2 abbd fec8 523e
000003f0: 404a a5bd 9f3a 3cbd d054 ee3c 43e7 85bd

bias_ih_l1 f4 [96]
-0.117420375 -0.29726085 0.041158687 -0.37243378 -0.22697864 -0.3280878 -0.23118931 -0.30004263
-0.4358763 -0.30821857 -0.3653323 -0.0854623 -0.4678185 -0.122682035 -0.22861989 0.082699426
-0.22395277 0.10749683 -0.040903784 -0.3124279 -0.33265528 -0.04178387 -0.3576903 0.07247031
-0.074101485 -0.2325006 -0.14007679 -0.08863084 -0.23996979 -0.21893054 -0.21002226 0.015466875
-0.28185377 -0.124667704 -0.17652543 -0.19087887 -0.21725945 -0.19867215 -0.021929782 -0.052667182
-0.310909 -0.17949386 0.03467724 -0.2919408 -0.08190567 -0.36060593 -0.16191728 -0.14982915
-0.03570545 -0.0069514574 0.1544226 0.018017707 -0.09379955 -0.0095987115 -0.02705794 0.046468176
-0.14510615 -0.025306348 -0.097271554 -0.05803663 0.093371436 -0.08268455 -0.12092879 0.025712317
0.024230191 -0.19352819 0.050804444 0.14311174 0.0892274 -0.14111896 0.07344759 -0.19762869
-0.07346604 -0.33329993 -0.22470729 -0.41176686 -0.10840889 -0.12188811 -0.38930616 -0.13562797
-0.37750295 -0.12081688 -0.22893994 -0.008523834 -0.28612125 -0.29503676 -0.1053508 -0.2701682
-0.076719046 0.10463327 -0.1220143 -0.11866577 0.019172575 -0.33065403 -0.0672548 0.02178916
00000000: 187a f0bd 9332 98be 0396 283d a4af bebe
00000010: 176d 68be 20fb a7be e4bc 6cbe 309f 99be
00000020: 2e2b dfbe d3ce 9dbe d60c bbbe dc06 afbd
00000030: e885 efbe b840 fbbd 551b 6abe 515e a93d
00000040: e053 65be 4c27 dc3d ba8a 27bd 8df6 9fbe
00000050: cb51 aabe 9025 2bbd 2f23 b7be 506b 943d
00000060: 85c2 97bd a314 6ebe 4a70 0fbe 1684 b5bd
00000070: a4ba 75be 542f 60be 1310 57be c768 7d3c
00000080: 234f 90be c851 ffbd 15c3 34be c075 43be
00000090: 4379 5ebe b670 4bbe 16a6 b3bc 8bb9 57bd
000000a0: 772f 9fbe 3dcd 37be b909 0e3d 4479 95be
000000b0: 29be a7bd 57a1 b8be a5cd 25be d06c 19be
000000c0: e13f 12bd 0dc9 e3bb f520 1e3e df99 933c
000000d0: fa19 c0bd ea43 1dbc 9da8 ddbc 6a55 3e3d
000000e0: b596 14be 424f cfbc 4f36 c7bd d1b7 6dbd
000000f0: 8639 bf3d 8456 a9bd 83a9 f7bd a3a2 d23c
00000100: 657e c63c 412c 46be 5218 503d e28b 123e
00000110: dbbc b63d 7d81 10be b16b 963d 2d5f 4abe
00000120: 5d75 96bd 4aa6 aabe ab19 66be 1bd3 d2be
00000130: 7b05 debd 79a0 f9bd 2353 c7be 0fe2 0abe
00000140: 1148 c1be d76e f7bd 3b6f 6abe 8da7 0bbc
00000150: 7c7e 92be 0f0f 97be 29c2 d7bd 7c53 8abe
00000160: e01e 9dbd f849 d63d a2e2 f9bd 0a07 f3bd
00000170: ce0f 9d3c 7c4b a9be e2bc 89bd 2e7f b23c

bias_hh_l1 f4 [96]
0.17813821 -0.3475147 -0.29850218 -0.072643325 -0.31293815 0.06626488 -0.3353178 -0.0522385
-0.40643647 -0.19885163 -0.39231533 -0.23274651 -0.5202267 -0.04002976 -0.04381836 0.028111305
-0.08883941 0.059913214 -0.20311508 -0.15483569 -0.25552544 -0.34669015 -0.058896493 -0.08574095
-0.18913728 -0.2627836 0.114850335 -0.31951007 -0.17453255 -0.18090291 -0.12262997 -0.15981908
-0.32588562 -0.1547084 -0.11189946 -0.08682934 -0.1305558 -0.1781392 0.10719041 -0.08867382
-0.23565696 0.079394035 0.11680249 -0.3670019 -0.2635048 -0.24837422 -0.3824877 -0.005683444
-0.35509437 0.047586758 0.023882251 0.05560463 0.014737367 0.09383974 0.049936853 -0.17897803
0.010121517 0.11760425 0.015496768 -0.1987749 -0.027938602 -0.064565 0.030733649 -0.08414229
-0.16387069 -0.23543562 0.2292149 -0.039987125 0.021142853 -0.06422049 -0.13482758 0.123798065
0.18316744 -0.4692353 -0.1940078 -0.199301 -0.09629501 0.029510124 -0.3723462 -0.11330826
-0.27594543 -0.29242972 -0.13141368 -0.2781707 -0.48246515 -0.32463 -0.08659421 -0.10542275
-0.12929009 0.08830859 0.07997141 -0.43370733 -0.36862895 -0.05003433 -0.08587803 -0.110011466
00000000: dd69 363e 72ed b1be 47d5 98be 06c6 94bd
00000010: 6e39 a0be e2b5 873d c6ae abbe 0af8 55bd
00000020: 7118 d0be c39f 4bbe 8edd c8be 1a55 6ebe
00000030: 942d 05bf 3ff6 23bd e17a 33bd ae49 e63c
00000040: 70f1 b5bd 8f67 753d 66fd 4fbe 3f8d 1ebe
00000050: 3bd4 82be 5f81 b1be 733d 71bd f498 afbd
00000060: 34ad 41be 928b 86be a736 eb3d d396 a3be
00000070: a9b8 32be 9d3e 39be 6c25 fbbd 9da7 23be
00000080: 7bda a6be e16b 1ebe 8b2b e5bd 95d3 b1bd
00000090: 6bb0 05be 1f6a 36be a586 db3d 9f9a b5bd
000000a0: 0f50 71be 5799 a23d 2536 ef3d ace7 bbbe
000000b0: 1aea 86be d055 7ebe 6ed5 c3be 2f3c babb
000000c0: eece b5be 55ea 423d b6a4 c33c aec1 633d
000000d0: ff74 713c 0d2f c03d 968a 4c3d 0446 37be
000000e0: b8d4 253c 7fda f03d 28e6 7d3c a68b 4bbe
000000f0: 7fdf e4bc a83a 84bd 22c5 fb3c cb52 acbd
00000100: b8cd 27be 0916 71be 50b7 6a3e 8ac9 23bd
00000110: c733 ad3c 0886 83bd 3e10 0abe d789 fd3d
00000120: 3f90 3b3e 9c3f f0be fba9 46be 9015 4cbe
00000130: 5136 c5bd 37bf f13c 29a4 bebe 290e e8bd
00000140: b848 8dbe 59b9 95be 4f91 06be 646c 8ebe
00000150: ac05 f7be e735 a6be 4e58 b1bd e2e7 d7bd
00000160: 9f64 04be 22db b43d 0dc8 a33d e30e debe
00000170: efbc bcbe ccf0 4cbd d2e0 afbd b14d e1bd

weight_ih_l2 f4 [96, 24]
0.4721456 -0.10881634 -0.09809951 0.065409265 0.030399734 -0.43474817 -0.40507877 0.40514496
-0.016257055 -0.09449812 0.09352426 0.3814668 -0.19664422 0.4183538 0.28410947 0.25934365
0.19144699 0.60283065 -0.53812754 -0.30438858 -0.045105852 0.1467351 0.19831225 0.19414778
0.55621535 -0.07032026 -0.18648417 -0.1561797 -0.278988 0.009624558 -0.040834352 -0.07947157
0.015729686 -0.23455817 -0.02954271 0.38474005 -0.06877637 -0.041658476 0.18440676 0.048989624
0.14176068 0.3012165 -0.31658906 -0.1561213 -0.20119311 -0.0076392535 0.054728836 0.0178275
0.7276263 0.06429245 -0.13507776 0.14778656 0.042772677 0.011555373 -0.38001388 0.1391926
-0.010346861 -0.12729803 0.0054515 0.50306344 -0.086158544 -0.038143706 -0.005015893 -0.0075101038
0.16223733 0.49170744 -0.022162657 -0.23911935 -0.2615027 0.36817485 0.43113083 -0.119357936
0.47825122 -0.20594704 -0.088621326 -0.1631509 -0.13114244 0.084108606 -0.3511873 -0.029758917
0.1081888 -0.22571468 -0.17884676 0.27555922 -0.017022664 -0.0058382708 0.27559593 0.106255084
-0.079267204 0.33896804 -0.21881005 -0.15768951 -0.13772991 -0.0054868194 0.16929714 0.06609274
0.33157906 -0.12113248 0.021395417 0.14138372 0.008585292 0.03892519 -0.12476058 0.083136536
0.04451399 -0.24660657 0.12477868 0.32676232 -0.08923642 0.1829512 -0.024813114 0.21513617
0.21790779 0.54555976 -0.10000398 -0.18882051 0.00982676 0.43967637 0.393293 0.032964062
0.6369761 -0.05215011 -0.057756197 0.04391187 -0.0051028323 0.032304987 -0.29403907 0.028969578
0.16613127 0.10070687 0.0666545 0.6317511 0.12051834 0.16307865 0.06611144 0.019824736
0.11412403 0.40091276 -0.21831386 -0.013078466 0.051104553 0.21779342 0.092404 -0.0982268
0.1587987 0.18652412 -0.06513651 -0.22679004 -0.13412063 -0.29909217 0.08678908 0.29278874
0.073446594 -0.29064828 0.20150939 0.2394988 -0.082374364 0.29746342 0.2209967 -0.09866855
0.18423095 0.31154937 -0.12538132 -0.015740843 -0.011260372 0.018455287 0.10172364 -0.12156514
0.32510754 -0.2083789 -0.31339005 0.047054727 -0.030441044 -0.015252288 0.013114188 0.15677695
0.08388442 -0.12194029 0.1876873 0.6743214 0.024557263 -0.0076440205 0.24763924 0.22000584
0.16024564 0.48606068 -0.13785535 -0.2767943 0.13039047 0.24527259 0.21439563 0.080124
0.48554155 -0.16125208 -0.27737403 0.07568504 0.13754919 -0.2950348 -0.2243289 0.3887467
0.20082983 -0.17196113 0.005190771 0.32812944 0.17815056 0.3519234 0.26207557 0.065682694
0.43209627 0.42185193 -0.27443543 -0.1559943 -0.26562178 0.2517847 0.17922041 0.070771836
0.86402905 0.14242977 -0.123168424 0.056742694 0.2489767 0.002840047 -0.08371237 0.025174093
0.040302493 -0.27809662 0.041349716 0.7404799 -0.20905101 0.18241368 0.23649096 0.12070719
0.26901257 0.22189336 -0.3458774 -0.13883704 0.07883665 0.24968451 0.532337 0.22512805
0.38083756 0.20891872 -0.35876134 -0.17197368 0.06419859 -0.35810074 0.078578755 0.27037784
0.040272795 -0.05086323 0.24450415 0.56995875 0.119366266 0.2810382 0.27213776 -0.037091017
00000000: 11bd f13e 1adb debd 65e8 c8bd 4bf5 853d
00000010: dd08 f93c 5097 debe 7c66 cfbe 296f cf3e
00000020: 842d 85bc 3b88 c1bd a689 bf3d 9e4f c33e
00000030: 1a5d 49be 7832 d63e cc76 913e b1c8 843e
00000040: ae0a 443e 1c53 1a3f bac2 09bf d2d8 9bbe
00000050: eac0 38bd ba41 163e 5e12 4b3e adce 463e
00000060: 2164 0e3f 1204 90bd b5f5 3ebe 92ed 1fbe
00000070: 84d7 8ebe 52b0 1d3c ec41 27bd fec1 a2bd
00000080: 8bdb 803c 0430 70be 8e03 f2bc a6fc c43e
00000090: a0da 8cbd 14a2 2abd 20d5 3c3e 58a9 483d
000000a0: b629 113e 0d39 9a3e f617 a2be 43de 1fbe
000000b0: 9105 4ebe b452 fabb 582b 603d fa0a 923c
000000c0: b845 3a3f c3ab 833d d351 0abe 5c55 173e
000000d0: 6732 2f3d bf52 3d3c 2e91 c2be 8188 0e3e
000000e0: e185 29bc 6a5a 02be 7fa2 b23b c4c8 003f
000000f0: e473 b0bd 933c 1cbd 5c5c a4bb 5117 f6bb
00000100: 8b21 263e 14c1 fb3e 768e b5bc b4db 74be
00000110: afe3 85be 6a81 bc3e 2ebd dc3e ef71 f4bd
00000120: 58dd f43e c8e3 52be 197f b5bd 0811 27be
00000130: 344a 06be 2241 ac3d d2ce b3be f9c8 f3bc
00000140: 1792 dd3d c021 67be 9b23 37be 1916 8d3e
00000150: 1d73 8bbc f74e bfbb e91a 8d3e 449c d93d
00000160: d856 a2bd 388d ad3e be0f 60be 5c79 21be
00000170: 1209 0dbe c7ca b3bb 3b5c 2d3e a15b 873d
00000180: bbc4 a93e 4e14 f8bd 7145 af3c e5c6 103e
00000190: 53a9 0c3c 0570 1f3d 7a82 ffbd 7d43 aa3d
000001a0: 4d54 363d 6f86 7cbe f78b ff3d 644d a73e
000001b0: 96c1 b6bd 8f57 3b3e df44 cbbc a84c 5c3e
000001c0: 3823 5f3e cea9 0b3f e3ce ccbd 2a5a 41be
000001d0: 6b00 213c 431d e13e b35d c93e 5305 073d
000001e0: de10 233f 5b9b 55bd c391 6cbd efdc 333d
000001f0: a935 a7bb 3c52 043d 4a8c 96be 9c51 ed3c
00000200: 511e 2a3e 673f ce3d 2882 883d 71ba 213f
00000210: 52d2 f63d 17fe 263e 6f65 873d 7c67 a23c
00000220: dcb9 e93d 7044 cd3e ab8d 5fbe 1047 56bc
00000230: 0253 513d 3d05 5f3e 4f3e bd3d 222b c9bd
00000240: 209c 223e 2e00 3f3e 4a66 85bd a63b 68be
00000250: eb56 09be 9c22 99be 79be b13d 68e8 953e
00000260: 2b6b 963d dacf 94be 7a58 4e3e 2c3f 753e
00000270: e4b3 a8bd 204d 983e f54c 623e bd12 cabd
00000280: 0aa7 3c3e 6683 9f3e f663 00be f1f2 80bc
00000290: 6c7d 38bc 8b2f 973c 7c54 d03d 25f7 f8bd
000002a0: 7f74 a63e 4761 55be a974 a0be 75bc 403d
000002b0: 7f5f f9bc bce4 79bc e4dc 563c 238a 203e
000002c0: 98cb ab3d d5bb f9bd 1931 403e 54a0 2c3f
000002d0: 502c c93c b17a fabb 2495 7d3e 3649 613e
000002e0: 6f17 243e f2dc f83e f429 0dbe fcb7 8dbe
000002f0: 1485 053e bd28 7b3e 878a 5b3e 0d18 a43d
00000300: e798 f83e 441f 25be f803 8ebe c200 9b3d
00000310: b2d9 0c3e cd0e 97be 7ab6 65be cf09 c73e
00000320: 56a6 4d3e 9416 30be 5817 aa3b 9500 a83e
00000330: 1a6d 363e 4e2f b43e c52e 863e a684 863d
00000340: b93b dd3e fafc d73e cd82 8cbe f8bc 1fbe
00000350: 94ff 87be ede9 803e 8e85 373e d3f0 903d
00000360: 0231 5d3f 1cd9 113e ba3f fcbd 076b 683d
00000370: bff3 7e3e 1520 3a3b 6471 abbd e639 ce3c
00000380: 3a14 253d ae62 8ebe 525e 293d 1790 3d3f
00000390: 7811 56be a7ca 3a3e b02a 723e 5535 f73d
000003a0: 04bc 893e 0338 633e d816 b1be 4c2b 0ebe
000003b0: 1c75 a13d 4cad 7f3e 3d47 083f f887 663e
000003c0: 24fd c23e caee 553e 91af b7be de19 30be
000003d0: 8d7a 833d fb58 b7be e6ed a03d f76e 8a3e
000003e0: 16f5 243d f655 50bd 4c5f 7a3e d1e8 113f
000003f0: 4d76 f43d 3de4 8f3e a455 8b3e c0ec 17bd

weight_hh_l2 f4 [96, 24]
0.09289298 -0.057430863 -0.090325885 0.16948605 0.17041059 0.15245827 -0.19360927 0.110231735
-0.053820875 -0.044056565 -0.28468883 -0.23069438 0.11565687 -0.012248694 -0.09667404 -0.08361631
0.02484665 0.0182766 0.14168194 0.012608758 -0.39419442 0.05264044 -0.017763406 -0.14983119
-0.24309674 -0.28766438 -0.15522371 0.047622807 0.17452332 0.09249382 0.1787723 0.11119997
0.044436455 -0.21902043 -0.12748033 0.17608939 -0.081867576 -0.10863203 -0.046123818 -0.15387668
-0.2013608 0.06365336 0.09381013 0.109356694 -0.029848957 0.1980952 0.20188138 -0.17990632
-0.05189491 -0.14497267 -0.10435023 0.30754116 0.049471963 0.19993688 -0.06249919 0.14094312
-0.07264295 0.10628978 -0.00097585685 0.17027833 -0.056624062 0.03314769 0.08455924 -0.16321914
0.04132295 0.24483752 -0.16421708 -0.009555252 0.106482975 0.12310727 0.11970991 -0.07375934
-0.14104563 0.029647116 0.15282744 0.32566133 0.08299534 0.34198895 -0.2142436 0.35222474
0.13909651 -0.22110957 -0.1400847 0.06476913 -0.015638612 0.21489693 0.10076085 -0.25185853
-0.022968223 -0.015911115 -0.19200815 -0.25987306 -0.17605707 0.04844204 0.1408137 -0.005553215
0.18406847 -0.20207112 -0.12803935 0.09799622 0.27578497 0.056906927 -0.13004653 -0.09408876
-0.020039974 0.09951481 -0.23908155 -0.21126997 -0.13870369 -0.07781373 0.12070513 -0.25237817
-0.015612622 -0.14405386 -0.017956987 0.31572846 0.0943375 0.33186325 0.21698977 -0.0136091
-0.014409586 -0.14262171 -0.119091704 0.29456672 0.019513749 0.09585142 -0.11551296 0.27384427
0.10408211 -0.021683041 -0.22535855 0.017702958 -0.0785872 0.03899238 -0.23226736 -0.078479
-0.10306041 0.19768195 0.15704803 0.19751738 0.030433113 0.26229745 -0.105636366 -0.18276846
0.08090131 0.0013920564 0.089193664 -0.062730126 -0.16138983 -0.007386749 -0.032117467 0.28007022
-0.06937657 -0.17516907 -0.026069926 0.051900126 0.05910678 0.09665539 0.002795862 -0.15858082
0.11480148 0.1241158 -0.0034604145 0.23286931 0.04156875 0.10516824 -0.006362764 -0.2979127
-0.26746354 -0.029188842 -0.16116731 0.15092465 0.28018746 0.22169515 0.19438323 0.27345562
0.07794021 -0.33390135 -0.105058625 0.19662847 -0.27598023 0.041242413 0.21073495 -0.41704503
0.038307976 0.14666446 -0.065802306 -0.095533244 -0.059614208 0.032744844 -0.13898616 -0.11737281
-0.228514 -0.042193998 -0.04417152 0.11363571 0.11489517 0.12478942 -0.043407224 -0.07360909
-0.115728736 -0.04016233 -0.013225271 0.07921599 -0.13357848 0.1549069 -0.22778676 -0.32802358
0.089910366 0.20210561 -0.123908035 0.22413841 -0.31607074 0.085567504 -0.08428183 -0.14989245
0.0047453903 0.10288088 0.089947104 0.034931637 -0.17222258 -0.04110065 -0.013929039 0.2221084
-0.092564926 0.030613445 -0.12275784 -0.10667714 -0.1805131 -0.15374106 0.08760599 0.033849265
-0.0820485 -0.04636245 -0.057214186 -0.031696487 -0.20532316 0.1432609 -0.006580186 -0.24211487
-0.23305167 -0.05010987 0.059265453 0.14331326 0.08382578 -0.049220607 0.20672855 0.44714686
-0.05155672 0.045569025 -0.20470135 0.099559024 -0.181286 0.04117394 0.037901994 -0.27522734
00000000: ad3e be3d a03c 6bbd c7fc b8bd c08d 2d3e
00000010: 1d80 2e3e 051e 1c3e 8241 46be 2dc1 e13d
00000020: 4773 5cbd a874 34bd bcc2 91be 263b 6cbe
00000030: 82dd ec3d bfae 48bc 0afd c5bd 073f abbd
00000040: 348b cb3c cfb8 953c 1215 113e f794 4e3c
00000050: dad3 c9be 819d 573d 9084 91bc 596d 19be
00000060: 5aee 78be bf48 93be f7f2 1ebe 2210 433d
00000070: 3eb6 323e 666d bd3d 1610 373e cfbc e33d
00000080: 0003 363d e446 60be 348a 02be c750 343e
00000090: 30aa a7bd 787a debd 54ec 3cbd d991 1dbe
000000a0: 8731 4ebe b15c 823d 871f c03d 67f6 df3d
000000b0: cd85 f4bc 78d9 4a3e feb9 4e3e 5d39 38be
000000c0: c28f 54bd b773 14be 93b5 d5bd 0976 9d3e
000000d0: 1da3 4a3d 41bc 4c3e 27ff 7fbd 6553 103e
000000e0: d4c5 94bd 75ae d93d a5d0 7fba 715d 2e3e
000000f0: a2ee 67bd dfc5 073d 652d ad3d eb22 27be
00000100: 4142 293d b0b6 7a3e 8628 28be a28d 1cbc
00000110: bf13 da3d aa1f fc3d 782a f53d 230f 97bd
00000120: 446e 10be 82de f23c cc7e 1c3e 15bd a63e
00000130: 76f9 a93d 2d19 af3e ad62 5bbe cd56 b43e
00000140: 516f 0e3e 8c6a 62be 5d72 0fbe ada5 843d
00000150: 8c1c 80bc f10d 5c3e b45b ce3d 9af3 80be
00000160: db27 bcbc 0758 82bc c99d 44be 150e 85be
00000170: 4e48 34be 296b 463d 7731 103e bef7 b5bb
00000180: 727c 3c3e bbeb 4ebe bf1c 03be 3eb2 c83d
00000190: b033 8d3e 3d17 693d eb2a 05be 9cb1 c0bd
000001a0: df2a a4bc 6cce cb3d cbd1 74be 2857 58be
000001b0: 5708 0ebe ce5c 9fbd 4034 f73d b637 81be
000001c0: 15cc 7fbc db82 13be 881a 93bc 29a7 a13e
000001d0: 0534 c13d fbe9 a93e 9132 5e3e b4f8 5ebc
000001e0: 2f16 6cbc 6d0b 12be 5ae6 f3bd 73d1 963e
000001f0: 4cdb 9f3c c04d c43d 0f92 ecbd 5135 8c3e
00000200: 0029 d53d a2a0 b1bc 64c4 66be cb05 913c
00000210: 53f2 a0bd 79b6 1f3d 7fd7 6dbe 99b9 a0bd
00000220: 5611 d3bd 236d 4a3e 33d1 203e ff41 4a3e
00000230: dd4e f93c da4b 863e e157 d8bd a827 3bbe
00000240: 96af a53d a975 b63a 2bab b63d a778 80bd
00000250: 6043 25be 8b0c f2bb 9b8d 03bd 5d65 8f3e
00000260: 4e15 8ebd 855f 33be 9990 d5bc 3a95 543d
00000270: f319 723d 43f3 c53d c83a 373b 0363 22be
00000280: 0a1d eb3d 6d30 fe3d 1fc8 62bb 4b75 6e3e
00000290: fe43 2a3d 7262 d73d bc7e d0bb 0388 98be
000002a0: fbf0 88be 701d efbc 0b09 25be fe8b 1a3e
000002b0: bb74 8f3e 0e04 633e 660c 473e 6002 8c3e
000002c0: 1e9f 9f3d 1ef5 aabe fa28 d7bd f958 493e
000002d0: 484d 8dbe ceed 283d e7ca 573e ed86 d5be
000002e0: d3e8 1c3d 352f 163e 5cc3 86bd efa6 c3bd
000002f0: 072e 74bd 751f 063d 6352 0ebe 2861 f0bd
00000300: 93ff 69be 9dd3 2cbd 32ed 34bd d7b9 e83d
00000310: 294e eb3d 9891 ff3d c6cb 31bd 5dc0 96bd
00000320: 3003 edbd 4181 24bd cfae 58bc fe3b a23d
00000330: ccc8 08be ea9f 1e3e ef40 69be b5f2 a7be
00000340: ed22 b83d c6f4 4e3e 7fc3 fdbd 8a84 653e
00000350: 06d4 a1be 043e af3d f49b acbd 687d 19be
00000360: 387f 9b3b 36b3 d23d 3036 b83d 7a14 0f3d
00000370: 1e5b 30be 2859 28bd a036 64bc 6270 633e
00000380: ae92 bdbd 0cc9 fa3c 7668 fbbd 8b79 dabd
00000390: 6dd8 38be 4c6e 1dbe c56a b33d 87a5 0a3d
000003a0: 0b09 a8bd 8de6 3dbd 6c59 6abd 2dd4 01bd
000003b0: 3c40 52be fcb2 123e 9a9e d7bb f6ec 77be
000003c0: 19a5 6ebe 0240 4dbd 55c0 723d b6c0 123e
000003d0: daac ab3d 8c9b 49bd a6b0 533e 6ff0 e43e
000003e0: 242d 53bd 96a6 3a3d 3b9d 51be 9ae5 cb3d
000003f0: 0aa3 39be 01a6 283d 1f3f 1b3d 99ea 8cbe

bias_ih_l2 f4 [96]
-0.76862985 -0.53291774 -0.8219824 -0.29576755 -0.40880525 -0.58226043 -0.5819666 -0.61653006
-0.76949865 -0.63640594 -0.2930294 -0.5431901 -0.36517477 -0.7217618 -0.26767513 -0.31597736
-0.59959656 -0.80369145 -0.46955732 -0.41931036 -0.44795117 -0.31193408 -0.5363925 -0.7145817
-0.27841383 -0.4464046 -0.3859809 -0.37150407 -0.22923566 -0.31523627 -0.35572788 -0.31584758
-0.4859027 -0.24759768 -0.41935417 -0.4203187 -0.5916409 -0.27153778 -0.46588188 -0.24835445
-0.44131073 -0.36810538 -0.58698887 -0.31059003 -0.60202205 -0.2165731 -0.40070504 -0.5270407
-0.13083501 -0.014680809 0.008435288 -0.040505756 -0.06706599 0.16145676 -0.018850893 -0.058543578
0.08626537 -0.10840193 0.050208233 -0.032682426 0.037127562 0.037309155 -0.055543054 -0.062339716
0.025075745 -0.05218211 -0.05212176 0.10609794 0.046394262 -0.062969446 -0.023430292 0.113980696
-0.8016496 -0.38663107 -0.48175904 -0.54364544 -0.6319437 -0.5408562 -0.5846411 -0.69953996
-0.904504 -0.3983836 -0.41639966 -0.7818012 -0.60434884 -0.56518257 -0.34557626 -0.40650177
-0.52998906 -0.72275376 -0.56046873 -0.4827761 -0.39673948 -0.21385011 -0.6661868 -0.53409266
00000000: edc4 44bf 4c6d 08bf 706d 52bf d86e 97be
00000010: ec4e d1be 050f 15bf c3fb 14bf ead4 1dbf
00000020: ddfd 44bf 80eb 22bf f307 96be 820e 0bbf
00000030: 30f8 babe 62c5 38bf b70c 89be c9c7 a1be
00000040: 297f 19bf b9be 4dbf d169 f0be d9af d6be
00000050: db59 e5be d3b5 9fbe 0551 09bf d4ee 36bf
00000060: 428c 8ebe 258f e4be 4a9f c5be c835 bebe
00000070: c1bc 6abe a666 a1be f721 b6be c6b6 a1be
00000080: 3dc8 f8be 3f8a 7dbe 97b5 d6be 0334 d7be
00000090: c775 17bf 0007 8bbe 1288 eebe a150 7ebe
000000a0: 7bf3 e1be 4f78 bcbe e744 16bf a805 9fbe
000000b0: 1e1e 1abf 57c5 5dbe 3629 cdbe 24ec 06bf
000000c0: 9df9 05be c787 70bc 2a34 0a3c 5de9 25bd
000000d0: e559 89bd ec54 253e 306d 9abc 64cb 6fbd
000000e0: e6ab b03d d501 debd 26a7 4d3d 02de 05bd
000000f0: 1213 183d 7cd1 183d 1d81 63bd ee57 7fbd
00000100: a66b cd3c e8bc 55bd a07d 55bd e049 d93d
00000110: e907 3e3d 20f6 80bd e2f0 bfbc b66e e93d
00000120: e838 4dbf 82f4 c5be 1fa9 f6be 592c 0bbf
00000130: 10c7 21bf 8d75 0abf 0aab 15bf 0d15 33bf
00000140: 938d 67bf eff8 cbbe 5632 d5be 2024 48bf
00000150: 9bb6 1abf ceaf 10bf 5fef b0be 0021 d0be
00000160: 5dad 07bf 6406 39bf e17a 0fbf 6e2e f7be
00000170: 7021 cbbe 86fb 5abe 388b 2abf 4cba 08bf
