models/UCF101_lstm_joints_model.pth (torch, 479447 bytes, 42 tensors)

weight_ih_l0 f4 [128, 132]
0.04582098 -0.066333115 -0.12959662 0.032776088 -0.089602344 -0.14248124 0.13581862 0.108943
0.0016049147 0.11403741 0.082965955 0.037498057 0.018152162 -0.042956933 0.026109293 -0.11075422
-0.0693594 0.14772944 -0.14471002 0.13392745 -0.06741766 -0.10294677 0.022816762 -0.08377135
0.013899714 0.09185906 -0.12224546 -0.053737924 0.06832363 0.16819559 -0.117412835 0.08840285
0.058152303 0.069663346 0.021036208 -0.0037822127 -0.025829121 0.12058629 -0.05163409 0.13313524
-0.009889856 -0.13277848 0.13131304 -0.15217146 0.020614713 -0.11441767 0.16381465 0.0047282428
0.00013293326 -0.005416438 -0.06297201 -0.0940427 -0.10434672 -0.049308777 0.06951754 -0.041104138
-0.12709305 -0.035826653 -0.16207512 0.15355562 0.14116292 0.05402796 -0.12225108 0.16147788
0.014466435 -0.13808675 0.017611712 -0.018821135 0.10698752 -0.0552506 -0.1315942 -0.156406
-0.01912199 0.014605209 -0.048357546 -0.02477938 -0.13004313 0.14983173 0.092847034 -0.11546765
-0.037022546 -0.035815597 0.09804194 -0.055344395 -0.031124756 0.17464401 0.07065247 0.037578166
0.08284746 0.1757348 0.029275492 -0.056019254 -0.0696008 0.14875801 -0.0491077 -0.04398173
0.007150069 -0.039746776 -0.17476822 0.080407664 0.04896769 0.17169724 -0.016853109 -0.099570766
-0.089527786 -0.010292977 0.0082963705 -0.007917896 -0.019905433 0.1487724 0.15646772 -0.014501408
-0.16377532 -0.062622525 -0.07209408 0.057713702 -0.17577901 0.038083255 -0.1309271 -0.12544759
-0.1480709 0.016828924 -0.1716248 -0.063769445 0.14382862 0.08410095 -0.16517906 0.020615056
-0.10513262 0.08387564 -0.097337596 0.06937814 0.05117999 -0.09154203 0.061040863 0.10428701
0.09629698 0.13802893 -0.01709406 -0.104950875 -0.018760845 0.065551504 0.12559856 -0.015890494
-0.11297347 -0.07498828 0.11707215 0.038345188 -0.1335226 0.14005424 0.11706756 -0.08309698
0.098444745 -0.09380951 0.16878174 -0.07668931 -0.13562599 -0.13730453 -0.17397162 -0.11901964
0.02680558 -0.12203915 0.122854516 -0.11094703 -0.038312748 0.040203124 -0.08336592 0.14831956
-0.13044614 -0.16297048 0.06958862 0.083080456 -0.15815537 -0.00089883804 0.12971975 0.04987833
-0.0050116777 0.027699724 0.1001818 -0.00020039082 -0.05639503 0.15395959 8.98093e-05 -0.031710178
0.13750573 -0.016675845 0.1737463 -0.04365611 -0.049461573 -0.15228297 0.10557677 0.09468509
-0.07538372 0.04797381 -0.04024896 -0.049296245 -0.13828294 -0.1338855 -0.11636715 -0.04119578
0.04254526 -0.1110596 0.11629169 0.030108467 0.008401662 0.105599865 -0.15092637 0.07217321
0.03624934 0.14186604 0.15783317 0.07387738 -0.13667871 -0.174882 0.15317456 -0.02312459
-0.14758083 0.081986025 0.13268404 -0.09852306 -0.080588184 0.08475436 -0.055625603 -0.019324899
-0.075817354 0.14937188 0.027246267 -0.028621525 0.017968178 0.099091634 0.15602686 -0.11856523
-0.008859083 -0.099375166 0.14926086 0.067809746 -0.11241407 0.015842974 0.15437607 0.17670862
0.03760557 -0.08059248 0.049128056 0.15335996 -0.16478243 -0.17587547 0.16707431 -0.011090606
-0.013005719 0.04791136 0.14586116 0.06001544 0.14697646 -0.09476742 0.15689965 -0.027645335
00000000: c8ae 3b3d a8d9 87bd fab4 04be 3840 063d
00000010: 6f81 b7bd 9ae6 11be 0914 0b3e 821d df3d
00000020: 005c d23a 728c e93d 0eea a93d 9097 193d
00000030: d8b3 943c 9cf3 2fbd 28e3 d53c 1cd3 e2bd
00000040: 4d0c 8ebd 6346 173e dd2e 14be 4724 093e
00000050: 4512 8abd c2d5 d2bd 38ea ba3c 5090 abbd
00000060: a0bb 633c 9a20 bc3d d45b fabd 4c1c 5cbd
00000070: 42ed 8b3d 773b 2c3e 2476 f0bd 8e0c b53d
00000080: 1c31 6e3d a8ab 8e3d 2054 ac3c 00df 77bb
00000090: 9897 d3bc f2f5 f63d 447e 53bd 9b54 083e
000000a0: 1009 22bc 15f7 07be ed76 063e d6d2 1bbe
000000b0: 30e0 a83c d053 eabd 07bf 273e 60ef 9a3b
000000c0: 0064 0b39 607c b1bb 78f7 80bd 7699 c0bd
000000d0: bcb3 d5bd 00f8 49bd 365f 8e3d d05c 28bd
000000e0: ae24 02be f8be 12bd 05f7 25be af3d 1d3e
000000f0: 038d 103e 6c4c 5d3d c65e fabd 755a 253e
00000100: a004 6d3c 9d66 0dbe 7046 903c c82e 9abc
00000110: 461c db3d 744e 62bd a1c0 06be e528 20be
00000120: b8a5 9cbc b04a 6f3c 9012 46bd 20fe cabc
00000130: 072a 05be 7d6d 193e 9626 be3d 4e7a ecbd
00000140: f4a4 17bd 60b3 12bd 36ca c83d ceb0 62bd
00000150: 58f9 febc e1d5 323e 3eb2 903d 90eb 193d
00000160: eeab a93d d3f3 333e 28d3 ef3c 7274 65bd
00000170: dd8a 8ebd 0554 183e 2825 49bd 3026 34bd
00000180: 204b ea3b 84cd 22bd 71f6 32be c6ac a43d
00000190: 5892 483d 67d1 2f3e 880f 8abc c2eb cbbd
000001a0: 585a b7bd e0a3 28bc 80ed 073c 10ba 01bc
000001b0: b810 a3bc cb57 183e 1339 203e 5097 6dbc
000001c0: b8b4 27be 3d40 80bd 10a6 93bd 3465 6c3d
000001d0: 6aff 33be 30fd 1b3d c111 06be 5575 00be
000001e0: e69f 17be d0dc 893c 69be 2fbe 8e99 82bd
000001f0: cf47 133e 1e3d ac3d b324 29be e8e0 a83c
00000200: c54f d7bd fec6 ab3d ef58 c7bd 2016 8e3d
00000210: 1ca2 513d 637a bbbd fc05 7a3d 6e94 d53d
00000220: 5a37 c53d 7557 0d3e d808 8cbc 7cf0 d6bd
00000230: 58b0 99bc de3f 863d e99c 003e c82c 82bc
00000240: a25e e7bd 7593 99bd 86c3 ef3d d80f 1d3d
00000250: 26ba 08be 616a 0f3e 1ec1 ef3d c02e aabd
00000260: 669d c93d 331f c0bd 1fd5 2c3e 490f 9dbd
00000270: 8ae1 0abe 8f99 0cbe 9e25 32be 92c0 f3bd
00000280: 6097 db3c a9ef f9bd 269b fb3d 3238 e3bd
00000290: d4ed 1cbd 08ac 243d c0bb aabd 15e1 173e
000002a0: ac93 05be bce1 26be 7a84 8e3d 1626 aa3d
000002b0: 7bf3 21be 00a0 6bba 41d5 043e 384d 4c3d
000002c0: 0039 a4bb 88ea e23c 1e2c cd3d 0020 52b9
000002d0: 7afe 66bd 95a7 1d3e 0058 bc38 88e2 01bd
000002e0: 4dce 0c3e c89b 88bc 8dea 313e c0d0 32bd
000002f0: 3898 4abd 11f0 1bbe a238 d83d 42ea c13d
00000300: c862 9abd 3080 443d 18dc 24bd dcea 49bd
00000310: 0b9a 0dbe 4819 09be e651 eebd e8bc 28bd
00000320: f043 2e3d 3773 e3bd 562a ee3d 08a6 f63c
00000330: 20a7 093c be44 d83d 718c 1abe 8ccf 933d
00000340: 307a 143d 5545 113e 059f 213e 064d 973d
00000350: 81f5 0bbe 4414 33be cbd9 1c3e c86f bdbc
00000360: 6e1f 17be 4ae8 a73d 53de 073e 75c6 c9bd
00000370: 6b0b a5bd b293 ad3d acd7 63bd 404f 9ebc
00000380: 2146 9bbd f1f4 183e 9033 df3c b077 eabc
00000390: 0032 933c 8ef0 ca3d 81c5 1f3e 54d2 f2bd
000003a0: b025 11bc 3585 cbbd d7d7 183e d6df 8a3d
000003b0: 5939 e6bd 20c9 813c c314 1e3e 1bf3 343e
000003c0: 4c08 1a3d ac0d a5bd 803a 493d 650a 1d3e
000003d0: babc 28be b318 34be 8715 2b3e 60b5 35bc
000003e0: f015 55bc b43e 443d a15c 153e c0d2 753d
000003f0: ff80 163e 6c15 c2bd 4daa 203e 7878 e2bc

weight_hh_l0 f4 [128, 32]
0.31106734 -0.2069891 -0.16418591 -0.15015306 0.11406289 0.30771428 0.15202549 -0.007089685
0.26580423 0.08379069 0.014109016 0.2516588 -0.014427552 0.33697885 -0.26719895 -0.07742739
-0.09150525 0.08541241 0.51868397 0.14976093 -0.0010742126 -0.03878107 -0.10428824 0.06357543
-0.24840339 0.25498262 -0.27029932 -0.2920447 -0.15342489 -0.040855594 0.06582477 -0.2561084
0.012401439 -0.044826888 -0.14445716 -0.10786014 0.0305423 0.069593064 0.13810651 -0.123125635
0.20186359 -0.14188693 -0.096234374 0.104450464 -0.05128317 0.21846315 -0.08164317 0.10893942
0.099701695 -0.045056693 0.08210847 0.030866802 -0.02726293 0.043911252 -0.18752588 -0.08560087
-0.15010573 -0.21175608 -0.17282446 0.112852566 -0.025870325 -0.039051384 -0.08776493 -0.07677128
0.1162123 0.19380443 -0.0752998 -0.15892762 -0.14789577 0.20617779 0.21032977 -0.14471705
0.31847483 0.20667262 -0.016415227 -0.028328633 -0.16229121 0.25084528 -0.024889017 0.17678154
0.24335337 0.007837453 -0.051476717 0.08443234 -0.116190486 0.018587729 -0.20089735 0.25687072
0.10948041 0.1543619 -0.1330691 -0.31380582 -0.13567796 -0.061957903 -0.18372935 0.058829498
0.1569486 -0.1466248 -0.36228967 -0.3088947 0.26983252 0.18868193 0.0941596 0.027649075
0.2831627 -0.09222205 -0.009324833 -0.059292626 -0.0049764044 0.32401657 -0.07407611 0.09226551
-0.01723753 0.37334022 0.15648521 0.05503173 -0.094716616 -0.17185776 -0.111854605 0.079036
-0.08681931 0.33908632 -0.10580102 -0.23923793 -0.29561517 -0.02631355 0.07275228 -0.16927831
0.15002522 0.07598543 -0.13624911 -0.093150504 -0.15699482 -0.037969586 0.0061611515 0.00092753465
0.10876109 0.22277533 -0.19206084 0.13334252 -0.15365262 0.042031776 -0.039897308 0.08138443
0.011421695 0.16058327 0.0021232849 0.0058412626 -0.059555396 0.0964059 -0.086181745 0.07164714
0.13667825 -0.08294231 -0.046569224 -0.1643706 -0.21181828 -0.07180146 -0.18343215 0.15064985
0.09943936 -0.04094895 0.0054936996 -0.41971973 -0.06475796 -0.0689037 0.19507542 -0.07666999
0.16524036 -0.0439632 -0.18485498 0.06297604 -0.1616778 0.204168 -0.20634957 -0.015371746
-0.026981808 0.13755271 -0.031572934 0.14967199 -0.1789133 -0.06215489 -0.15019174 0.25007954
0.06313233 0.020280516 -0.30840856 -0.00016742999 -0.1332468 0.08611161 -0.1198796 0.14744367
0.23809917 -0.08973943 -0.23289517 -0.09534212 0.035759795 0.19815297 0.15817565 0.096210524
0.21411537 0.19618529 -0.042883873 0.19530095 -0.24960771 0.07686611 -0.12295506 -0.14596619
0.12210291 0.2717843 0.16222736 0.10257166 -0.1647535 -0.17628428 -0.11632378 0.028579652
-0.2512608 -0.007870109 -0.12122634 -0.09684241 -0.26266453 0.067319 0.03828995 -0.090459846
0.0652552 0.25587487 -0.3366286 -0.18287049 0.057791177 -0.26346377 0.1588103 -0.12622702
0.344243 0.28649953 -0.46709076 0.36098447 -0.25477293 0.37289962 -0.07665613 -0.30754036
0.20954728 0.20220928 -0.028189441 0.39342335 -0.23233938 0.02364589 -0.23495302 0.4546267
-0.10629364 -0.15236314 -0.36300942 -0.032716163 -0.071877725 0.045211863 -0.29204682 0.030986443
00000000: 3844 9f3e f3f4 53be 5a20 28be b9c1 19be
00000010: ce99 e93d ba8c 9d3e 92ac 1b3e 9750 e8bb
00000020: 7e17 883e 749a ab3d 8129 673c 6cd9 803e
00000030: 8a61 6cbc 7e88 ac3e 4dce 88be 4092 9ebd
00000040: 1b67 bbbd b4ec ae3d 79c8 043f ee5a 193e
00000050: 98cc 8cba e6d8 1ebd 1395 d5bd d633 823d
00000060: 755d 7ebe 158d 823e ac64 8abe e286 95be
00000070: 6a1b 1dbe 3258 27bd 23cf 863d a420 83be
00000080: 682f 4b3c 669c 37bd 94ec 13be c7e5 dcbd
00000090: d833 fa3c cf86 8e3d cb6b 0d3e 4b29 fcbd
000000a0: 54b5 4e3e cf4a 11be 8716 c5bd 20ea d53d
000000b0: 4d0e 52bd ceb4 5f3e 8934 a7bd a11b df3d
000000c0: 6730 cc3d 5e8d 38bd 7c28 a83d 60dc fc3c
000000d0: 8256 dfbc 49dc 333d c906 40be 824f afbd
000000e0: 51b5 19be 96d6 58be e5f8 30be 3f1f e73d
000000f0: 01ee d3bc 58f4 1fbd 1abe b3bd 433a 9dbd
00000100: b700 ee3d ab74 463e c836 9abd ecbd 22be
00000110: fd71 17be 4520 533e b060 573e b530 14be
00000120: 220f a33e fda1 533e 3a79 86bc 7311 e8bc
00000130: ab2f 26be cb6e 803e 0de4 cbbc 3806 353e
00000140: a031 793e a968 003c 40d9 52bd ddea ac3d
00000150: 47f5 edbd 4b45 983c 09b8 4dbe 8f84 833e
00000160: 4437 e03d 0c11 1e3e 4443 08be 28ab a0be
00000170: 2aef 0abe 92c7 7dbd 8c23 3cbe 33f7 703d
00000180: 22b7 203e d024 16be 087e b9be 7227 9ebe
00000190: 7d27 8a3e d635 413e c0d6 c03d 5080 e23c
000001a0: b4fa 903e eade bcbd 2fc7 18bc d3dc 72bd
000001b0: 1b11 a3bb 80e5 a53e 37b5 97bd b3f5 bc3d
000001c0: b835 8dbc 7326 bf3e a93d 203e f468 613d
000001d0: c9fa c1bd 7bfb 2fbe 0714 e5bd a0dd a13d
000001e0: 53ce b1bd b99c ad3e 35ae d8bd cafa 74be
000001f0: df5a 97be 848f d7bc 26ff 943d 4b57 2dbe
00000200: 36a0 193e 409e 9b3d e384 0bbe b1c5 bebd
00000210: 40c3 20be ff85 1bbd 7ce3 c93b cc25 733a
00000220: 22be de3d 371f 643e 99ab 44be f18a 083e
00000230: 1d57 1dbe 8329 2c3d 5c6b 23bd e1ac a63d
00000240: 1022 3b3c f16f 243e cf26 0b3b 1068 bf3b
00000250: 5cf0 73bd 7570 c53d 0e80 b0bd bcbb 923d
00000260: 62f5 0b3e a8dd a9bd 5fbf 3ebd c450 28be
00000270: e4e6 58be a50c 93bd a3d5 3bbe f443 1a3e
00000280: dda6 cb3d 16ba 27bd 7e04 b43b 81e5 d6be
00000290: d29f 84bd 621d 8dbd dac1 473e 2805 9dbd
000002a0: c534 293e c212 34bd a04a 3dbe 95f9 803d
000002b0: dd8e 25be 6b11 513e 4d4d 53be c7d9 7bbc
000002c0: f408 ddbc 9eda 0c3e 9f52 01bd 9d43 193e
000002d0: 0c35 37be 2096 7ebd ddcb 19be 6d0a 803e
000002e0: 864b 813d 5323 a63c bae7 9dbe 2590 2fb9
000002f0: d971 08be 495b b03d 7083 f5bd 79fb 163e
00000300: 45d0 733e 4ec9 b7bd 127c 6ebe bb42 c3bd
00000310: dd78 123d 9de8 4a3e ccf8 213e 060a c53d
00000320: 0f41 5b3e cce4 483e 00a7 2fbd f9fc 473e
00000330: 2a99 7fbe fb6b 9d3d ddcf fbbd 2978 15be
00000340: 1711 fa3d 5027 8b3e ee1e 263e 1711 d23d
00000350: 24b5 28be de83 34be 293b eebd e01f ea3c
00000360: 41a5 80be a1f1 00bc 8445 f8bd 5055 c6bd
00000370: f77b 86be 8bde 893d ecd5 1c3d 0343 b9bd
00000380: 85a4 853d 0802 833e 955a acbe 6742 3bbe
00000390: 71b6 6c3d b9e4 86be 2b9f 223e a841 01be
000003a0: 9e40 b03e 11b0 923e 8526 efbe f5d2 b83e
000003b0: 9971 82be b3ec be3e e4fd 9cbd ee75 9dbe
000003c0: 9093 563e f30f 4f3e 8bed e6bc c96e c93e
000003d0: 60ea 6dbe 07b5 c13c 8697 70be d5c4 e83e
000003e0: 7bb0 d9bd 1505 1cbe 5fdc b9be 6201 06bd
000003f0: a134 93bd 1330 393d 2987 95be 48d7 fd3c

bias_ih_l0 f4 [128]
-0.24714495 0.060458127 -0.18126963 -0.34484032 -0.0018820531 -0.50743365 -0.33591545 -0.39769396
-0.014044559 -0.54876846 0.010115647 -0.20707174 -0.37838525 -0.33806068 -0.4237733 -0.45710972
-0.074564435 -0.2712048 -0.22189473 -0.30128124 -0.38904887 -0.17022018 -0.20956594 -0.18347089
-0.38325718 -0.33025327 -0.36911944 -0.6119323 -0.4494852 -0.4594474 -0.15592289 -0.40270236
-0.22736984 -0.09882541 -0.27783233 -0.34768793 -0.24464673 -0.22178306 -0.28283092 -0.6399961
0.019110711 -0.41011086 -0.029641228 -0.048991807 -0.2343334 -0.29162243 -0.36644438 -0.19029407
0.12595147 -0.27731448 -0.4975768 -0.35533547 -0.24911752 -0.4886498 -0.19230738 -0.14354058
-0.047165677 -0.0939561 -0.4341323 -0.38337064 -0.5382374 -0.5351677 -0.06985075 -0.13501443
0.25818667 -0.1708908 -0.0111341905 -0.17759813 0.09638016 0.14758138 0.058672264 -0.0068179076
0.07823298 -0.049308155 0.12230657 -0.10059178 0.061732683 0.02890302 -0.10096217 -0.006227685
-0.023652885 0.29919377 0.115870714 -0.097222544 0.028386394 -0.17716815 -0.100921944 -0.11884083
-0.18527731 0.22286452 -0.20257719 -0.0352668 -0.14559941 -0.018474301 0.08251432 -0.18251607
-0.2299792 -0.11321487 -0.4707575 -0.4029634 -0.22653104 -0.40738338 -0.47032955 -0.6286733
-0.009967465 -0.28254992 0.029869584 -0.11474719 -0.20139605 -0.23189205 -0.33969066 -0.18319088
0.107291445 -0.22694646 -0.46469346 -0.22392641 -0.28028893 -0.1739547 -0.30693483 -0.08061978
-0.24709481 -0.18891509 -0.4710247 -0.3479906 -0.50437814 -0.27893654 -0.00080241205 -0.059569977
00000000: 9113 7dbe f1a2 773d bf9e 39be e98e b0be
00000010: 39af f6ba 2ce7 01bf 1cfd abbe 8b9e cbbe
00000020: 261b 66bc 177c 0cbf 19bc 253c 9d0a 54be
00000030: b6bb c1be 4a16 adbe d0f8 d8be 490a eabe
00000040: 3db5 98bd 5bdb 8abe 5f38 63be 8941 9abe
00000050: 6a31 c7be 334e 2ebe 7498 56be cbdf 3bbe
00000060: 493a c4be f516 a9be 39fd bcbe 98a7 1cbf
00000070: ed22 e6be b13c ebbe 40aa 1fbe 012f cebe
00000080: a4d3 68be fa64 cabd 0a40 8ebe 2704 b2be
00000090: ac84 7abe 191b 63be 37cf 90be c9d6 23bf
000000a0: 118e 9c3c 0dfa d1be 29d2 f2bc a2ab 48bd
000000b0: 18f5 6fbe 894f 95be 999e bbbe 73dc 42be
000000c0: 6cf9 003e 2afc 8dbe 63c2 febe 88ee b5be
000000d0: aa18 7fbe 4e30 fabe 3aec 44be 4dfc 12be
000000e0: cc30 41bd 0e6c c0bd 9746 debe 2849 c4be
000000f0: edc9 09bf c000 09bf e90d 8fbd 3941 0abe
00000100: 0b31 843e fffd 2ebe 2e6c 36bc 49dc 35be
00000110: f662 c53d 931f 173e 5452 703d c168 dfbb
00000120: 9d38 a03d 59f7 49bd de7b fa3d 1003 cebd
00000130: 69db 7c3d 07c6 ec3c 41c5 cebd 9c11 ccbb
00000140: b2c3 c1bc ed2f 993e a04d ed3d 9d1c c7bd
00000150: 958a e83c 916b 35be 2ab0 cebd d262 f3bd
00000160: 56b9 3dbe 9936 643e 6570 4fbe ec73 10bd
00000170: 0318 15be 6b57 97bc 45fd a83d 7ee5 3abe
00000180: ab7f 6bbe 33dd e7bd 2107 f1be 3851 cebe
00000190: c1f7 67be 8e94 d0be 09cf f0be bcf0 20bf
000001a0: 944e 23bc 62aa 90be 0fb1 f43c 9300 ebbd
000001b0: c43a 4ebe 1c75 6dbe efeb adbe 6496 3bbe
000001c0: 9ebb db3d a764 68be 4dec edbe f74c 65be
000001d0: 0882 8fbe 2e21 32be 9026 9dbe fc1b a5bd
000001e0: 6c06 7dbe f572 41be 262a f1be d32b b2be
000001f0: ed1e 01bf c5d0 8ebe f658 52ba a6ff 73bd

bias_hh_l0 f4 [128]
-0.22984585 -0.09724742 -0.23781756 -0.19476399 -0.28240362 -0.49549103 -0.23160967 -0.58403146
-0.10391446 -0.48633772 -0.11454904 -0.0275066 -0.103555344 -0.14791177 -0.25034776 -0.17213625
0.15142184 -0.16103093 -0.51294374 -0.1774918 -0.32656705 -0.22301398 -0.4950408 -0.11355202
-0.13862537 -0.26208314 -0.6477481 -0.44373402 -0.40503964 -0.31978652 -0.17518356 -0.26030013
-0.10798016 -0.25153163 -0.3925791 -0.2692258 -0.09602436 -0.16321449 -0.23874053 -0.33404252
-0.1953611 -0.27710703 -0.07421755 -0.003552 -0.3360458 -0.3304475 -0.31521386 -0.3086423
-0.17688455 -0.15855321 -0.1927609 -0.21472865 -0.50231373 -0.4557998 -0.16356793 -0.017892148
-0.38191062 -0.32130763 -0.60149425 -0.6355039 -0.33227137 -0.3402929 0.08233582 -0.31757727
-0.0038073268 -0.026184944 0.013311902 -0.09987736 0.13254593 0.09423273 0.0716506 0.107944705
0.05894838 0.16921374 0.13405076 -0.20231596 0.029693766 -0.04513034 0.07564205 0.012980759
-0.2406262 0.06600849 0.23021296 0.080573946 -0.16359267 -0.049810316 -0.050923675 -0.19687985
-0.06841176 0.08697879 0.09842183 0.006627476 0.05720517 -0.18772362 0.18096 -0.0017332071
-0.36803636 0.00032240764 -0.3105932 -0.19030204 -0.04906314 -0.4393668 -0.36245656 -0.45939946
0.011209383 -0.30574605 -0.0188713 -0.0896339 -0.30662435 -0.25595355 -0.47563094 -0.21407351
-0.06825055 -0.35149324 -0.41972366 -0.29115078 -0.40688533 -0.25340015 -0.18437749 -0.019742044
-0.2823403 -0.29964203 -0.6099972 -0.49150455 -0.5029961 -0.5866984 0.033537157 -0.14699452
00000000: b65c 6bbe a829 c7bd 7286 73be 3670 47be
00000010: 3597 90be 00b1 fdbe 162b 6dbe 1683 15bf
00000020: 1bd1 d4bd 4201 f9be b098 eabd 8555 e1bc
00000030: d314 d4bd 2f76 17be 952d 80be 7c44 30be
00000040: 540e 1b3e 4be5 24be 4850 03bf 69c0 35be
00000050: cc33 a7be c75d 64be fd75 fdbe f68d e8bd
00000060: cff3 0dbe c32f 86be d2d2 25bf 1b31 e3be
00000070: 5b61 cfbe 0fbb a3be 5263 33be 0f46 85be
00000080: b424 ddbd c1c8 80be 2100 c9be f7d7 89be
00000090: 6ba8 c4bd b321 27be 6678 74be 9f07 abbe
000000a0: bd0c 48be f9e0 8dbe 5fff 97bd acc8 68bb
000000b0: 320e acbe 6a30 a9be b663 a1be 5d06 9ebe
000000c0: 3921 35be c65b 22be 1d63 45be d4e1 5bbe
000000d0: a297 00bf 975e e9be 5a7e 27be 8e92 92bc
000000e0: ca89 c3be 6f82 a4be 87fb 19bf 62b0 22bf
000000f0: 791f aabe df3a aebe af9f a83d 7d99 a2be
00000100: 5884 79bb cf81 d6bc 2a1a 5a3c 808c ccbd
00000110: 1fba 073e 17fd c03d 8dbd 923d 1d12 dd3d
00000120: db73 713d 5e46 2d3e 9a44 093e ea2b 4fbe
00000130: 5740 f33c 97da 38bd 38ea 9a3d 40ad 543c
00000140: b766 76be 762f 873d f2bc 6b3e f403 a53d
00000150: d684 27be e705 4cbd 5895 50bd df9a 49be
00000160: 771b 8cbd f021 b23d 6291 c93d 4c2b d93b
00000170: f84f 6a3d 9f3a 40be 944d 393e c82c e3ba
00000180: 436f bcbe d208 a939 1206 9fbe 8ade 42be
00000190: 6ef6 48bd aff4 e0be e893 b9be 6836 ebbe
000001a0: 8fa7 373c bf8a 9cbe fc97 9abc fa91 b7bd
000001b0: defd 9cbe 580c 83be e685 f3be 1636 5bbe
000001c0: f2c6 8bbd ecf6 b3be 05e6 d6be b711 95be
000001d0: 4653 d0be aabd 81be 74cd 3cbe 11ba a1bc
000001e0: e88e 90be ae6a 99be c728 1cbf 7ca6 fbbe
000001f0: 5ac4 00bf de31 16bf 425e 093d bb85 16be

weight_ih_l1 f4 [128, 32]
-0.0078993775 -0.045732457 -0.12649253 -0.06097671 -0.09589367 -0.104128785 0.1702832 0.06836337
0.24149597 -0.14264521 -0.124809176 0.16022046 -0.15018487 0.059953824 0.02475821 -0.05357456
0.25522056 0.35701862 0.2537917 0.089877866 0.13444273 -0.21098894 -0.3697001 0.22237854
0.077976994 0.009850352 -0.307522 -0.000118684555 -0.2126685 0.28481367 -0.25013053 0.1629028
-0.12855858 0.06527817 -0.12914836 -0.13672258 -0.0724101 -0.15136078 0.045712486 0.1046346
0.07107995 0.11047175 -0.31970802 0.15319486 -0.15305355 0.25157595 -0.10459712 -0.13214405
0.12346499 0.13368152 0.041753214 0.055993345 -0.21840502 0.046252105 -0.16478924 0.29765344
-0.19365576 0.106542155 -0.11378573 -0.099455744 -0.047954682 0.17289579 -0.19224174 0.2891878
-0.079984605 0.15184775 0.08928742 -0.020748302 -0.18381502 -0.18272159 0.033261415 0.03720351
0.08641021 0.19604558 -0.33917263 0.3150876 0.00554783 0.25969866 -0.13643464 -0.16201493
0.26222238 0.090133965 0.016730368 -0.061727464 0.0075873714 0.023184987 -0.2564084 0.32287148
0.14160798 -0.25768608 -0.14746457 -0.10694382 0.1009012 0.1806859 -0.13205516 -0.06614717
-0.003335313 0.23950157 -0.11058176 -0.24166805 -0.1525058 -0.07405278 0.04399728 0.1268798
0.12533212 0.17642109 -0.33010805 -0.02841658 0.0993056 0.00089379936 0.05672939 -0.0612809
0.021138314 -0.14560816 -0.12314667 0.04606291 0.023155812 0.15009172 -0.113538496 0.33198515
0.070368275 -0.1168628 -0.20518976 -0.082225084 -0.20177689 0.19492428 -0.29298452 -0.04698584
0.048112977 0.02247813 -0.31239742 -0.2815801 0.0119637605 0.30346316 0.20262468 0.24267285
0.30642417 0.3256983 -0.15371875 0.4564184 -0.35130277 0.4862549 -0.122271486 -0.24116582
0.50237024 0.10694098 0.2858194 0.25811398 -0.23542407 -0.14368254 -0.25263938 -0.012834119
0.09693101 0.069717005 -0.2874903 -0.21369754 -0.42838913 0.03323396 -0.1804608 0.22901103
0.02096395 0.16890843 -0.15279649 -0.24169978 -0.0032675837 -0.10154244 0.32625368 0.26847866
0.18970859 0.35246027 -0.31665727 0.19001791 -0.14374933 0.42671534 -0.14069344 -0.024352046
0.26029992 0.06875662 0.01663055 0.23045805 -0.22609343 -0.1118468 -0.38217366 0.2659598
0.298739 0.2759129 -0.15979585 -0.2592185 -0.23527996 -0.16133516 -0.20385084 0.18450448
0.17112301 0.16453214 -0.10810492 -0.07181409 -0.3002415 -0.08265911 0.012383399 -0.21101305
0.43184927 -0.12318052 -0.24445322 0.10923834 -0.12285821 -0.06126935 0.12471067 -0.37752765
0.11093161 0.2472547 -0.16026215 0.045041107 -0.02919746 -0.036848206 -0.42388117 0.22962244
0.00022156756 0.071839824 0.010773547 -0.011916614 -0.16455427 0.23187213 -0.048302274 0.013264296
0.022418672 0.022705724 -0.41097254 -0.16104324 0.1527789 -0.086999305 0.1869646 0.09271141
0.13163406 0.05894137 -0.41438812 0.35033002 -0.083524734 0.19859964 -0.25706312 -0.0015642071
0.32654774 -0.0073988317 0.05925674 0.16611014 -0.07770225 -0.0563366 -0.088380694 0.07939231
-0.20287952 -0.019590853 -0.104240805 -0.15784961 -0.21799058 0.07056555 -0.3970366 0.19482653
00000000: 646c 01bc f551 3bbd 4287 01be b7c2 79bd
00000010: e763 c4bd 7941 d5bd b85e 2e3e 1802 8c3d
00000020: b84a 773e 9611 12be f49b ffbd d510 243e
00000030: 10ca 19be 2492 753d bbd1 ca3c ff70 5bbd
00000040: 45ac 823e 25cb b63e fcf0 813e e311 b83d
00000050: 5bab 093e 7c0d 58be 5549 bdbe 33b7 633e
00000060: 67b2 9f3d 5f63 213c 8673 9dbe 49e6 f8b8
00000070: c5c5 59be 19d3 913e 1c11 80be fecf 263e
00000080: dca4 03be 90b0 853d 783f 04be 0101 0cbe
00000090: bf4b 94bd 52fe 1abe 043d 3b3d aa4a d63d
000000a0: 5d92 913d 033f e23d c5b0 a3be 1ddf 1c3e
000000b0: 12ba 1cbe 90ce 803e 0437 d6bd c550 07be
000000c0: 36db fc3d cfe3 083e 6b05 2b3d 4759 653d
000000d0: 91a5 5fbe d972 3d3d 83be 28be 0866 983e
000000e0: b24d 46be c632 da3d 7e08 e9bd 74af cbbd
000000f0: 216c 44bd 980b 313e 05db 44be 6c10 943e
00000100: f8ce a3bd fa7d 1b3e 53dc b63d 58f8 a9bc
00000110: 013a 3cbe 5e1b 3bbe 1f3d 083d b562 183d
00000120: d6f7 b03d 2cc0 483e 09a8 adbe 2953 a13e
00000130: 92ca b53b 39f7 843e 86b5 0bbe 3ee7 25be
00000140: 0342 863e 2898 b83d 200e 893c f0d5 7cbd
00000150: 7c9f f83b 71ee bd3c f647 83be 694f a53e
00000160: af01 113e 6eef 83be f400 17be 5d05 dbbd
00000170: 4aa5 ce3d b905 393e 7839 07be 2b78 87bd
00000180: 4495 5abb e63f 753e b178 e2bd d477 77be
00000190: 7b2a 1cbe fca8 97bd 7e36 343d c7ec 013e
000001a0: 1057 003e bba7 343e ec03 a9be e3c9 e8bc
000001b0: bc60 cb3d dc4d 6a3a 145d 683d ae01 7bbd
000001c0: 422a ad3c 4e1a 15be 5234 fcbd 76ac 3c3d
000001d0: 42b1 bd3c a5b1 193e df86 e8bd f5f9 a93e
000001e0: 3e1d 903d c455 efbd 441d 52be a065 a8bd
000001f0: 9a9e 4ebe 3b9a 473e 1102 96be 3974 40bd
00000200: 1d12 453d 0e24 b83c 8ef2 9fbe 442b 90be
00000210: a603 443c 865f 9b3e d87c 4f3e 3b7f 783e
00000220: a1e3 9c3e edc1 a63e 7368 1dbe acaf e93e
00000230: f5dd b3be 67f6 f83e 7969 fabd 2cf4 76be
00000240: 569b 003f df03 db3d ec56 923e 8427 843e
00000250: 0213 71be 8421 13be f359 81be 3246 52bc
00000260: c483 c63d cac7 8e3d ee31 93be 87d3 5abe
00000270: d255 dbbe 5520 083d b7ca 38be de81 6a3e
00000280: 97bc ab3c 55f6 2c3e af76 1cbe 2680 77be
00000290: f524 56bb 7cf5 cfbd b90a a73e 0976 893e
000002a0: f842 423e ac75 b43e e720 a2be 0e94 423e
000002b0: 0633 13be 6f7a da3e f111 10be f17d c7bc
000002c0: 0846 853e 45d0 8c3d cb3c 883c 32fd 6b3e
000002d0: 0985 67be ef0f e5bd 44ac c3be e22b 883e
000002e0: 51f4 983e 7544 8d3e 86a1 23be 4ab8 84be
000002f0: 3bed 70be 0b35 25be 46be 50be beee 3c3e
00000300: df3a 2f3e 1d7b 283e 1d66 ddbd 4413 93bd
00000310: 41b9 99be 2e49 a9bd bde3 4a3c ce13 58be
00000320: 591b dd3e 1246 fcbd f251 7abe 5ab8 df3d
00000330: 169d fbbd 92f5 7abd 4f68 ff3d 4e4b c1be
00000340: 1d30 e33d 5630 7d3e c31b 24be 067d 383d
00000350: 832f efbc 25ee 16bd f406 d9be 2522 6b3e
00000360: 9754 6839 c220 933d 8883 303c e73d 43bc
00000370: ea80 28be e36f 6d3e 9bd8 45bd 7d52 593c
00000380: 5da7 b73c 5b01 ba3c fe6a d2be 85e8 24be
00000390: 1272 1c3e b12c b2bd a673 3f3e 7bdf bd3d
000003a0: 14cb 063e 826c 713d ae2a d4be 755e b33e
000003b0: 040f abbd b45d 4b3e c79d 83be 1506 cdba
000003c0: 4431 a73e e671 f2bb 32b7 723d c718 2a3e
000003d0: 5b22 9fbd 35c1 66bd f000 b5bd 6f98 a23d
000003e0: a6bf 4fbe ff7c a0bc 347c d5bd 54a3 21be
000003f0: ec38 5fbe ac84 903d 6248 cbbe 9b80 473e

weight_hh_l1 f4 [128, 32]
-0.24185218 0.19348173 0.0502399 -0.04824613 -0.13951264 0.0076722964 -0.05103609 -0.3287858
0.32633537 0.19495866 0.33741045 -0.25568372 0.12958065 -0.022353154 -0.17367643 -0.003006862
0.16794202 0.065935776 -0.15466295 -0.011625368 -0.10897403 0.25059494 -0.40822455 0.10502714
-0.26683617 -0.2084334 0.12849143 -0.18557955 -0.012437854 0.03734689 0.3417645 0.04927259
-0.05139456 0.036907516 0.12687963 0.05552541 0.12108704 -0.091675796 0.32227173 -0.2007892
0.6073046 0.04212026 0.048054773 -0.13263847 0.2595602 -0.33063477 0.05666179 -0.017378017
0.101252794 0.15971805 -0.09636224 -0.07189614 -0.12477243 0.013866708 0.30782786 0.08026412
-0.02552915 -0.49200556 0.041010916 -0.16814859 0.12473048 0.26418957 0.3947463 0.18654835
-0.24918716 0.16648628 0.28080338 -0.13748917 -0.033481285 0.1695109 0.05995334 -0.2865015
0.008650455 0.23057069 0.09912726 -0.102428675 -0.055315703 -0.025006803 -0.12710668 0.15714051
-0.03889472 -0.14378384 -0.056146443 -0.20571288 -0.10039859 0.30947465 -0.021213518 -0.078766435
0.03638122 -0.35932302 0.030735021 -0.39926165 -0.10308774 0.24652639 0.3563022 -0.1619206
-0.14634305 0.14878668 0.05916512 -0.1468058 0.036600966 0.023217384 0.25062296 -0.016072521
0.29575723 0.04373282 0.26165596 0.11422264 0.22822495 0.106699474 -0.12643598 -0.103871085
-0.17288347 -0.004960884 -0.15152809 0.114154026 0.022170419 0.19473341 0.25460038 -0.13298017
-0.015206344 -0.10229319 -0.0591254 -0.1674915 0.0033173838 0.11061898 0.15112409 0.11841033
0.3000001 -0.23438776 0.27929127 -0.17068897 -0.06668168 0.4441833 0.26081604 -0.22935899
0.23647594 0.23518236 -0.2521006 -0.113015294 0.17634277 -0.26151502 -0.07085637 0.008275525
0.3496918 -0.16105446 0.025513057 -0.21978156 -0.3057945 -0.0050009554 -0.019407341 0.2605668
-0.46574053 -0.29910678 0.31886968 -0.06749822 -0.048921753 0.13885005 0.35423508 -0.22524433
0.29506505 0.08441051 0.23730095 -0.023552882 -0.12409632 0.13761538 -0.0015529573 -0.27010494
0.3089441 0.27632436 -0.0024470352 -0.1758035 0.08035644 -0.15096037 -0.16412075 -0.0010155536
0.049117975 -0.27005926 -0.25819975 0.25013828 -0.3598164 0.30215538 0.031611264 -0.028125133
-0.1435299 -0.4014201 0.18820511 -0.31952503 0.08627734 0.22345293 0.2632363 -0.01161207
-0.28087997 -0.14089869 0.21829541 -0.155544 -0.09168352 -0.08535094 0.1357304 -0.2073654
0.33944753 0.17753014 0.26769865 -0.35280815 -0.075035915 0.1965782 -0.10838873 0.14733495
-0.048891935 0.33718655 -0.2514248 -0.12701796 -0.49010643 0.25216925 -0.1615434 -0.12191191
-0.3726566 -0.41167834 -0.038565777 -0.34172967 -0.20623246 0.1653011 0.32445717 -0.1521484
-0.05561134 -0.02863526 0.31371883 -0.115414515 -0.013524171 0.0064106304 0.3389301 -0.21216047
0.0712061 0.1629431 -0.0536467 -0.24664524 0.18287048 -0.18221468 -0.35622415 0.045987636
0.16658135 -0.029183479 -0.04032947 0.09588961 -0.14592509 0.33869463 -0.14397058 0.21408768
-0.20729467 -0.2957087 0.26713923 -0.32015526 -0.032075454 0.11724336 0.30635953 -0.20771433
00000000: 19a8 77be 1320 463e 5ac8 4d3d bc9d 45bd
00000010: 67dc 0ebe e367 fb3b 380b 51bd 9d56 a8be
00000020: 6e15 a73e 3ea3 473e 10c1 ac3e fae8 82be
00000030: cab0 043e f61d b7bc 3cd8 31be c60e 45bb
00000040: fef8 2b3e 5609 873d f75f 1ebe 5478 3ebc
00000050: c72d dfbd fb4d 803e cf02 d1be 7818 d73d
00000060: c09e 88be 916f 55be 4293 033e 9108 3ebe
00000070: 24c8 4bbc 0df9 183d c2fb ae3e 0ed2 493d
00000080: 1a83 52bd 562c 173d bcec 013e 9d6e 633d
00000090: 7bfc f73d 85c0 bbbd cd00 a53e af9b 4dbe
000000a0: 5078 1b3f 4b86 2c3d 15d5 443d 61d2 07be
000000b0: 13e5 843e f648 a9be 3116 683d 585c 8ebc
000000c0: a05d cf3d 218d 233e 9159 c5bd 493e 93bd
000000d0: b088 ffbd 3031 633c 9d9b 9d3e 8461 a43d
000000e0: 8222 d1bc 27e8 fbbe 10fb 273d 252f 2cbe
000000f0: b272 ff3d db43 873e 301c ca3e 8806 3f3e
00000100: eb2a 7fbe 617b 2a3e 76c5 8f3e f6c9 0cbe
00000110: ac23 09bd 4494 2d3e a291 753d 53b0 92be
00000120: a3ba 0d3c b91a 6c3e 3c03 cb3d 20c6 d1bd
00000130: b892 62bd 11db ccbc 4128 02be 71e9 203e
00000140: 1250 1fbd 123c 13be d0f9 65bd 66a6 52be
00000150: c79d cdbd 7673 9e3e f9c7 adbc 4c50 a1bd
00000160: 7904 153d 30f9 b7be 03c8 fb3c 066c ccbe
00000170: aa1f d3bd 6a71 7c3e 3e6d b63e 84ce 25be
00000180: f4da 15be 895b 183e 2057 723d 4254 16be
00000190: e5ea 153d 6232 be3c a751 803e 85aa 83bc
000001a0: 7e6d 973e 2f21 333d c5f7 853e 8fed e93d
000001b0: cdb3 693e 4185 da3d 6f78 01be 5dba d4bd
000001c0: 5d08 31be e98e a2bb 2e2a 1bbe 96c9 e93d
000001d0: bd9e b53c 3268 473e fb5a 823e f42b 08be
000001e0: 0824 79bc 187f d1bd 7a2d 72bd e482 2bbe
000001f0: 7768 593b 348c e23d 46c0 1a3e 1d81 f23d
00000200: 9d99 993e 5803 70be 44ff 8e3e 17c9 2ebe
00000210: 6890 88bd fe6b e33e ae89 853e 15dd 6abe
00000220: c026 723e a5d3 703e 5413 81be 9074 e7bd
00000230: 3393 343e 4ce5 85be 251d 91bd 1196 073c
00000240: ce0a b33e 76eb 24be c200 d13c 6b0e 61be
00000250: 1991 9cbe 0edf a3bb 25fc 9ebc 0369 853e
00000260: 8b75 eebe 8624 99be e342 a33e 823c 8abd
00000270: 2d62 48bd b52e 0e3e 4d5e b53e 73a6 66be
00000280: c412 973e 6bdf ac3d 05ff 723e f9f1 c0bc
00000290: 3626 febd 0ceb 0c3e 9a8c cbba 324b 8abe
000002a0: ec2d 9e3e 637a 8d3e 705e 20bb d505 34be
000002b0: eb91 a43d 5b95 1abe 450f 28be 531c 85ba
000002c0: ee2f 493d 3545 8abe c232 84be 2012 803e
000002d0: db39 b8be 1cb4 9a3e d07a 013d ae66 e6bc
000002e0: 81f9 12be ef86 cdbe d7b8 403e c998 a3be
000002f0: 2db2 b03d d8d0 643e e9c6 863e 8d40 3ebc
00000300: 80cf 8fbe bf47 10be d588 5f3e ed46 1fbe
00000310: 92c4 bbbd 79cc aebd e9fc 0a3e 9857 54be
00000320: 11cc ad3e 76ca 353e cc0f 893e 45a3 b4be
00000330: 6eac 99bd cc4b 493e e9fa ddbd f9de 163e
00000340: e942 48bd b7a3 ac3e c0ba 80be ff10 02be
00000350: 3bef fabe 541c 813e a26b 25be f4ac f9bd
00000360: d9cc bebe 81c7 d2be 26f7 1dbd 31f7 aebe
00000370: 9a2e 53be b144 293e 401f a63e cacc 1bbe
00000380: b7c8 63bd 7e94 eabc c19f a03e 725e ecbd
00000390: 7c94 5dbc 4410 d23b 3f88 ad3e 9840 59be
000003a0: 81d4 913d 8eda 263e a4bc 5bbd 9290 7cbe
000003b0: 6642 3b3e 7c96 3abe 0363 b6be 885d 3c3d
000003c0: 4d94 2a3e 3112 efbc 8430 25bd c661 c43d
000003d0: 636d 15be 6269 ad3e 066d 13be cd39 5b3e
000003e0: 0e45 54be 2167 97be 79c6 883e 64eb a3be
000003f0: 8d61 03bd 491d f03d 28db 9c3e 11b3 54be

bias_ih_l1 f4 [128]
-0.24083185 -0.41973352 -0.2762903 -0.34783807 -0.47575244 -0.4118415 -0.4751237 -0.16366178
-0.32987732 -0.20366716 -0.30713987 -0.34513757 -0.3148327 -0.36758736 -0.24564068 -0.3766178
-0.6721533 -0.498886 -0.19983111 -0.39375448 -0.14964657 -0.16650815 -0.13821955 -0.3848766
-0.33334714 -0.15826163 -0.28629196 -0.34492046 -0.22865523 -0.080839686 0.07897202 -0.1350939
-0.20103122 -0.24708463 -0.19970056 -0.30751365 -0.5107649 -0.3210372 -0.36291188 -0.3401234
-0.35948 -0.28732595 -0.34242916 -0.21593222 -0.25327355 -0.42046997 -0.22450258 -0.2555854
-0.6798985 -0.4751452 -0.39013097 -0.30339277 -0.15040442 -0.24453045 -0.27028614 -0.29241338
-0.36078382 -0.3998898 -0.25010318 -0.4672527 -0.09203191 -0.15018763 -0.09999316 -0.39103886
-0.03479068 -0.23926309 -0.074734956 -0.061552938 -0.050620053 -0.026899537 -0.072112575 0.05336141
-0.003951237 -0.047419105 -0.076407105 -0.12125487 0.045773268 0.067345366 -0.019720867 0.07349118
-0.0020070304 0.1009349 0.052895013 -0.1212262 0.14981438 -0.026562566 -0.17939356 0.181374
-0.09427934 0.087022215 -0.027567932 -0.036292642 0.09142973 -0.1429599 -0.11920581 -0.13978273
-0.29375967 -0.41071463 -0.20397411 -0.4267987 -0.5418225 -0.20991908 -0.3567307 -0.32187524
-0.3959685 -0.37677512 -0.4144877 -0.3202339 -0.55799305 -0.29883653 -0.20754005 -0.5083666
-0.66225904 -0.23358245 -0.31164458 -0.2514763 -0.082271524 -0.29404047 -0.3135652 -0.2676085
-0.30584309 -0.10278585 -0.5641733 -0.2696521 -0.36185375 -0.27974853 -0.105434135 -0.26916435
00000000: a09c 76be 50e7 d6be ec75 8dbe d517 b2be
00000010: d395 f3be e4dc d2be 6a43 f3be f496 27be
00000020: aee5 a8be 208e 50be 7041 9dbe dfb5 b0be
00000030: c031 a1be 6934 bcbe 3b89 7bbe 0cd4 c0be
00000040: 3d12 2cbf fc6d ffbe 87a0 4cbe 309a c9be
00000050: f33c 19be 1d81 2abe 6d89 0dbe 8c0e c5be
00000060: 7aac aabe 560f 22be dc94 92be 6a99 b0be
00000070: 9924 6abe 478f a5bd 15bc a13d 0e56 0abe
00000080: 21db 4dbe c103 7dbe 4e7e 4cbe 6e72 9dbe
00000090: 7dc1 02bf fd5e a4be 96cf b9be a724 aebe
000000a0: c30d b8be 631c 93be e052 afbe 561d 5dbe
000000b0: 12ad 81be d747 d7be 01e4 65be 17dc 82be
000000c0: d40d 2ebf 3b46 f3be 3fbf c7be 4c56 9bbe
000000d0: 9e03 1abe 3166 7abe f262 8abe 35b7 95be
000000e0: a8b8 b8be 5bbe ccbe 860d 80be bf3b efbe
000000f0: 3a7b bcbd c9ca 19be 37c9 ccbd 3f36 c8be
00000100: ac80 0ebd 6201 75be a40e 99bd ef1e 7cbd
00000110: f956 4fbd 6b5c dcbc c2af 93bd 7e91 5a3d
00000120: 6179 81bb 893a 42bd 547b 9cbd 7954 f8bd
00000130: c07c 3b3d 5eec 893d a88d a1bc 8b82 963d
00000140: 6288 03bb f5b6 ce3d 71a8 583d 7145 f8bd
00000150: f168 193e bd99 d9bc f2b2 37be 1bba 393e
00000160: 8715 c1bd b438 b23d 25d6 e1bc 98a7 14bd
00000170: 833f bb3d 1464 12be 2d22 f4bd 3423 0fbe
00000180: ab67 96be 3049 d2be 97de 50be 5c85 dabe
00000190: e1b4 0abf 07f5 56be 68a5 b6be d5cc a4be
000001a0: 62bc cabe abe8 c0be bb37 d4be b3f5 a3be
000001b0: a2d8 0ebf 1a01 99be 6185 54be 5024 02bf
000001c0: cf89 29bf 3d30 6fbe e18f 9fbe 80c1 80be
000001d0: f97d a8bd 798c 96be 9e8b a0be fb03 89be
000001e0: 7797 9cbe 6381 d2bd a96d 10bf d70f 8abe
000001f0: e544 b9be 333b 8fbe daed d7bd e9cf 89be

bias_hh_l1 f4 [128]
-0.25890654 -0.1519914 -0.21156375 -0.37140155 -0.31182298 -0.2746265 -0.4003935 -0.24622767
-0.51517546 -0.48214838 -0.3218163 -0.31461996 -0.40470925 -0.55427253 -0.10960088 -0.33309263
-0.42609638 -0.28235584 -0.4946198 -0.28188258 -0.29799214 -0.25413916 -0.15607697 -0.16533127
-0.3295268 -0.27054793 -0.2997174 -0.48094633 -0.105369516 -0.12639603 -0.025727103 -0.22387233
-0.37306374 -0.08751713 -0.17809033 -0.07514567 -0.5392205 -0.41327533 -0.45785025 -0.098025724
-0.48029768 -0.25232083 -0.5211281 -0.38225424 -0.38438147 -0.40248427 -0.2451039 -0.4518081
-0.5205175 -0.26883623 -0.18044671 -0.204802 -0.21510729 -0.36072695 -0.24130733 -0.34076986
-0.37469086 -0.23862371 -0.38514757 -0.22465688 -0.24078064 -0.24952462 0.05194328 -0.3226932
0.023802226 -0.0076710666 -0.008505055 0.118632644 -0.22291152 0.03711725 -0.044377714 -0.010974231
0.0008711526 -0.079424545 -0.028039772 0.097205445 -0.19355859 -0.04467957 0.05372889 0.06962419
0.049201366 -0.048607755 0.038881224 0.10642322 0.16198382 0.014251167 0.026404323 0.019976435
0.054576382 0.033156943 -0.08812345 0.15507089 -0.11823929 -0.15841535 -0.24374314 0.05427229
-0.42839426 -0.18486947 -0.29267755 -0.39972797 -0.4867275 -0.40471795 -0.20096959 -0.333805
-0.36934122 -0.4934585 -0.5044691 -0.15946984 -0.36520675 -0.4727141 -0.2528547 -0.4127613
-0.43898144 -0.30611363 -0.47489595 -0.4681461 -0.35403118 -0.31368065 -0.19167009 -0.32211116
-0.22161965 -0.34559494 -0.41994932 -0.43462846 -0.42613837 -0.03639523 -0.04447284 -0.41153088
00000000: 668f 84be a2a3 1bbe 2ba4 58be 5828 bebe
00000010: 43a7 9fbe d89b 8cbe 6000 cdbe 1b23 7cbe
00000020: 8ae2 03bf 27dc f6be 1bc5 a4be de15 a1be
00000030: 0d36 cfbe cee4 0dbf 6d76 e0bd 1e8b aabe
00000040: 4e29 dabe f290 90be ce3e fdbe ea52 90be
00000050: 6d92 98be 871e 82be a4d2 1fbe 9a4c 29be
00000060: bdb7 a8be 4285 8abe 8f74 99be 993e f6be
00000070: f9cb d7bd f66d 01be a5c1 d2bc ca3e 65be
00000080: 3602 bfbe 2e3c b3bd 505d 36be f9e5 99bd
00000090: 5b0a 0abf d398 d3be 596b eabe b6c1 c8bd
000000a0: 94e9 f5be 3230 81be a768 05bf d4b6 c3be
000000b0: a6cd c4be 6b12 cebe 84fc 7abe 6453 e7be
000000c0: a340 05bf e7a4 89be 06c7 38be 9eb7 51be
000000d0: 1645 5cbe 34b1 b8be 4519 77be 6379 aebe
000000e0: 7bd7 bfbe c659 74be 1032 c5be 740c 66be
000000f0: 338f 76be 6283 7fbe 7ac2 543d 0b38 a5be
00000100: e3fc c23c 925d fbbb c958 0bbc acf5 f23d
00000110: eb42 64be 4208 183d 68c5 35bd 43cd 33bc
00000120: 105e 643a 56a9 a2bd aab3 e5bc a613 c73d
00000130: 3934 46be ed01 37bd d312 5c3d 2197 8e3d
00000140: 5f87 493d ed18 47bd eb41 1f3d 6bf4 d93d
00000150: 16df 253e ba7d 693c e14d d83c 9fa5 a33c
00000160: 7c8b 5f3d 93cf 073d 117a b4bd e7ca 1e3e
00000170: 7127 f2bd a237 22be cd97 79be 9f4c 5e3d
00000180: 7e56 dbbe 6c4e 3dbe d5d9 95be 25a9 ccbe
00000190: 5934 f9be 3137 cfbe f9ca 4dbe 7de8 aabe
000001a0: 4b1a bdbe 98a6 fcbe e324 01bf 104c 23be
000001b0: 61fc babe 9507 f2be 2c76 81be 7355 d3be
000001c0: 2dc2 e0be edba 9cbe 9025 f3be d8b0 efbe
000001d0: 9343 b5be c09a a0be 2a45 44be c1eb a4be
000001e0: 43f0 62be d2f1 b0be 9903 d7be 9f87 debe
000001f0: cf2e dabe 2a13 15bd 2729 36bd 2db4 d2be

weight_ih_l2 f4 [128, 32]
0.055999734 0.45481956 0.09442383 -0.16813298 0.3072712 -0.13015768 0.060660813 -0.20819971
0.20002805 0.28594017 0.08634651 0.38188154 0.29266044 -0.2959299 -0.38326046 -0.18594371
0.11570829 -0.11483522 -0.2853752 0.0038312108 -0.35328752 0.32032883 0.30389515 -0.281587
0.033817157 -0.4418875 0.51829076 -0.2961924 -0.061421562 0.38680395 0.44751495 0.01295254
0.05481803 0.13312557 0.0028547859 -0.13613893 0.22165994 -0.3218783 0.13959865 -0.33095023
0.48762137 0.09296916 0.03150173 -0.29200804 0.10996006 -0.036699258 -0.19170809 -0.035495665
-0.37596673 0.15481915 -0.24719474 -0.019159164 -0.54284656 0.34915257 0.0025885128 -0.26230082
-0.25739303 -0.35439247 0.033163816 -0.37675145 0.16759677 0.70596755 0.5901525 -0.013817015
-0.06663427 0.31869158 0.17817858 -0.26277798 0.4755274 -0.30714715 0.08883709 -0.27366668
0.34711194 0.32012197 0.1954641 0.14533319 0.15873875 -0.0030065884 -0.10807233 -0.00066202594
-0.16503984 0.15334389 -0.16062602 0.19347371 -0.11154186 0.18997365 0.34336454 -0.062183548
0.20243664 -0.15738933 0.58012515 -0.4792767 0.0852599 0.32130778 0.5617236 0.048935052
0.09358693 0.03475153 -0.005397783 -0.041735306 0.32884228 -0.1934056 0.14917272 -0.26294142
0.18625137 0.18245517 0.27684584 0.12029622 0.14634134 -0.039666425 0.078852594 0.12020524
-0.19064587 0.14637198 -0.15261854 0.023853555 -0.30634096 -0.06532144 0.048826333 -0.11553479
-0.14344972 -0.28038087 0.22001266 0.02770946 -0.028241081 0.062446624 0.26518372 -0.048743915
0.2587406 0.46775085 -0.14827774 -0.39717236 0.58413786 -0.03588718 0.2545791 -0.021718752
0.2861506 0.015516518 -0.08895603 -0.22130547 0.33780858 -0.020831496 0.08110689 -0.15196398
0.024583044 -0.032167416 -0.14553382 0.008138371 -0.37727824 -0.15375596 0.33627656 -0.43355265
0.28125852 -0.23445496 0.47970057 -0.0066993767 0.27811205 0.80663663 0.6815486 -0.022742132
-0.15779018 0.075015984 0.04003296 -0.15789007 0.22818749 0.018262912 -0.07451417 -0.3024178
0.4110974 0.069692895 -0.015961047 0.27031553 0.34525803 -0.23947738 0.06559437 0.044469517
0.08573276 0.11158802 -0.1473923 -0.064019226 -0.30515495 0.25081545 0.19091713 -0.08186138
-0.11689909 -0.33832952 0.06495946 -0.26924056 0.33063558 0.044368006 0.1549033 0.097558156
0.15492576 0.21626978 -0.16901486 -0.1804945 0.28366238 -0.08137477 0.24876109 -0.37258142
0.40822703 0.3289443 0.08514519 0.08301156 0.35755348 -0.30700436 -0.16006872 -0.18374641
0.18984039 -0.03521203 -0.30232203 0.07379543 -0.23930658 0.043225233 0.11837877 0.054767177
0.09981951 -0.54494613 0.48495057 -0.2653084 -0.007971833 0.48862934 0.353061 0.26312712
0.32933062 0.6071474 0.15878138 -0.45502988 0.03596805 -0.096509606 0.10849206 -0.19047605
0.13775818 0.1346022 0.01615759 -0.07389763 0.31301546 -0.22430493 -0.15572385 0.084951095
0.10613242 -0.17717622 -0.26994136 0.31686154 -0.20512693 0.01335324 -0.029543018 0.1465588
0.021134675 -0.19121197 0.54985684 -0.3492702 0.055377338 0.6948913 0.4723196 0.25429833
00000000: fa5f 653d 1cde e83e 4861 c13d 0d2b 2cbe
00000010: a752 9d3e 0e48 05be 7977 783d 4e32 55be
00000020: 27d4 4c3e c066 923e 70d6 b03d fa85 c33e
00000030: 97d7 953e 2084 97be b73a c4be 0768 3ebe
00000040: 78f8 ec3d ba2e ebbd b31c 92be 0d15 7b3b
00000050: 1ae2 b4be 2402 a43e 2598 9b3e 2c2c 90be
00000060: dc83 0a3d 143f e2be b4ae 043f 88a6 97be
00000070: 2d95 7bbd 2b0b c63e ae20 e53e e436 543c
00000080: df88 603d 1252 083e 5c17 3b3b 0168 0bbe
00000090: d3fa 623e 3ccd a4be f3f2 0e3e 4f72 a9be
000000a0: 82a9 f93e 9d66 be3d f507 013d 1482 95be
000000b0: bd32 e13d f651 16bd 204f 44be e763 11bd
000000c0: b67e c0be e988 1e3e 9e20 7dbe aef3 9cbc
000000d0: fef7 0abf 20c4 b23e 0aa4 293b 4b4c 86be
000000e0: 05c9 83be ee72 b5be c8d6 073d 91e5 c0be
000000f0: 7d9e 2b3e 4aba 343f 3c14 173f c360 62bc
00000100: 8c77 88bd 8b2b a33e 7274 363e d68a 86be
00000110: 5478 f33e 6442 9dbe 38f0 b53d 0a1e 8cbe
00000120: a8b8 b13e 07e7 a33e be27 483e 39d2 143e
00000130: 698c 223e 2f0a 45bb 0755 ddbd cf8b 2dba
00000140: 3400 29be 2e06 1d3e 267b 24be f91d 463e
00000150: 0f70 e4bd 7488 423e 7acd af3e 2db4 7ebd
00000160: 8d4b 4f3e ab2a 21be 1583 143f c163 f5be
00000170: be9c ae3d 7482 a43e 1ecd 0f3f 1f70 483d
00000180: 81aa bf3d 9f57 0e3d e3df b0bb a4f2 2abd
00000190: 045e a83e 1e0c 46be bcc0 183e 42a0 86be
000001a0: aeb8 3e3e 87d5 3a3e bdbe 8d3e dd5d f63d
000001b0: 81da 153e 4379 22bd 787d a13d 2a2e f63d
000001c0: ac38 43be 89e2 153e 0948 1cbe 8868 c33c
000001d0: b9d8 9cbe 3fc7 85bd 1ffe 473d 819d ecbd
000001e0: 7ce4 12be 158e 8fbe 004b 613e f3fe e23c
000001f0: d759 e7bc 08c8 7f3d 29c6 873e b3a7 47bd
00000200: a679 843e 0a7d ef3e 1fd6 17be 2d5a cbbe
00000210: 0f8a 153f 70fe 12bd 3158 823e 86eb b1bc
00000220: 5582 923e fe38 7e3c 942e b6bd e79d 62be
00000230: 3ff5 ac3e d0a6 aabc 5f1b a63d 729c 1bbe
00000240: 6162 c93c fbc1 03bd d106 15be cd56 053c
00000250: 9d2a c1be 3472 1dbe 712c ac3e 9dfa ddbe
00000260: 1e01 903e f614 70be 509b f53e 7286 dbbb
00000270: b464 8e3e bd7f 4e3f f879 2e3f b54d babc
00000280: c093 21be fba1 993d 9af9 233d efad 21be
00000290: fba9 693e 1a9c 953c e39a 98bd 82d6 9abe
000002a0: 5c7b d23e 26bb 8e3d bec0 82bc cc66 8a3e
000002b0: a9c5 b03e 8f39 75be 5756 863d ab25 363d
000002c0: a894 af3d 4388 e43d 02ee 16be 831c 83bd
000002d0: 453d 9cbe e26a 803e c87f 433e f0a6 a7bd
000002e0: ca68 efbd 8739 adbe 7709 853d e6d9 89be
000002f0: 1149 a93e 3abb 353d f89e 1e3e 92cc c73d
00000300: dca4 1e3e d375 5d3e 3b12 2dbe 8dd3 38be
00000310: 323c 913e d1a7 a6bd 3abb 7e3e fec2 bebe
00000320: 2203 d13e 636b a83e 9a60 ae3d f701 aa3d
00000330: 4011 b73e ad2f 9dbe 0ee9 23be 0528 3cbe
00000340: 8565 423e 7d3a 10bd f4c9 9abe 0f22 973d
00000350: c90c 75be f10c 313d 9270 f23d 8c53 603d
00000360: 2c6e cc3d 9781 0bbf 714b f83e 81d6 87be
00000370: 4b9c 02bc a02d fa3e 69c4 b43e 99b8 863e
00000380: 069e a83e 036e 1b3f 9697 223e adf9 e8be
00000390: 3c53 133d d4a6 c5bd 1631 de3d 270c 43be
000003a0: 7b10 0d3e 29d5 093e ec5c 843c a457 97bd
000003b0: 9043 a03e 31b0 65be 1376 1fbe d7fa ad3d
000003c0: f45b d93d af6d 35be c135 8abe ad3b a23e
000003d0: cb0c 52be 8cc7 5a3c 3304 f2bc 8313 163e
000003e0: a022 ad3c 12cd 43be 6bc3 0c3f 8bd3 b2be
000003f0: 59d3 623d 65e4 313f e0d3 f13e 6433 823e

weight_hh_l2 f4 [128, 32]
-0.014609969 -0.21214463 0.034768037 -0.25264633 -0.1612367 -0.11994687 -0.008700116 -0.006714718
0.07979127 0.07965126 0.3070445 -0.036052383 0.25521725 0.14970191 0.2214449 0.1331176
-0.04655069 0.2561742 0.31052706 0.10664086 0.099292934 0.05362279 -0.11762403 -0.0594921
0.06235658 0.16313408 -0.18453011 -0.09411033 0.21439648 0.104001336 -0.26232308 0.068134286
-0.094171315 0.11864378 0.35093927 0.02294992 -0.5426343 -0.11339234 -0.2906805 -0.031797916
0.27286753 0.13545257 0.21729828 0.35533437 0.052978855 -0.2644533 -0.22023927 -0.27334827
-0.06608396 0.2402614 0.0602557 0.22462405 0.032667913 -0.34302953 -0.109056875 -0.030794801
0.21418601 -0.31864557 -0.06556495 0.0470564 -0.08082843 -0.34238216 -0.42087966 0.09379814
-0.107017994 0.020226981 0.1499423 -0.24886805 -0.06361393 -0.28556606 0.1560323 0.07711928
0.27777168 0.010950454 0.14890848 -0.13288227 0.3391905 0.022003766 0.035193663 -0.058871996
-0.33440164 0.017709736 0.09735342 0.2703472 0.14480007 -0.11597167 -0.1862955 -0.3043295
0.120294526 0.09331814 -0.08831446 0.052582104 -0.10997793 -0.036035534 -0.10124665 -0.11004606
-0.20598678 0.3002725 0.14355414 -0.11855591 -0.3808881 -0.1580877 -0.13651207 -0.040630814
0.2870449 0.04623489 0.14950635 0.012768556 0.24448729 -0.002004804 -0.029273393 -0.18400136
0.051717598 0.13139182 0.16135281 0.20295942 0.09937983 -0.07691457 -0.03824521 -0.07304778
0.10592903 -0.2697224 -0.108793 0.047461566 -0.057871535 0.1246653 -0.15415308 -0.0026102639
-0.17189604 0.2858352 0.13785787 -0.09022103 -0.30262634 -0.57106555 0.011311547 0.13529058
0.5437553 0.35672405 0.39424136 0.42826277 0.2537607 -0.1296447 -0.27979723 -0.41024026
-0.035462182 0.3544041 0.317311 0.48619646 0.25577024 -0.13354819 0.06564493 -0.20025618
0.47932968 -0.33212563 -0.514169 -0.30844542 -0.09837234 -0.21903716 -0.43622154 0.11047493
-0.039920907 0.012155165 -0.049917236 0.067913264 -0.29887787 0.07017874 -0.03124835 -0.23273389
0.0480157 0.18287201 -0.06341641 -0.19082516 0.060512427 0.13556561 0.058270734 -0.13820617
0.009222721 -0.094741784 0.30410454 0.20068903 0.23351265 0.11031545 0.06681718 0.036477037
0.026209204 0.038286254 0.058300488 -0.014811385 -0.0010093128 0.10755961 -0.024062969 0.09592105
0.20959225 0.24709933 0.26833782 0.18740192 -0.09971182 0.024767246 0.08222089 -0.45772192
0.24790175 0.011686287 0.16199377 -0.27109718 0.083664775 -0.17482522 -0.1702348 -0.10824305
0.040988803 0.077440836 0.4565315 -0.15546282 -0.025774147 0.0663058 -0.29206544 -0.048087653
0.022441851 -0.12291974 -0.15172787 0.25272816 0.11866529 0.10592357 -0.19492227 0.29645565
0.028361276 0.23398751 -0.10243973 -0.17005569 -0.2822487 0.12632076 0.070953146 -0.18697482
0.2643509 0.18492003 0.30189648 -0.24334945 0.11444214 -0.13865238 -0.29350063 -0.08246794
-0.27665251 -0.019924367 0.0027975496 0.08112221 0.31026766 -0.08072502 -0.2186301 -0.16424398
-0.19988215 0.045589313 -0.020117436 0.062126454 -0.11476565 0.16902368 -0.38238624 0.1582752
00000000: a75e 6fbc 713c 59be ee68 0e3d dc5a 81be
00000010: 3c1b 25be b4a6 f5bd ee8a 0ebc 2307 dcbb
00000020: 9b69 a33d 3320 a33d f034 9d3e aaab 13bd
00000030: d6ab 823e 754b 193e 74c2 623e fb4f 083e
00000040: f0ab 3ebd 4429 833e 67fd 9e3e 8666 da3d
00000050: 185a cb3d 92a3 5b3d dee4 f0bd fdad 73bd
00000060: 9d69 7f3d 9f0c 273e 76f5 3cbe ebbc c0bd
00000070: c08a 5b3e a7fe d43d 364f 86be fd89 8b3d
00000080: e4dc c0bd 83fb f23d 50ae b33e 7801 bc3c
00000090: 15ea 0abf 3e3a e8bd 13d4 94be 883e 02bd
000000a0: 4bb5 8b3e 14b4 0a3e 7183 5e3e 63ee b53e
000000b0: 5b00 593d 6c66 87be 6786 61be 4ef4 8bbe
000000c0: 0757 87bd 1607 763e aece 763d d903 663e
000000d0: cace 053d 91a1 afbe 3659 dfbd 6145 fcbc
000000e0: 9453 5b3e 8325 a3be eb46 86bd 36be 403d
000000f0: 6089 a5bd b74c afbe 8a7d d7be 3d19 c03d
00000100: 402c dbbd 0eb3 a53c 798a 193e 44d7 7ebe
00000110: 0548 82bd b735 92be eec6 1f3e b7f0 9d3d
00000120: 1738 8e3e 8869 333c 777b 183e 4a12 08be
00000130: 61aa ad3e 3e41 b43c 3b27 103d c323 71bd
00000140: b136 abbe 0214 913c 3b61 c73d f36a 8a3e
00000150: 7846 143e 8e82 edbd 3fc4 3ebe 14d1 9bbe
00000160: fa5c f63d 951d bf3d 36de b4bd 5560 573d
00000170: 1c3c e1bd ff99 13bd 675a cfbd d45f e1bd
00000180: 33ee 52be 51bd 993e dbff 123e 71cd f2bd
00000190: c403 c3be bee1 21be d2c9 0bbe 7f6c 26bd
000001a0: 8df7 923e cc60 3d3d 3118 193e 3533 513c
000001b0: e05a 7a3e 0863 03bb c1ce efbc da6a 3cbe
000001c0: d5d5 533d 948b 063e ac39 253e 98d4 4f3e
000001d0: a787 cb3d 6385 9dbd 02a7 1cbd 139a 95bd
000001e0: 52f1 d83d 0e19 8abe ddce debd 0f67 423d
000001f0: b40a 6dbd 8550 ff3d 4eda 1dbe f610 2bbb
00000200: 8405 30be fe58 923e 9d2a 0d3e cec5 b8bd
00000210: d7f1 9abe 5a31 12bf 1154 393c 9d89 0a3e
00000220: 8c33 0b3f 89a4 b63e 01da c93e 4245 db3e
00000230: ecec 813e 95c1 04be 9541 8fbe 030b d2be
00000240: cb40 11bd 7474 b53e 9676 a23e beee f83e
00000250: 51f4 823e dbc0 08be d970 863d f50f 4dbe
00000260: b36a f53e 5f0c aabe 94a0 03bf 8fec 9dbe
00000270: 7077 c9bd 474b 60be 6e58 dfbe ae40 e23d
00000280: 1b84 23bd 7526 473c 0476 4cbd 1c16 8b3d
00000290: 8506 99be dfb9 8f3d 8afc ffbc cb51 6ebe
000002a0: 1cac 443d cd42 3b3e 76e0 81bd ac67 43be
000002b0: e1db 773d b6d1 0a3e 4bad 6e3d eb85 0dbe
000002c0: e51a 173c fb07 c2bd 97b3 9b3e 6d81 4d3e
000002d0: f11d 6f3e 11ed e13d 72d7 883d f268 153d
000002e0: afb4 d63c 0cd2 1c3d 7ecc 6e3d 74ab 72bc
000002f0: eb4a 84ba 3648 dc3d b41f c5bc 4172 c43d
00000300: 5a9f 563e 9b07 7d3e 9363 893e 4ae6 3f3e
00000310: b635 ccbd aee4 ca3c 6d63 a83d 875a eabe
00000320: f5d9 7d3e d777 3f3c b2e1 253e 40cd 8abe
00000330: 7058 ab3d 6205 33be 0852 2ebe 88ae ddbd
00000340: e0e3 273d 4d99 9e3d 7fbe e93e a531 1fbe
00000350: 4e24 d3bc 56cb 873d 9a89 95be 8ff7 44bd
00000360: f9d7 b73c 58bd fbbd 8d5e 1bbe 9665 813e
00000370: ca06 f33d 75ee d83d b499 47be 09c9 973e
00000380: e855 e83c 6c9a 6f3e eccb d1bd 1423 2ebe
00000390: e782 90be 3b5a 013e e24f 913d 5476 3fbe
000003a0: 0059 873e ad5b 3d3e 2d92 9a3e 9930 79be
000003b0: a460 ea3d e4fa 0dbe b745 96be f4e4 a8bd
000003c0: 66a5 8dbe 6d38 a3bc 1857 373b 6723 a63d
000003d0: 67db 9e3e 2953 a5bd 92e0 5fbe 932f 28be
000003e0: e8ad 4cbe dcbb 3a3d 52cd a4bc 4f78 7e3d
000003f0: 410a ebbd 8b14 2d3e 21c8 c3be e512 223e
